result/FOMAML_CUB_Conv4_5w1s__(0.8,1.0)_/best_model.pth (torch, 495819 bytes, 26 tensors)

encoder.0.conv.weight f4 [64, 3, 3, 3]
00000000: 07e6 4c3c 901a e03d eb86 b63c 9a81 853c
00000010: ad31 1abe dc09 4ebd e1a7 ef3d 4738 163e
00000020: 9a0f ac3c 38ad fb3d 065c b63d 7813 eebd
00000030: fbb0 783e 0d4a 543e 37bb 3e3e ab10 b43d
00000040: 58aa 493e d737 893e 2ae7 5bbd 8566 89be
00000050: 9816 253d 7339 c5be 19a2 3cbe de8e 91be
00000060: bd66 d5be 8e94 f5be 8a46 f1be 440c df3e
00000070: 21c4 a83c 9209 e9bd ce70 023f 8682 4d3d
00000080: b223 5c3e 1b3a 97be 0be6 18be 1312 83be
00000090: a860 2abe 17d9 1fbe e2d6 b13c 575e 7d3d
000000a0: 0225 34be fad9 163e c0c8 69bd 8797 71bd
000000b0: 8a2b a7bb 5347 fbbd 7197 483d abdf 5abe
000000c0: b429 0a3f 6e46 7c3e 3b1a 74be 6e1a ba3e
000000d0: b5c1 0abe 5165 1bbd cca3 89bd a182 123d
000000e0: 7a76 e9bd ca11 08bd 6661 16bc 87b8 5a3d
000000f0: 5a6f f7bb 905f 0f3c ec79 51be 8943 603e
00000100: c3a5 d03e 760e d93e a147 a13e 506c 9b3e
00000110: ecfd fc3d 5900 e43d aa1e d13d d8cd 3c3d
00000120: f64c 6cbe 9a60 d2be 26b6 9fbe dedf 8cbe
00000130: ec06 8bbe 1e78 eabd 961b ccbd ec95 0abd
00000140: 29a6 3b3e e9df 823e d862 2b3e 9a82 acbd
00000150: ee64 b33e b6f9 433d a3bc 7bbe 7491 683c
00000160: 0ae1 ae3d f941 05bc 90d9 cdbe b1eb bcbe
00000170: eafe 4dbe 47fd 3dbe d208 5abe d9f7 f2be
00000180: c69a 18bd 1563 97be a3da 123e 780f 363e
00000190: d250 4e3e 613a c53e eb22 80bc f374 8a3e
000001a0: 1f6a ac3c 7642 773d 737a 013c 6e48 903e
000001b0: 5dcd 023e d63c 963b 903b c83c 7b7d ba3e
000001c0: aec2 903e 087f 443e cfc6 debc 788d 2c3a
000001d0: 5300 db3c b1f6 dabe af9e 66bd 29c6 a7be
000001e0: 4dd9 a4be 5863 d6be ed0e 1ebe 6c7e afbd
000001f0: 9901 02be 199d 74be 98c8 793e a2f4 d33d
00000200: b1cd a63e ef5b 683e 89de a33d 177b 2f3e
00000210: e898 83bd 2497 843e 6430 e73d d0ef 3d3e
00000220: 34b4 ddbd bea5 8dbe cd33 1f3f 7851 2ebd
00000230: 3c71 63bd 0297 d53e 3f07 c03d 6db9 7cbe
00000240: ed73 973d 05f5 13be e72a 75be 09be ae3c
00000250: bdd6 a9bd 06c2 72be 11ee 463d fb4d 38be
00000260: 4fc8 fa3d 67c6 1e3c 18a7 613e 259c aa3e
00000270: d856 1fbe 0b5a c73b fe11 a93c 9ae5 36bd
00000280: 515b 90be 5bec e5bd 6122 863c 24a1 08be
00000290: bf82 443e 3ca0 1d3e c709 4cbd 9b0b 61be
000002a0: 73e4 48be bdee d83e d33b 12bc 5c00 453e
000002b0: 9917 b4bd d23e f93e 874c 1bbe a58f 98be
000002c0: f4cb eebe 2bd2 8bbd cc3f c13e 34c1 33be
000002d0: ff4c 263d e83e 75be 4929 8f3e 9fc9 433d
000002e0: 11b8 953d 59a3 99be e7e8 3bbe ff97 ae3e
000002f0: 0d2d 46bc 6004 683e 4c89 6a3e 05ed be3c
00000300: da25 8e3e 1593 05be 711c 70be f463 1b3e
00000310: aa8d a2be aefe 25be b7d4 073e 1e1e 3c3e
00000320: f8b8 793e 63a4 853b 3c4c 83bc dc55 a1bd
00000330: dd5c 7bbe 6f75 71be b7fc adbb 8ccd cdbe
00000340: aee8 f9be f98a 73be 761e cabd 432a fb3d
00000350: f16a a03e 8998 2f3e f4fe 583e b750 c63e
00000360: c331 873e d4a5 0bbe 368b 9ebd 84db a83e
00000370: 13ae cf3c ebbe 6abe 63b6 a43d 7b7d 5bbd
00000380: 5241 1abe bcce 8f3e 4077 54be bc21 51be
00000390: cebd 923e d5b2 eabd be2b b6be bbf8 a83e
000003a0: 2bca 2a3e 0e00 b0be 9fe7 213e 34a7 97bc
000003b0: 5d5a 16be 8207 ed3e ef12 83bd cd90 b7be
000003c0: 8867 8c3e 4747 b6bd 2ca5 6cbe 8486 68bc
000003d0: 438b ab3d c52b 0dbe 68ed 5ebd 7066 8d3e
000003e0: 610e eb3e eed9 4abe e293 413d ba39 063f
000003f0: b04a 55be f01a a9be 729c d1be 41d8 44be
0.012506015 0.109425664 0.02228113 0.01629715 -0.15058012 -0.05030237 0.11701942 0.14669906
0.021003533 0.12288898 0.08904271 -0.11624807 0.24286263 0.20731373 0.18626104 0.08792242
0.19693887 0.26800415 -0.053687252 -0.2683603 0.04030475 -0.38520393 -0.1842121 -0.28429312
-0.41679946 -0.479649 -0.4712413 0.43564045 0.020601334 -0.113787785 0.50953376 0.050173305
0.21497992 -0.29536518 -0.14931504 -0.25599727 -0.16638434 -0.15610157 0.02170891 0.061857548
-0.17592242 0.14731589 -0.057076216 -0.0589824 -0.005101626 -0.122694634 0.04897255 -0.21374385
0.53969884 0.24636242 -0.23838131 0.3634829 -0.13550456 -0.03793842 -0.06720695 0.03576911
-0.11399551 -0.03322009 -0.009178495 0.053398635 -0.007551116 0.008750811 -0.20456666 0.21900763
0.40751466 0.42393845 0.3149996 0.30356073 0.12353119 0.11132879 0.10210927 0.046094745
-0.23076233 -0.41089326 -0.31193656 -0.27514547 -0.27153718 -0.11448692 -0.09966199 -0.033834383
0.18325104 0.25561455 0.16736925 -0.08423348 0.3503794 0.047845565 -0.24583678 0.014194835
0.085390165 -0.008133405 -0.4020505 -0.36898568 -0.20116773 -0.18553649 -0.21292427 -0.47454718
-0.03725698 -0.2956778 0.14341216 0.17779338 0.20148018 0.38521102 -0.01564165 0.2704235
0.021046696 0.060366116 0.007902729 0.2818026 0.12773652 0.004584889 0.024442464 0.3642386
0.2827353 0.19189084 -0.027194409 0.000658236 0.026733553 -0.42766336 -0.056303676 -0.32768372
-0.32197037 -0.41872668 -0.15435381 -0.08569035 -0.12695922 -0.23888053 0.24392927 0.103493944
0.32578805 0.2269132 0.080014296 0.17136799 -0.06425649 0.2589656 0.11288527 0.18548512
-0.10825387 -0.27665514 0.62188417 -0.042558163 -0.05552791 0.41716772 0.09376382 -0.2468011
0.07395158 -0.14448936 -0.23942147 0.02133085 -0.08292911 -0.23706827 0.04856688 -0.17998497
0.12245237 0.0096908575 0.22036397 0.33322254 -0.15560472 0.006083732 0.020638462 -0.04465256
-0.2819467 -0.11226722 0.016373815 -0.1334272 0.191905 0.15393156 -0.049814012 -0.21977083
-0.19618396 0.42369643 -0.008925396 0.19238418 -0.087935634 0.4868074 -0.15165912 -0.29797092
-0.4663998 -0.06827196 0.37743986 -0.1755417 0.040600773 -0.23949778 0.27961186 0.047799703
0.073104985 -0.30007437 -0.18350564 0.3410034 -0.012095702 0.22657919 0.22903937 0.02330638
0.27763253 -0.13044389 -0.2344835 0.15174848 -0.31748706 -0.16210434 0.13264738 0.18370864
0.24386966 0.0040784343 -0.016027562 -0.078777045 -0.24547143 -0.23579954 -0.005309667 -0.40195882
-0.48810333 -0.23783483 -0.09869091 0.1226392 0.3133159 0.17148031 0.21191007 0.38733456
0.26405153 -0.13637477 -0.07741396 0.32979977 0.02535156 -0.22924392 0.080426 -0.053586464
-0.1506398 0.28087413 -0.20748615 -0.20423025 0.28660434 -0.11459891 -0.35580248 0.33002266
0.16678683 -0.34375042 0.15811013 -0.018512346 -0.14682908 0.4629479 -0.06400096 -0.35852662
0.27422738 -0.08900314 -0.23109883 -0.014192227 0.083761714 -0.13786228 -0.054425627 0.27617216
0.45909408 -0.19809696 0.047260173 0.52431834 -0.20829272 -0.33028364 -0.4093967 -0.1922312

encoder.0.conv.bias f4 [64]
00000000: 5639 f63d 6eb4 113c a659 593d 8f23 ddbd
00000010: a4e3 68bd edae d2bd fa73 40be 0431 a0bc
00000020: 9ae8 5abd 5ebc 34be 9e1b 05bd 0dc7 06be
00000030: f0d5 b83d 9ce4 ad3e 5f1a 55bc 91fe 173c
00000040: 73cb bd3d ae81 52be 7658 fb3d 742b 403e
00000050: 96d4 3a3d 9190 a0bd 819d 2d3e 076f 7fbd
00000060: ef1c 76be b4b2 22be b854 0abe 020f b23d
00000070: 6616 0e3d be6d 8e3d 03d5 07be b443 cbbd
00000080: 6228 e9bc 4ce4 4bbd 8412 1abd 90c5 9dbb
00000090: 1287 063e 3240 8c3e cc99 78bd 3e91 c3bd
000000a0: ec49 fa3d a901 c9bd 3af9 923d b5aa 55bd
000000b0: 7cfe bdbd 1c9e 443e 4788 863d d656 dc3d
000000c0: 0f3e 06bc d476 e13b 66c4 a1bd e550 3e3e
000000d0: 5f48 7e3e 6f2f 80be a4d8 40bd 7991 56be
000000e0: a614 98bd fc57 0d3d d3bc 83be 8f7b 2f3e
000000f0: e6d2 123d 6044 a83e 2646 01be fa23 0f3e
0.12022655 0.008893115 0.05306401 -0.10797798 -0.05685772 -0.10287271 -0.18794242 -0.019554622
-0.053444482 -0.17649981 -0.03249704 -0.1316187 0.0902518 0.33963478 -0.013006776 0.009277002
0.092673205 -0.20557281 0.12272732 0.18766576 0.045612894 -0.07840074 0.16954614 -0.062361743
-0.24034475 -0.15888482 -0.1350888 0.08694269 0.03468933 0.069545254 -0.13264851 -0.09925023
-0.028461639 -0.049778268 -0.037615314 -0.004814811 0.13137463 0.27392727 -0.060693547 -0.09549187
0.12221131 -0.0981477 0.071764424 -0.052164752 -0.09277055 0.19200939 0.065689616 0.1075875
-0.008193507 0.0068806205 -0.07898788 0.18585546 0.24832295 -0.2503619 -0.047081605 -0.20953931
-0.074258134 0.034507737 -0.2573 0.17136978 0.03584566 0.32864666 -0.12624416 0.13978568

encoder.0.bn.weight f4 [64]
00000000: 8da5 0f3f 993c 463f fa46 273f 97bf a03f
00000010: 348c 143f a7e6 4a3f ec83 453f c23c 543f
00000020: 976c 8e3f b518 4a3f 981d 813f ae55 b53f
00000030: 3cfe 3d3f 9111 213f c24a 2c3f d7dc 453f
00000040: 976b 793f 9c10 6e3f 2477 203f fddb 783f
00000050: 7859 9f3f 7dd7 773f 45c7 823f add6 813f
00000060: 57dc 933f 65df 503f 8565 703f d012 2e3f
00000070: da9f 533f 3e4b a63f e36d 793f 5645 383f
00000080: 63d5 8e3f 8169 6e3f faa1 973f 91e2 093f
00000090: 9d98 353f 2ac1 973f 17b7 1f3f 1aa3 933f
000000a0: 1b80 523f 6aee 5f3f 2e79 363f 6f35 173f
000000b0: d20b 6b3f ddc1 723f a28f 363f b855 df3e
000000c0: e472 653f c0f3 883f 9862 883f f69f 6b3f
000000d0: fe2c 3e3f 8ee9 2a3f a0a9 bd3e 2e66 4d3f
000000e0: 8177 7c3f 7132 893f 5480 823f 1bbe 493f
000000f0: 7633 443f 926a 863f a6a7 3f3f 0497 943f
0.56111985 0.77436215 0.65342677 1.2558469 0.58026433 0.792582 0.7715442 0.8290521
1.1126889 0.7894395 1.0087156 1.4166772 0.74216056 0.6291743 0.6730157 0.772901
0.97429794 0.92994094 0.62681794 0.97210675 1.2449179 0.96813184 1.0217062 1.0143639
1.1551617 0.81590873 0.93904907 0.67997456 0.8266579 1.2991712 0.974333 0.719808
1.115887 0.93129736 1.1846306 0.5386134 0.70935994 1.1855824 0.6238875 1.153415
0.82226723 0.87473166 0.71278656 0.5906591 0.9181491 0.9482706 0.71312916 0.43620086
0.89628434 1.0699387 1.0655088 0.92040956 0.742874 0.66762626 0.37043476 0.8023404
0.9861985 1.0718518 1.0195413 0.788057 0.76641023 1.0501273 0.74865186 1.1608586

encoder.0.bn.bias f4 [64]
00000000: 2744 893d 126c 16bf d500 f63e 2966 f5bd
00000010: 3167 fa3e 79a8 95bf 631f b3bd 0627 9fbe
00000020: 6fa6 77bd 4e13 92bf 5a18 9e3e c406 393d
00000030: 1bc0 07bf 254c 0bbc 4a93 37bf cb21 91be
00000040: 282d 7c3d 9b39 533e 6a77 92be 52f4 34be
00000050: 3fdc 49bd c588 eabd 1a9d 61bf c590 e7be
00000060: fb3f 9bbe e9f8 4fbf 26b9 3fbe d269 15bf
00000070: ecf4 353f 897c 383e 7f2c 2abf 196f d73e
00000080: def0 7a3e c853 cc3e 05d8 e2bd 960c 0ebf
00000090: a0d3 20bf 8e60 333f 3651 30bf 7293 713f
000000a0: 76f7 83be be99 84bf af1e 5d3d 7a44 7cbe
000000b0: 3946 da3e f341 1bbe 1c89 bbbe f18a 0abf
000000c0: bd74 c8bd ddf8 863b 19ef 933c 3b0d 71be
000000d0: 4e17 90bd e002 95be 4f19 063e 11a6 8b3d
000000e0: 4d65 58bf 4a71 48bd 1aee babd fe6d 69bf
000000f0: a27d abbd 1dcf 6c3e 70d4 b5be 1cf2 17bf
0.06702452 -0.5875865 0.4804751 -0.11982376 0.48906854 -1.1692039 -0.08746221 -0.3108446
-0.060461458 -1.1412141 0.30877954 0.045172468 -0.53027505 -0.008502041 -0.7170912 -0.28346094
0.0615665 0.20627443 -0.2860673 -0.17671326 -0.04928231 -0.11451868 -0.8813034 -0.45227638
-0.3032225 -0.8123918 -0.18722972 -0.58364594 0.71076846 0.18016256 -0.66474146 0.42076948
0.24505946 0.3990767 -0.11076359 -0.55487955 -0.62822914 0.70069206 -0.6887392 0.9436561
-0.25774735 -1.0359418 0.05398434 -0.24635497 0.426317 -0.15161876 -0.36628044 -0.5411826
-0.09787891 0.0041190223 0.018058347 -0.23540203 -0.07035695 -0.29103756 0.13095592 0.06818784
-0.8452957 -0.048936166 -0.091274455 -0.9118346 -0.08373572 0.23125882 -0.3551364 -0.59353805

encoder.0.bn.running_mean f4 [64]
00000000: 0000 0000 0000 0000 0000 0000 0000 0000
00000010: 0000 0000 0000 0000 0000 0000 0000 0000
00000020: 0000 0000 0000 0000 0000 0000 0000 0000
00000030: 0000 0000 0000 0000 0000 0000 0000 0000
00000040: 0000 0000 0000 0000 0000 0000 0000 0000
00000050: 0000 0000 0000 0000 0000 0000 0000 0000
00000060: 0000 0000 0000 0000 0000 0000 0000 0000
00000070: 0000 0000 0000 0000 0000 0000 0000 0000
00000080: 0000 0000 0000 0000 0000 0000 0000 0000
00000090: 0000 0000 0000 0000 0000 0000 0000 0000
000000a0: 0000 0000 0000 0000 0000 0000 0000 0000
000000b0: 0000 0000 0000 0000 0000 0000 0000 0000
000000c0: 0000 0000 0000 0000 0000 0000 0000 0000
000000d0: 0000 0000 0000 0000 0000 0000 0000 0000
000000e0: 0000 0000 0000 0000 0000 0000 0000 0000
000000f0: 0000 0000 0000 0000 0000 0000 0000 0000
0.0 0.0 0.0 0.0 0.0 0.0 0.0 0.0
0.0 0.0 0.0 0.0 0.0 0.0 0.0 0.0
0.0 0.0 0.0 0.0 0.0 0.0 0.0 0.0
0.0 0.0 0.0 0.0 0.0 0.0 0.0 0.0
0.0 0.0 0.0 0.0 0.0 0.0 0.0 0.0
0.0 0.0 0.0 0.0 0.0 0.0 0.0 0.0
0.0 0.0 0.0 0.0 0.0 0.0 0.0 0.0
0.0 0.0 0.0 0.0 0.0 0.0 0.0 0.0

encoder.0.bn.running_var f4 [64]
00000000: 0000 803f 0000 803f 0000 803f 0000 803f
00000010: 0000 803f 0000 803f 0000 803f 0000 803f
00000020: 0000 803f 0000 803f 0000 803f 0000 803f
00000030: 0000 803f 0000 803f 0000 803f 0000 803f
00000040: 0000 803f 0000 803f 0000 803f 0000 803f
00000050: 0000 803f 0000 803f 0000 803f 0000 803f
00000060: 0000 803f 0000 803f 0000 803f 0000 803f
00000070: 0000 803f 0000 803f 0000 803f 0000 803f
00000080: 0000 803f 0000 803f 0000 803f 0000 803f
00000090: 0000 803f 0000 803f 0000 803f 0000 803f
000000a0: 0000 803f 0000 803f 0000 803f 0000 803f
000000b0: 0000 803f 0000 803f 0000 803f 0000 803f
000000c0: 0000 803f 0000 803f 0000 803f 0000 803f
000000d0: 0000 803f 0000 803f 0000 803f 0000 803f
000000e0: 0000 803f 0000 803f 0000 803f 0000 803f
000000f0: 0000 803f 0000 803f 0000 803f 0000 803f
1.0 1.0 1.0 1.0 1.0 1.0 1.0 1.0
1.0 1.0 1.0 1.0 1.0 1.0 1.0 1.0
1.0 1.0 1.0 1.0 1.0 1.0 1.0 1.0
1.0 1.0 1.0 1.0 1.0 1.0 1.0 1.0
1.0 1.0 1.0 1.0 1.0 1.0 1.0 1.0
1.0 1.0 1.0 1.0 1.0 1.0 1.0 1.0
1.0 1.0 1.0 1.0 1.0 1.0 1.0 1.0
1.0 1.0 1.0 1.0 1.0 1.0 1.0 1.0

encoder.1.conv.weight f4 [64, 64, 3, 3]
00000000: 527f 343e 70eb 33bc 7006 4cbd d2c8 993d
00000010: 1172 07bd 46c7 ddbd fe10 ecbd 6d7e 82be
00000020: 5212 b0be ffc9 a23c 32dd 893c f530 b2bc
00000030: 606d d4bd 4bec 38be 6204 bbbe fd03 8dbe
00000040: f590 b1be 1a8e 65be 9a14 443e c070 ff3b
00000050: 913c 053d b778 2b3e 7be3 a5bb 880a a7bd
00000060: 906d 4f3d 5a76 f8bd 562a 4fbe f979 97bd
00000070: 20f8 953b 0eaa 063e f488 debd f521 25be
00000080: 668e 123e 7b95 923e be16 443e 996f 983d
00000090: 3874 3abe f85d a3bd 6dc1 573d 1edc 4abd
000000a0: cd30 bbbc 07e6 2f3d 6683 283e 0c68 cb3d
000000b0: ac47 723e 06e0 eabd b07d 65be 43c8 0cbe
000000c0: bc5a b0bd d528 5bbe bea9 a2be bebc 3e3e
000000d0: ef21 70bd 89b5 de3c f7af dc3d 24ac 593e
000000e0: 1329 973d 6554 d13d d157 853e 5612 9a3d
000000f0: eab4 343e 24b4 7b3e 71f3 043e 7c3c b83d
00000100: 445d fcbd 6a6b b8bd 5a23 3b3d 9564 ff3b
00000110: b7ed 10be 21d5 753e 3490 9fbc 5383 a4bd
00000120: b988 823c 9355 a7bc f5a7 6a3e 2ff3 9abd
00000130: dbd5 263c d163 2c3e cbae 623e e9d0 af3e
00000140: 332d 8b3e a19b 923e 9dc5 523d 17b9 323e
00000150: 19a0 883e 059e b83d 961e 0dbe 9467 63be
00000160: 1d70 a9bd f7e0 73be 5803 5b3e 9c2e fb3d
00000170: f375 ac3c 7c2a 843d 0690 093e b4f1 7e3d
00000180: c615 d83b 7162 b8bc 6380 4ebe 086c 95be
00000190: b0b6 cebd 8acf 2bbd fa76 c0bd 60de e0bd
000001a0: e932 c0bd e2de 7a3e d73b 9f3e a5a2 0a3e
000001b0: a50e 03bf a98f 07bf a3ba ebbe 6300 8f3d
000001c0: ed4a a3bc aee3 96be 7ec0 cb3e 3958 c13e
000001d0: 54ff 8c3d 37b5 3b3e d00b cf3d 2a56 343c
000001e0: 0079 313d ec40 6bbd 3796 78be b29b 553d
000001f0: 33a0 e5bd 2a77 98be 5b49 b5bd dd98 febd
00000200: 5098 25bd 5e9c 70be 8b1f 8fbe 99a4 19be
00000210: 8504 a73c 782e a03d f3a2 05be 69bd ea3d
00000220: 155e 45bd 0628 4f3c b0b8 8f3d 33d4 afbd
00000230: 41d8 9dbe 2726 5c3e 418f 233d ca60 2fbe
00000240: 1372 02bf 34cf b1be 1230 45bd 390e b6be
00000250: 27f5 c0bd 5447 183e ad12 a33c 52d9 413d
00000260: 94fd c13b e74a ae3d 4cb8 73bd 1c7a 2d3e
00000270: e163 b3bd 3ae8 21be 9c5d 413e 8630 1cbe
00000280: 6e4c b23c 30ce 03be 5793 9d3e 7cc8 fc3d
00000290: b50b 6538 bc7e ae3e 5811 3c3e 83b3 023e
000002a0: ea8b 45bc 7830 a7ba ad12 e0bb 11b8 4abe
000002b0: eb8e b0bd 91cf 793e 0bdf 24be cc70 48bc
000002c0: 9104 8c3e 3dce ad3e 74c9 693e c890 683e
000002d0: 91c9 39be 7a6e 38be a4cf b43c 20c7 6dbe
000002e0: 8f7a d8bd b023 cbbd 821b 593e 5b73 423e
000002f0: f436 103d f28e c9bd 2dc5 94bd d026 e03d
00000300: 55c5 ebbd cf61 15be 418f b1bd cae8 3c3e
00000310: f5d2 4e3e 97e4 47bd fdb4 e5bb 4a7b 2f3e
00000320: 618a d53d 2444 993c ef72 3a3e c1d5 b33d
00000330: 1b9e 313e 6902 eabd 82cf ccbe 8fe6 fd3d
00000340: 5c7e 82bd 747c 45bd f266 0cbe 8ee4 5abe
00000350: b030 babe dddf 0fbe d7d2 92be 6ad3 73be
00000360: 7a9b 35bf ca3c 2abf c004 c3be 42d3 a4be
00000370: 006f 263d d6d7 4cbe c4ce f93e 71cd f43e
00000380: 60f4 963e 7ca5 c73d b0d4 26bd 4735 3e3e
00000390: 394e 53bd d226 ba3c f63f 39be 6c6e 30be
000003a0: bd9a 8e3e 4bd9 0f3c b14f 113e 4ae0 f23d
000003b0: 1d18 c43d 1c8e 733e ce14 ca3e b88d c13e
000003c0: ef9a e6bc 7f34 383e 509b 263e e54e b1be
000003d0: 40a9 a6be aca2 c0bd 1592 de3d 18c3 0a3e
000003e0: 2c6b 9abe 9271 243f 6821 1f3f f798 f43d
000003f0: 9548 943d 743d 23bd cffd 263d e75d db3d
0.17626694 -0.010981426 -0.049810827 0.075090066 -0.033067767 -0.10829024 -0.115266785 -0.2548708
-0.34388977 0.01987171 0.016829107 -0.02175186 -0.10372424 -0.18058889 -0.3652678 -0.27542105
-0.34680906 -0.22417489 0.19148484 0.0077954233 0.032528464 0.16745268 -0.005062518 -0.081563056
0.050641596 -0.12131949 -0.20230994 -0.07396311 0.004576698 0.13150808 -0.108659655 -0.16126235
0.14312133 0.2862967 0.191493 0.074431606 -0.18208396 -0.079769075 0.0526747 -0.049526326
-0.022850418 0.04294398 0.16456375 0.09931955 0.23660153 -0.1146851 -0.22411227 -0.13748269
-0.08611056 -0.21402295 -0.31770128 0.18626687 -0.05862611 0.027186172 0.1077575 0.21257073
0.07380881 0.10221175 0.2604356 0.075230286 0.17647138 0.24580437 0.1298349 0.089959115
-0.123224765 -0.090048626 0.04568801 0.0077939727 -0.14153181 0.24007083 -0.019477941 -0.080328606
0.015934335 -0.020426547 0.22915633 -0.07565915 0.010182823 0.16834952 0.2213699 0.34339073
0.27182922 0.2863436 0.05145799 0.17453419 0.26684645 0.09014515 -0.13781199 -0.2220748
-0.08273337 -0.23816286 0.21387994 0.122647494 0.021052336 0.06453416 0.13433847 0.062242225
0.0065943925 -0.022507878 -0.20166163 -0.29183984 -0.100934386 -0.04194597 -0.09397693 -0.10979915
-0.0938471 0.24499086 0.31100342 0.13538606 -0.5119422 -0.52953583 -0.4604083 0.06982496
-0.019933188 -0.2947058 0.39795297 0.3776262 0.068846375 0.18330847 0.10109675 0.011006871
0.043328285 -0.05743496 -0.24276052 0.052150436 -0.11212196 -0.29778415 -0.08851882 -0.124315
-0.04042846 -0.2349715 -0.27953753 -0.15004195 0.020387897 0.07821363 -0.13050441 0.11461908
-0.048185427 0.01264382 0.07017648 -0.08585396 -0.3082905 0.21498929 0.03993154 -0.17126766
-0.50955313 -0.34728396 -0.048141547 -0.35557726 -0.09421759 0.1487096 0.019906366 0.047326393
0.0059201214 0.0851038 -0.05950193 0.16941112 -0.08759285 -0.15811244 0.18883365 -0.15252885
0.02176496 -0.12871623 0.30776474 0.12342927 5.4608758e-05 0.34081066 0.18365991 0.12763791
-0.012057284 -0.0012755534 -0.006838164 -0.19796778 -0.086210094 0.24395587 -0.16100709 -0.012233924
0.27347234 0.3394641 0.22830755 0.2271148 -0.18143298 -0.18010893 0.022071667 -0.23220491
-0.10570251 -0.09918916 0.212019 0.18989317 0.035208657 -0.09841718 -0.07264171 0.10944903
-0.115122475 -0.14588092 -0.08669902 0.18448177 0.20197661 -0.048801985 -0.007010101 0.17136875
0.10426784 0.01870925 0.18207906 0.08781005 0.17345469 -0.11426241 -0.40002066 0.12397491
-0.063717574 -0.04821439 -0.13711146 -0.21376249 -0.3636527 -0.14050241 -0.28676483 -0.23811117
-0.70940363 -0.66499007 -0.3808956 -0.32192427 0.0406332 -0.2000421 0.48790562 0.4781299
0.29483318 0.097483605 -0.04073018 0.18575011 -0.05158827 0.02272359 -0.18090805 -0.17229623
0.2785243 0.008779834 0.14190556 0.11859186 0.09574912 0.23784679 0.39468998 0.37803435
-0.02815005 0.17988776 0.16270185 -0.34630504 -0.32551003 -0.09406027 0.10867707 0.13550985
-0.3015989 0.64235795 0.6216035 0.11943238 0.072404064 -0.03985353 0.040769394 0.1071127

encoder.1.conv.bias f4 [64]
00000000: c086 cdbc 8a80 003d 8430 303d 08c0 383d
00000010: f904 f1bc b1e1 2abc 5510 4ebd abc2 8abc
00000020: 88d4 18bd 5ba8 893d bbc0 f23c d502 86bd
00000030: 1b7d c3bc ca88 553d 2f17 cbbc e950 333d
00000040: ea28 c33c db65 453c 044d 3abb 33f6 3dbd
00000050: 2eb4 3a3c 7975 783d 057b a53c 877e e43c
00000060: 650c e53a 8884 35bd 3f69 02bd d45a 85bc
00000070: ff02 193c 3025 56bb 391d 083d 694b 283d
00000080: 64ce cd3c 5bfe 42bd a20c 96bc 622e 23bd
00000090: c49d efbb 71d3 843b ceb8 d4bc d66c bc39
000000a0: 8b22 77bc 4ae5 a53c 6f74 563c 02c1 733c
000000b0: 1c93 603d 40b2 f5bb 7e62 d6bc 48f1 d7bb
000000c0: 20a8 10bd 4195 86bc f6ba 9cbc 0db7 71bd
000000d0: e0b6 edbb f653 b03c 2a96 1bbd 547f 993b
000000e0: ba35 18bc ae62 2c3d 485e 8ebc bb4a 073d
000000f0: 0205 c5bc 6cc9 e7bc 3b96 debc be35 4a3d
-0.025088668 0.031372584 0.043015018 0.04510501 -0.029421316 -0.010429786 -0.050308544 -0.016938528
-0.03731206 0.067215644 0.029632917 -0.06543509 -0.023863366 0.052132405 -0.024791328 0.043778334
0.02382322 0.01204821 -0.0028427253 -0.046377372 0.011395497 0.060658906 0.020200262 0.027892364
0.0017475007 -0.044315845 -0.03183865 -0.016278662 0.009339093 -0.0032675974 0.033230994 0.04108754
0.025122829 -0.047605854 -0.01831657 -0.039839156 -0.0073125083 0.004053526 -0.025967028 0.00035939243
-0.015083919 0.020250935 0.013089283 0.01487756 0.054827794 -0.0074980557 -0.026170012 -0.0065900423
-0.035316586 -0.016428592 -0.019132119 -0.05901246 -0.0072544664 0.02152441 -0.037985004 0.004684368
-0.009290153 0.042086296 -0.017378941 0.033030253 -0.02405024 -0.028294288 -0.027171245 0.04936766

encoder.1.bn.weight f4 [64]
00000000: 63f4 833f 4804 8b3f 2a6e 6f3f 0fbc 803f
00000010: 92c3 583f f0d6 723f a0d0 683f 0d76 8e3f
00000020: eb16 483f 7491 483f 699e 5d3f 6a56 853f
00000030: 2eee 983f c53d 8c3f be6f 723f e07b 4c3f
00000040: 180b 623f dfd2 2f3f 6b72 083f 07d8 473f
00000050: 75bf 6a3f bfbf 7e3f 914e 4d3f 047f 443f
00000060: 02e8 553f 1cc3 813f 1b96 853f d485 283f
00000070: 2f41 853f 314b 983f 7587 843f 2ae2 7f3f
00000080: 118c 593f 08b6 563f d590 893f cc4f 693f
00000090: 0a37 833f ccd6 543f 54a9 953f bfdf 7a3f
000000a0: 4339 a73f 55a6 653f c9e3 753f ac4f 813f
000000b0: bba7 3c3f 8e2a 5f3f 19f1 6b3f 343f 773f
000000c0: 153c 6e3f d5ec 2b3f 1824 693f 421b 6a3f
000000d0: 1b8d 803f abad 733f 6a1e 293f e222 7e3f
000000e0: 1f5e 673f b1d1 573f 142d 5c3f bb14 543f
000000f0: b86b 263f 6ba7 6b3f 1764 3f3f c945 713f
1.0308956 1.0860682 0.9352747 1.0057391 0.84673417 0.9485922 0.90943336 1.1129776
0.7815997 0.78346944 0.8656984 1.0416996 1.1947687 1.095635 0.94701755 0.7987652
0.8829818 0.6868114 0.5329959 0.78064007 0.9169839 0.9951133 0.8019801 0.7675631
0.8355714 1.0137668 1.0436434 0.65829206 1.0410517 1.1897947 1.0353838 0.99954474
0.8497935 0.8387151 1.0747324 0.91137385 1.0251172 0.83140254 1.16923 0.9799766
1.306435 0.8970693 0.960507 1.0102439 0.73693436 0.8717431 0.9216476 0.96580815
0.9306043 0.6715825 0.910707 0.9144784 1.0043062 0.9518687 0.66062033 0.99271977
0.9037799 0.8430434 0.86006284 0.8284413 0.65008116 0.92052335 0.747621 0.9424711

encoder.1.bn.bias f4 [64]
00000000: 7679 3ebf 6c08 e1be 3b39 36bf d02f e3be
00000010: ba91 2fbf 1b8a 88be 1070 2dbf 511c 48bf
00000020: 0635 11bf 79e9 dcbe 2ad8 00bf 6017 9ebe
00000030: c822 71bf 3b5e bcbe ef35 3abf aaa1 b7be
00000040: eb7f 14bf 3829 0ebf 375c 8dbe aa43 05bf
00000050: 54c3 0abf a700 0ebf bf67 3cbf 2ba0 3cbe
00000060: 158b 05bf 64ab f4be 455c 40bf 927b 94be
00000070: 04dc 0cbf fd20 36bf a4a2 27bf 3be0 b7be
00000080: b63f 09bf 9454 f4be b059 aabe 449c d3be
00000090: 91bf 05bf 7045 0abf 9ed1 5cbf 87c6 f4be
000000a0: a8d2 5abf 8a45 48bf 364c 0bbf bfd6 22bf
000000b0: cd91 d5be b590 00bf 1a68 0ebf 6bff 27bf
000000c0: ac1b 4ebf 6a74 16bf d380 8cbe b569 cbbe
000000d0: ad01 d8be fef9 41bf 4492 2fbf 3387 34bf
000000e0: 73d1 0ebf 9fe9 27bf eee1 b7be 8c3c 76bd
000000f0: fcd8 11bf 0e85 15bf 58f9 80be 4c34 46bf
-0.74404085 -0.43951738 -0.71181077 -0.44372416 -0.68581736 -0.26667866 -0.6774912 -0.7816821
-0.5672153 -0.43146876 -0.5032984 -0.3087721 -0.94193697 -0.36790642 -0.72738546 -0.35865527
-0.5800769 -0.55531645 -0.27609417 -0.5205637 -0.542043 -0.55469745 -0.73595804 -0.18420474
-0.5216535 -0.4778701 -0.7514079 -0.29000527 -0.5502322 -0.71144086 -0.65482545 -0.35913262
-0.5361284 -0.47720778 -0.3327155 -0.4133016 -0.5224543 -0.54012203 -0.8625735 -0.47807714
-0.85477686 -0.7823111 -0.54413164 -0.63608927 -0.417128 -0.50220805 -0.55627596 -0.6562411
-0.80510974 -0.58771384 -0.27442035 -0.39729086 -0.4218878 -0.7577208 -0.6858256 -0.705188
-0.55788344 -0.6559085 -0.35914558 -0.060116336 -0.56971717 -0.5840615 -0.25190234 -0.7742355

encoder.1.bn.running_mean f4 [64]
00000000: 0000 0000 0000 0000 0000 0000 0000 0000
00000010: 0000 0000 0000 0000 0000 0000 0000 0000
00000020: 0000 0000 0000 0000 0000 0000 0000 0000
00000030: 0000 0000 0000 0000 0000 0000 0000 0000
00000040: 0000 0000 0000 0000 0000 0000 0000 0000
00000050: 0000 0000 0000 0000 0000 0000 0000 0000
00000060: 0000 0000 0000 0000 0000 0000 0000 0000
00000070: 0000 0000 0000 0000 0000 0000 0000 0000
00000080: 0000 0000 0000 0000 0000 0000 0000 0000
00000090: 0000 0000 0000 0000 0000 0000 0000 0000
000000a0: 0000 0000 0000 0000 0000 0000 0000 0000
000000b0: 0000 0000 0000 0000 0000 0000 0000 0000
000000c0: 0000 0000 0000 0000 0000 0000 0000 0000
000000d0: 0000 0000 0000 0000 0000 0000 0000 0000
000000e0: 0000 0000 0000 0000 0000 0000 0000 0000
000000f0: 0000 0000 0000 0000 0000 0000 0000 0000
0.0 0.0 0.0 0.0 0.0 0.0 0.0 0.0
0.0 0.0 0.0 0.0 0.0 0.0 0.0 0.0
0.0 0.0 0.0 0.0 0.0 0.0 0.0 0.0
0.0 0.0 0.0 0.0 0.0 0.0 0.0 0.0
0.0 0.0 0.0 0.0 0.0 0.0 0.0 0.0
0.0 0.0 0.0 0.0 0.0 0.0 0.0 0.0
0.0 0.0 0.0 0.0 0.0 0.0 0.0 0.0
0.0 0.0 0.0 0.0 0.0 0.0 0.0 0.0

encoder.1.bn.running_var f4 [64]
00000000: 0000 803f 0000 803f 0000 803f 0000 803f
00000010: 0000 803f 0000 803f 0000 803f 0000 803f
00000020: 0000 803f 0000 803f 0000 803f 0000 803f
00000030: 0000 803f 0000 803f 0000 803f 0000 803f
00000040: 0000 803f 0000 803f 0000 803f 0000 803f
00000050: 0000 803f 0000 803f 0000 803f 0000 803f
00000060: 0000 803f 0000 803f 0000 803f 0000 803f
00000070: 0000 803f 0000 803f 0000 803f 0000 803f
00000080: 0000 803f 0000 803f 0000 803f 0000 803f
00000090: 0000 803f 0000 803f 0000 803f 0000 803f
000000a0: 0000 803f 0000 803f 0000 803f 0000 803f
000000b0: 0000 803f 0000 803f 0000 803f 0000 803f
000000c0: 0000 803f 0000 803f 0000 803f 0000 803f
000000d0: 0000 803f 0000 803f 0000 803f 0000 803f
000000e0: 0000 803f 0000 803f 0000 803f 0000 803f
000000f0: 0000 803f 0000 803f 0000 803f 0000 803f
1.0 1.0 1.0 1.0 1.0 1.0 1.0 1.0
1.0 1.0 1.0 1.0 1.0 1.0 1.0 1.0
1.0 1.0 1.0 1.0 1.0 1.0 1.0 1.0
1.0 1.0 1.0 1.0 1.0 1.0 1.0 1.0
1.0 1.0 1.0 1.0 1.0 1.0 1.0 1.0
1.0 1.0 1.0 1.0 1.0 1.0 1.0 1.0
1.0 1.0 1.0 1.0 1.0 1.0 1.0 1.0
1.0 1.0 1.0 1.0 1.0 1.0 1.0 1.0

encoder.2.conv.weight f4 [64, 64, 3, 3]
00000000: 7132 7b3e 1dfa 4f3e 7e0b 923e 8a4c 8f3d
00000010: 2e26 82be f2f0 1f3e 429f 183e 0e81 773d
00000020: 7802 023f a044 8fbe ef5d b13d 5ce9 a5bc
00000030: 7329 febd a367 9bbc 20a5 89be 9a09 a83e
00000040: cc78 9d3e e945 833d 039c 203d 2044 cebc
00000050: fa9c 773e 58b8 b0bd 089d 37bd 2239 313d
00000060: efce 53be 173c 2cbe 1fad 30be 49e2 ffbd
00000070: 1dcc cf3d 9c23 a23e 28d2 763b 075c 02be
00000080: c4db 4c3e f5d8 9f3c b13d 42be 5a23 be3e
00000090: d315 fd3d a354 dc3c 1287 d53d ec9f 153e
000000a0: 0e47 debc 8c81 c13d 1c31 2f3e 2bc3 aebd
000000b0: a52b a93d 27a1 c63b b888 4ebd 6712 89bd
000000c0: d1af 673e 5851 94bd 5c70 44bd 675f 723e
000000d0: d7e3 303d 698c 343e 6619 6e3d c1cd 393e
000000e0: 117f bb3e a960 1d3b f86d 82bd ad4d 023e
000000f0: bb52 0dbe 00f4 e4bd d117 243e b325 423d
00000100: 5c30 4ebc 832a 8d3e 72d5 8ebc 8004 5cbe
00000110: 4b1e b7bc 39f3 4bbd 442f 1cbe d42c c83d
00000120: c04f e1bc 5eb4 a4bd c882 cd3d ffe7 37bd
00000130: 8b2b 65bd e1d0 7abc 7b96 7dbd fb6d 0fbe
00000140: 5146 c8bd f572 0a3e f83c 883d cbde d23e
00000150: f2d8 353e 1e09 0a3d c3c8 853e 9f47 4d3e
00000160: 4ab5 643e 132e ad3e c753 ff3e da12 0b3e
00000170: 583e f23e 9a75 d83e 09c5 26bd 354f ae3e
00000180: cd49 0e3f d8e5 053e 21b0 9e3e 8c67 883e
00000190: ee6e 2abd 5a43 0ebe d5a9 243e fd10 49bc
000001a0: 999e 0cba 07b1 b93d 355e 31be 08fe cd3c
000001b0: 9525 83be 4fdb 50be d5eb a03e b929 79be
000001c0: 25a7 edbe b9a9 8abe fb5f f6be 4c02 ddbe
000001d0: 8484 80be fa07 2a3e 5762 8f3c 888b 74bd
000001e0: 3bb7 fe3d 72fe b33d 116a 943d a0fa 1c3e
000001f0: 7c92 3c3e fad4 2c3d dc98 2b3e 418f 0d3e
00000200: f1f6 e73d bbae 713d c3ae e0bd d74e 0dbe
00000210: 0d67 1f3d 5308 ddbd 01da 993b fb00 afbd
00000220: 0544 00bd c391 ef3d 19c0 37bd 977b 98bb
00000230: 1a0a e0bd 2cd3 12be 9f1f 99bd 67e2 22be
00000240: 5181 bcbe 9768 58be 702d a5bc ab5b 69be
00000250: 557e 53be bb70 84bd ff9b a63b 63cb 40be
00000260: 0863 3dbc 3c64 38be 5f9f 0cbe 6a33 023c
00000270: 2ac6 0a3c f7ec 1d3d 358f b3bd 02b5 3cbd
00000280: aa20 ce3c af48 b53b 97fc a73e 142a 5e3d
00000290: f144 083e 8a17 113e e050 d43d ffe2 353d
000002a0: 807d 13be c865 1c3d 1689 a33d b7bc b73e
000002b0: 6159 4e3e 0546 9a3e e919 2f3e 5180 be3a
000002c0: 66ef 9e3e 0e32 463d e60f 1b3e 7cd7 c03e
000002d0: 1cb3 803e 149c aa3d 13e2 943e 43fa 093e
000002e0: d3f8 433c 7311 943e 7095 9f3c fbd6 3bbe
000002f0: adf6 5a3e ae95 edbd 6e67 e9be fdb6 95be
00000300: b664 bcbd be58 efbe 3f8d cdbe 170d 5e3e
00000310: 84d2 a03d 6853 fc3d 71fa 613e 36ef 2b3e
00000320: 3d5a 6ebd 8ad7 d53d c58f 65bd 448e 1ebd
00000330: 7d09 97be e06f 17bf 7f9f 58be 9b11 bd3d
00000340: aae7 9e3d c7cc e5bc 092d 48bd 939c b83d
00000350: 6aa5 e1bd 1412 4c3d b843 c13d 5e8e 01be
00000360: 6546 07bf 673a 0cbf 05b9 12bf b7f0 14bf
00000370: 89f9 37bf d9e1 cabe e439 f5be fefa c0be
00000380: 5b9f bfbe cce1 dbbd 9fa7 20be ce1b 45be
00000390: dcbf 8cba 1fe4 efbd acfd d4bd 3afa 6fbb
000003a0: beb9 853d 634b 093e f47b b8bd 90f0 26be
000003b0: 3cba 43be 881d 00be 4be9 a8be 21dc 7dbd
000003c0: 93a0 853c 428e 2b3e f786 613e 129a 3f3d
000003d0: b9d4 40be c220 eabd 1cad 183e 89db b5bd
000003e0: 5dae 7abd b2fb c93d 13c6 afbd c633 8cbd
000003f0: 80a3 9dbc 3a7a 8dbe 9203 743e 4fb3 7a3d
0.2453096 0.20310254 0.28524393 0.069970205 -0.25419754 0.15619257 0.14904502 0.06042581
0.50785017 -0.27982044 0.086604945 -0.020252876 -0.124102496 -0.018970316 -0.26883793 0.32819825
0.30756223 0.06409819 0.039211284 -0.025178969 0.24180976 -0.08628911 -0.04482749 0.043267377
-0.20684408 -0.16819797 -0.1725354 -0.12494332 0.101463534 0.31667793 0.0037661884 -0.12730418
0.20005709 0.019512633 -0.18968846 0.37136346 0.12357678 0.026895827 0.10426153 0.14611787
-0.02713349 0.09448537 0.17108577 -0.08533319 0.08260278 0.0060616913 -0.050423354 -0.06692963
0.22625662 -0.072420776 -0.047958717 0.23669206 0.043186035 0.17631687 0.05812969 0.18144895
0.3662038 0.0024013913 -0.06368631 0.12724943 -0.1380109 -0.11179352 0.1602471 0.047399234
-0.012584772 0.27571496 -0.017435763 -0.21486092 -0.022353312 -0.049792502 -0.15252405 0.09774175
-0.027503848 -0.08042215 0.1003471 -0.044898983 -0.05594973 -0.01530859 -0.061911087 -0.14006798
-0.09779037 0.13520415 0.06652254 0.41185603 0.1775854 0.0337001 0.26129732 0.20046853
0.22334781 0.33824214 0.49868605 0.1358141 0.4731319 0.42277223 -0.04071525 0.34044805
0.5558136 0.1307596 0.3099375 0.266415 -0.041609697 -0.1389288 0.16080411 -0.012272117
-0.0005364209 0.090669684 -0.17321093 0.025145546 -0.2561461 -0.2039616 0.31429926 -0.24332322
-0.46416584 -0.27082613 -0.48120102 -0.43165815 -0.251011 0.16604605 0.017502947 -0.05970338
0.12437292 0.08788766 0.07246793 0.15329981 0.18415254 0.042195298 0.1675753 0.13824178
0.11326397 0.059004527 -0.10970833 -0.13799606 0.038916636 -0.10792603 0.0046951775 -0.08545109
-0.03131487 0.11697724 -0.044860933 -0.004653405 -0.10939427 -0.14338368 -0.07476734 -0.15906678
-0.3681741 -0.21133648 -0.020163268 -0.22788875 -0.2065366 -0.06466814 0.005084514 -0.18827586
-0.011559255 -0.18006986 -0.1373267 0.007946828 0.008470098 0.038556065 -0.08767549 -0.04607106
0.02516206 0.005532346 0.32809898 0.054239348 0.13307549 0.14169136 0.10366988 0.044405933
-0.14403343 0.038183004 0.079851314 0.35886165 0.20151283 0.30131546 0.17099728 0.0014534091
0.31042022 0.04838758 0.15142784 0.37664402 0.2513665 0.08330551 0.2907873 0.13474374
0.01196118 0.28919563 0.019480437 -0.18343727 0.21383162 -0.11600815 -0.45586723 -0.2924117
-0.091988966 -0.46747392 -0.40146825 0.21684681 0.07852653 0.12320596 0.22068192 0.1679047
-0.058191527 0.104415014 -0.056045312 -0.038709894 -0.29499426 -0.5915508 -0.21154593 0.092318736
0.0775903 -0.028051747 -0.048871074 0.09014239 -0.11017878 0.04982193 0.094367445 -0.12651965
-0.5284179 -0.54776615 -0.5731357 -0.581798 -0.71865135 -0.39625433 -0.4789573 -0.37691492
-0.37426266 -0.10736427 -0.15688942 -0.19248888 -0.0010738331 -0.117134325 -0.103999466 -0.0036617653
0.06529568 0.13407664 -0.09008017 -0.16302705 -0.19114012 -0.12511265 -0.32990488 -0.06197751
0.01631192 0.16753486 0.22024141 0.046777792 -0.18831147 -0.11432029 0.14909786 -0.08879764
-0.061201442 0.0986246 -0.085827015 -0.068458125 -0.019243002 -0.27632314 0.23829487 0.06120616

encoder.2.conv.bias f4 [64]
00000000: a137 303c 92a0 4abd 6390 b83c 1a57 9cbd
00000010: 62e2 6abd a8d6 c43d 6f97 c5bc 10bc 6e3c
00000020: f38e 53bd 96f9 2bbb 2403 063c 1c58 d73b
00000030: c773 a83c 92f0 ca3c 5f70 20bd 32aa 1fbc
00000040: 0d4b 663b 03bc 5fbc 1c93 803d 73d7 95bc
00000050: 5f0b a83b 493d 453b ca55 8f3c c5f9 31bb
00000060: 3ae0 2cbd f557 bebc 829b a8bc 51c0 d1b9
00000070: 57ad 883c 1127 b73b 7a96 af3c 56df f6bc
00000080: 81f9 303c e709 203c 8f93 b23c 1553 3e3b
00000090: bc7e 193d a43c b93c e767 9d3b 13c4 e0bc
000000a0: 854d 24bd 2e6a fd3c a0c2 9a3d 46fc f33c
000000b0: ce98 26bd 036f 473d 48d8 583d 82d6 2dbd
000000c0: f628 ba3c 2bda ff3c 9d00 a53c a72c 033d
000000d0: 830d 0abd b522 d63b 0f1a 3fbd d997 72bb
000000e0: 028b b1bc b35d 48bd 90a0 a8bc dab1 843c
000000f0: e9d1 83bc 02b9 3e3d 83d3 f73c d72f 143d
0.01075545 -0.049469538 0.022529786 -0.07633801 -0.0573448 0.09611255 -0.02412006 0.014571205
-0.05165 -0.0026241294 0.00817946 0.0065717828 0.02056302 0.024772916 -0.039169665 -0.009745168
0.0035139949 -0.013655665 0.06278059 -0.01829121 0.0051283087 0.0030096343 0.017496962 -0.002715693
-0.042206027 -0.0232353 -0.020581964 -0.00040006873 0.016684217 0.005589374 0.021434058 -0.030135792
0.010801674 0.009767986 0.021798877 0.002904122 0.03747438 0.022611924 0.004803646 -0.027437245
-0.04011299 0.03093442 0.07556653 0.02978338 -0.04067307 0.048689853 0.052940637 -0.0424409
0.02272461 0.03123196 0.020141894 0.032025006 -0.033704292 0.006534899 -0.04665571 -0.0037016778
-0.02167273 -0.048917484 -0.020584375 0.016198087 -0.016091304 0.046563156 0.030252224 0.036178436

encoder.2.bn.weight f4 [64]
00000000: 150e 1f3f 3f82 5b3f 56e7 673f 355d 5c3f
00000010: fd73 483f bce3 6d3f 46e3 283f d12e 763f
00000020: d9fe 523f b96e 373f 7449 4f3f 6091 2e3f
00000030: ceab 253f 803f 113f d48d 513f 6ecd 4c3f
00000040: 90ad 243f 5fd8 6e3f 5458 2d3f 70c3 253f
00000050: 52dc 4e3f 3fed 683f ba75 543f 9255 093f
00000060: 8c02 393f 3234 763f 8944 403f 16f5 2f3f
00000070: 8a40 833f 03d5 4d3f 27d1 383f f4d8 4e3f
00000080: 670f 693f 9a42 463f a4f0 2f3f 5cf6 5a3f
00000090: c1c5 4d3f b94e 5d3f 1174 2d3f cc28 463f
000000a0: 3b74 503f d12e 4d3f 11ce 5f3f 398b 6a3f
000000b0: 2b30 323f b1dc 493f dd7e 503f 6a8b 4d3f
000000c0: aeda 493f 0871 223f 7a3f 2c3f fe8b 2f3f
000000d0: d0a7 373f d55f 433f 1eed 893f f220 393f
000000e0: 4514 403f 60c6 2e3f 7aed 773f f819 4c3f
000000f0: 0e4f 503f d7e9 583f d01d 4a3f f81c 5a3f
0.6213086 0.85745615 0.90587366 0.8607972 0.78301984 0.9292562 0.6597179 0.96165186
0.82420117 0.71653324 0.80971456 0.68190575 0.6471528 0.5673752 0.8185704 0.8000096
0.64327335 0.93298906 0.67712903 0.6475134 0.8080493 0.9098701 0.82992136 0.53646195
0.7226951 0.96173394 0.75104576 0.68733346 1.0254071 0.80403155 0.7219414 0.80799794
0.9103913 0.77445376 0.68726563 0.85532165 0.80379874 0.86448246 0.6775523 0.77406
0.81427354 0.8014956 0.8742381 0.91618687 0.6960475 0.78852373 0.8144358 0.80290854
0.78849304 0.6345372 0.6728436 0.68572986 0.71740437 0.76318103 1.0775487 0.72315896
0.7503093 0.68271446 0.96846735 0.79727125 0.8137063 0.8473181 0.7895174 0.8520045

encoder.2.bn.bias f4 [64]
00000000: a0ac 2abf a73b 07bf 81c2 4bbf 95e3 c5be
00000010: de56 40bf 3620 24bf a9e6 41bf a88e 4dbf
00000020: 4624 0cbf b382 31bf c0f5 25bf 5914 5dbf
00000030: 9c01 dabe f4e8 e5be 5e08 4ebf e41e 33bf
00000040: 1a0a a8be 6252 60bf 0fea 31bf deef 30bf
00000050: ee05 e5be 139f 5abf 1ca7 84bf b43c 83be
00000060: 5937 36bf 8ce8 64bf 3355 e1be 8ea4 86bf
00000070: 1ebd 67bf ba43 24bf 8839 9dbf 8b3c 6dbf
00000080: 652b 5dbf 8671 3ebf e630 09bf c691 26bf
00000090: 9d12 3dbf 4854 2fbf a8cf 74bf c6ca 8cbf
000000a0: 7402 24bf ea6d 24bf 23a4 6abf f77d 50bf
000000b0: a769 1dbf 7ba1 31bf bfd7 4bbf ec50 5ebf
000000c0: 1a38 04bf 8acf 55be 6504 bfbf 082f 6fbf
000000d0: 7f4b 96be 5d33 64bf 5310 41bf 68ce 39bf
000000e0: b144 37bf bf95 40bf f272 4dbf 761c 46bf
000000f0: 2306 03bf fac7 3cbf 4c66 01bf 778c 22bf
-0.66669655 -0.528254 -0.79593664 -0.38650194 -0.7513255 -0.6411165 -0.75742584 -0.802958
-0.5474285 -0.69340056 -0.6482811 -0.86359173 -0.42579353 -0.44904292 -0.8048152 -0.6996901
-0.32820207 -0.87625706 -0.6949777 -0.6911601 -0.44731086 -0.8539898 -1.0363498 -0.2563225
-0.71178204 -0.8941734 -0.44010314 -1.0518968 -0.90522945 -0.6416584 -1.2283182 -0.92670506
-0.8639434 -0.74391973 -0.5359024 -0.6506618 -0.73856527 -0.6848798 -0.9562936 -1.0999382
-0.64066243 -0.64230216 -0.916567 -0.8144221 -0.6148934 -0.69387025 -0.7962608 -0.86842227
-0.51648104 -0.20879951 -1.4923216 -0.9343114 -0.29354474 -0.89140874 -0.75415534 -0.72580576
-0.7158919 -0.75228494 -0.8025352 -0.7738718 -0.5118124 -0.7374264 -0.5054672 -0.6349558

encoder.2.bn.running_mean f4 [64]
00000000: 0000 0000 0000 0000 0000 0000 0000 0000
00000010: 0000 0000 0000 0000 0000 0000 0000 0000
00000020: 0000 0000 0000 0000 0000 0000 0000 0000
00000030: 0000 0000 0000 0000 0000 0000 0000 0000
00000040: 0000 0000 0000 0000 0000 0000 0000 0000
00000050: 0000 0000 0000 0000 0000 0000 0000 0000
00000060: 0000 0000 0000 0000 0000 0000 0000 0000
00000070: 0000 0000 0000 0000 0000 0000 0000 0000
00000080: 0000 0000 0000 0000 0000 0000 0000 0000
00000090: 0000 0000 0000 0000 0000 0000 0000 0000
000000a0: 0000 0000 0000 0000 0000 0000 0000 0000
000000b0: 0000 0000 0000 0000 0000 0000 0000 0000
000000c0: 0000 0000 0000 0000 0000 0000 0000 0000
000000d0: 0000 0000 0000 0000 0000 0000 0000 0000
000000e0: 0000 0000 0000 0000 0000 0000 0000 0000
000000f0: 0000 0000 0000 0000 0000 0000 0000 0000
0.0 0.0 0.0 0.0 0.0 0.0 0.0 0.0
0.0 0.0 0.0 0.0 0.0 0.0 0.0 0.0
0.0 0.0 0.0 0.0 0.0 0.0 0.0 0.0
0.0 0.0 0.0 0.0 0.0 0.0 0.0 0.0
0.0 0.0 0.0 0.0 0.0 0.0 0.0 0.0
0.0 0.0 0.0 0.0 0.0 0.0 0.0 0.0
0.0 0.0 0.0 0.0 0.0 0.0 0.0 0.0
0.0 0.0 0.0 0.0 0.0 0.0 0.0 0.0

encoder.2.bn.running_var f4 [64]
00000000: 0000 803f 0000 803f 0000 803f 0000 803f
00000010: 0000 803f 0000 803f 0000 803f 0000 803f
00000020: 0000 803f 0000 803f 0000 803f 0000 803f
00000030: 0000 803f 0000 803f 0000 803f 0000 803f
00000040: 0000 803f 0000 803f 0000 803f 0000 803f
00000050: 0000 803f 0000 803f 0000 803f 0000 803f
00000060: 0000 803f 0000 803f 0000 803f 0000 803f
00000070: 0000 803f 0000 803f 0000 803f 0000 803f
00000080: 0000 803f 0000 803f 0000 803f 0000 803f
00000090: 0000 803f 0000 803f 0000 803f 0000 803f
000000a0: 0000 803f 0000 803f 0000 803f 0000 803f
000000b0: 0000 803f 0000 803f 0000 803f 0000 803f
000000c0: 0000 803f 0000 803f 0000 803f 0000 803f
000000d0: 0000 803f 0000 803f 0000 803f 0000 803f
000000e0: 0000 803f 0000 803f 0000 803f 0000 803f
000000f0: 0000 803f 0000 803f 0000 803f 0000 803f
1.0 1.0 1.0 1.0 1.0 1.0 1.0 1.0
1.0 1.0 1.0 1.0 1.0 1.0 1.0 1.0
1.0 1.0 1.0 1.0 1.0 1.0 1.0 1.0
1.0 1.0 1.0 1.0 1.0 1.0 1.0 1.0
1.0 1.0 1.0 1.0 1.0 1.0 1.0 1.0
1.0 1.0 1.0 1.0 1.0 1.0 1.0 1.0
1.0 1.0 1.0 1.0 1.0 1.0 1.0 1.0
1.0 1.0 1.0 1.0 1.0 1.0 1.0 1.0

encoder.3.conv.weight f4 [64, 64, 3, 3]
00000000: d53c e5bc e899 c0bd c6df 8c3c e4db 2cbc
00000010: 0b12 c1bc 8d5c 8c3c 1f12 05be 8d9c fabd
00000020: 7189 d7bd d2f5 28bd be3b 5dbd c593 813d
00000030: eaa8 cabd 0c20 80bd e56a 63bd 97dd 00be
00000040: da0e aabd d071 fbbd a571 d13d bb19 ba3d
00000050: 6e34 fc3d c0cd 783c 8b89 09bd f798 97bc
00000060: e1c8 47be e4f2 bcbd 6fde 32be adb9 883e
00000070: 8543 10bc 4bf6 6a3e 0178 2b3e de79 253c
00000080: e12f 363e 4359 993e 335c fb3d 5908 863e
00000090: 4f96 91bd 6c58 2fbe bc9f 67be cd45 65bd
000000a0: 3481 62bd e0a2 3abe 8e6e acbd e7e4 ccbd
000000b0: 3110 6ebe 47cf 5bbe b553 0fbe 0472 28be
000000c0: 29bb 4ebe 682e 3dbe b9f8 7cbe a293 95be
000000d0: 1657 2abe 891d 90be 6a23 bfbe 42a6 1dbe
000000e0: aed9 93be 8310 72be 6655 dabd 1e08 64be
000000f0: 36f0 8cbe aeaa 36be e03a 96be f66f 87be
00000100: 402a 28be 424c 3ebe bebf dcbd 2ee8 fbbc
00000110: fcda 53bd 6c7c 48bd 06a3 223d f1bf 0c3d
00000120: 0d84 61be 3e25 edbd 845f 15be ca8e 07be
00000130: fbb9 82bd 4d93 9ebd b3f9 e0bd 4642 a93c
00000140: bb41 94bc 7b00 14bf 12a1 9fbe 5ac7 14bf
00000150: 73e7 b3be 2b56 d0bd ce86 8ebe 9c16 e5be
00000160: 1ee7 47be 5ce2 adbe b200 a23e 0049 763e
00000170: 7d26 813e 4a06 753e f169 313d be42 223e
00000180: 13fb 8a3e 184e 4f3d 9535 053e 5372 9bbe
00000190: 1470 76be 454a edbe a954 9fbd b365 36bd
000001a0: 0640 67be bec2 03be bb79 bcbd 1e95 99be
000001b0: d92f 63be 9ea0 d9bd fee4 24be 2554 993c
000001c0: c624 1a3d 38e1 5d3d 360b d4bd 572a 9c3d
000001d0: f7e0 69bc bb29 bdbd c738 72bd f212 d3bd
000001e0: c2d2 683c 7d1c c3bd 5df4 e2bc ec56 293d
000001f0: e4f4 053c 2d80 04bd 7d13 b7bd 0604 7cbd
00000200: 74d1 83be 8694 153d 1d71 193d 0302 49be
00000210: 6eb7 3ebb c68d a6bd 2e13 9fbe d4e5 79be
00000220: 51e8 90bd 159e 8dbe a40d 32be 1193 f8bd
00000230: 0bc8 b5be 2cfb 76be 8ab6 1abe 4c0d d5be
00000240: dcf0 01be 7bc9 0fbb c1fd dabc 238f 64bd
00000250: 8e28 a53d 08fd 803d 4e50 d9bc 1118 ff3c
00000260: 941a 923d d6c9 2a3f 3dde 9e3e b752 943e
00000270: 8992 fd3e 6ad4 cb3d 409a a8bc e374 323f
00000280: f166 4a3e 1a46 8e3e 6df9 133d 0bd7 beba
00000290: 2df3 89bc bdb2 0c3d 9514 9f39 35ec c83c
000002a0: 21eb 273d 8452 1a3d 7964 053d fed1 903d
000002b0: 73fd b23d a048 373e 4698 d73c 8f6c 9e3b
000002c0: de83 dd3d 1a6e fe3d cbd6 0b3e 96af 243e
000002d0: f9d8 08bd 8397 daba a7a9 76bc 0a35 25be
000002e0: 22c1 cbbd 05e9 0dbe ffe6 79be 49e4 01be
000002f0: 514a 4ebe f48a 9c3c 8406 b33a 5c84 6a3e
00000300: fe46 75bd e47b 6abc 5a87 443e 97cb 33bc
00000310: 75b7 2e3e 024b 9f3e 1600 02bd c446 323c
00000320: 2510 86bc ae48 1a3d b821 9a3d 9596 ca3c
00000330: 068e 92bb d1cd 8f3d 3ba7 fbbc 047e 6d3e
00000340: 0c7a d03d f045 473e 435c b13d f439 debc
00000350: 5874 563c 26fc 3f3e 3284 a7bc 81bc 363e
00000360: 37af 253e 9d8c 373e 44fd 873d 2c27 893d
00000370: 0e0b 813d cdbe 043e f0e1 cf3d 5ffe 4c3e
00000380: ca29 313e 5ae7 3dbe 34a4 95bd 96e6 13be
00000390: 5f37 db3c 7095 c43a edc8 2cbd 75af ab3b
000003a0: 958e 62bd b01f 2abc 7156 5f3e 4bd0 863d
000003b0: 86ec 813e c89c 553e c4a1 c23d 9e78 763e
000003c0: da2e 003e 52ff e53d 6d88 213e ccfc 9abd
000003d0: ab0a afbc 954d 8ebd 2de9 91bd eaaa 263b
000003e0: aca4 66bc 10e7 12be c0e9 6fbc 7d9b b1bd
000003f0: 9d3c 03bf 85f0 1abe bb4d c4bd 72b1 6bbe
-0.027983109 -0.09404355 0.017196547 -0.010550473 -0.023568174 0.017133975 -0.12995194 -0.12236891
-0.10524262 -0.041250058 -0.054012053 0.06327013 -0.09895499 -0.062561125 -0.055521864 -0.1258453
-0.08303614 -0.122775674 0.10226754 0.09086939 0.12314688 0.015185773 -0.033578437 -0.018505557
-0.19510223 -0.09226015 -0.17467664 0.2670416 -0.00880516 0.22945516 0.16744997 0.010099856
0.17791702 0.29950914 0.12273445 0.26178244 -0.07108747 -0.17123574 -0.22619528 -0.05597477
-0.055299 -0.18226194 -0.08419524 -0.10004597 -0.23248364 -0.21465789 -0.13996775 -0.16449744
-0.20188583 -0.18474734 -0.24704255 -0.29214197 -0.16634783 -0.28147534 -0.37331706 -0.15395454
-0.28877014 -0.23639111 -0.1066082 -0.22268721 -0.27527016 -0.17838547 -0.29341793 -0.26452607
-0.16422367 -0.18583778 -0.107787594 -0.03075036 -0.05172251 -0.048946783 0.039706253 0.034362737
-0.2202303 -0.11579369 -0.14587218 -0.13238063 -0.06383129 -0.07742939 -0.10985126 0.020661484
-0.018097749 -0.57813233 -0.31177574 -0.58116686 -0.3513752 -0.10172685 -0.27837223 -0.44743812
-0.19521758 -0.3396176 0.31641155 0.24051285 0.25224677 0.2392818 0.043313924 0.15845773
0.2714468 0.050611585 0.13008721 -0.3036066 -0.24066192 -0.46345726 -0.077798195 -0.04453058
-0.22583017 -0.12867257 -0.09202906 -0.2999658 -0.22186221 -0.106263384 -0.16102979 0.018716881
0.037632726 0.054169863 -0.10353701 0.07625263 -0.014274827 -0.09236475 -0.05913618 -0.10306348
0.014210405 -0.09526918 -0.027704412 0.04134266 0.008176062 -0.0323488 -0.08939264 -0.061527275
-0.25745738 0.036518596 0.03746139 -0.19629674 -0.0029101032 -0.0813251 -0.3106932 -0.24404079
-0.07075561 -0.2765967 -0.17388016 -0.12137426 -0.35504183 -0.24119252 -0.15108696 -0.41611707
-0.12689537 -0.002194016 -0.026732327 -0.05580057 0.08064376 0.06298262 -0.02652755 0.031139405
0.071339756 0.6671423 0.3102893 0.28969356 0.4952586 0.09952624 -0.020581365 0.69709605
0.19765832 0.27787858 0.036126543 -0.0014559937 -0.016839588 0.034350146 0.00030342178 0.024526695
0.04099572 0.03767635 0.03256652 0.07071303 0.08739748 0.17898798 0.026317727 0.0048347185
0.10816167 0.12423344 0.13656156 0.16082606 -0.033410046 -0.0016677234 -0.015055097 -0.16133514
-0.099489465 -0.13858421 -0.24404524 -0.1268474 -0.20145537 0.019109227 0.0013658558 0.22902054
-0.059882157 -0.014311764 0.19192258 -0.010973833 0.17062171 0.31111914 -0.031738363 0.01088113
-0.01636512 0.03766697 0.075259626 0.024730006 -0.004472497 0.07021678 -0.03071939 0.23192602
0.101795286 0.19460273 0.08660176 -0.027127244 0.013089262 0.18748531 -0.020448778 0.17845346
0.1618012 0.17924733 0.066401035 0.066969246 0.06300937 0.1296341 0.10150516 0.2001891
0.17301098 -0.18545285 -0.0730671 -0.1444343 0.026759801 0.0014998149 -0.042183805 0.005239422
-0.055311758 -0.010383531 0.21810319 0.065826975 0.25375766 0.20860589 0.095035106 0.2406945
0.12517872 0.11230339 0.15774699 -0.075677484 -0.021367392 -0.06948391 -0.07124553 0.0025431463
-0.014077347 -0.14345956 -0.014643133 -0.08672235 -0.51264364 -0.15130813 -0.095851384 -0.23016909

encoder.3.conv.bias f4 [64]
00000000: 9448 3e3e 6600 9d3c 434b ee3b 0552 09bd
00000010: 0e7c 9ebb c9bc 143d de29 8bbc 73ce 12bd
00000020: a967 e43c 2b61 c7bc 441a 3f3e 925b 50bc
00000030: 049e 063d c165 0c3d 6d30 3b3c 04c9 f33c
00000040: e8d9 58bc 0212 ddbc abff 6abc 3b1f cd3c
00000050: cd21 08bd 938e 0bbd b1b5 513c 441c 01bb
00000060: 309e b13c 1611 dc3c 3821 aa3c bc86 26bd
00000070: 2ae4 163d 639e 803e 6ea8 703c 2308 943b
00000080: 60ff d43c cfcf 46bb c844 823c 2914 bbbc
00000090: 6611 bcbc 6940 f6bc dbd3 073d 7a9f 493d
000000a0: 5150 d33b e042 b6bb 4268 1a3c abe5 303d
000000b0: 696c 853e 5b8c c83c 9b9a 96bc 17af 763e
000000c0: a51f 913b 7d7e b1bb 60a9 0fbd 2e00 f0bb
000000d0: 0c5b fa3c 0b14 f03c f45c 1dbd f009 bbbc
000000e0: 076e e7bc d74a 0f3c 2cb5 e8bb 4fb4 f83c
000000f0: 9285 2e3b fb84 993c 3ae3 cfbc e368 073d
0.18582374 0.019165229 0.0072721555 -0.033525486 -0.004836566 0.036312852 -0.016987737 -0.035841417
0.02788146 -0.024338325 0.18662363 -0.012717145 0.03286554 0.034276728 0.01142512 0.029758938
-0.013235547 -0.026986126 -0.014343183 0.025039306 -0.03323536 -0.034071516 0.012799666 -0.0019700686
0.021681875 0.026863616 0.020767793 -0.040655836 0.036838688 0.2512084 0.014688594 0.0045175715
0.026000679 -0.0030336266 0.015901938 -0.022836762 -0.022957515 -0.03006001 0.033161025 0.049224354
0.0064487834 -0.0055621713 0.009424271 0.04318778 0.26059273 0.02448099 -0.018384269 0.24090229
0.004428821 -0.00541669 -0.035073638 -0.00732424 0.030560993 0.029306432 -0.038418725 -0.022831887
-0.028250707 0.008745871 -0.0071016755 0.030359415 0.0026629907 0.018740168 -0.025376905 0.033059012

encoder.3.bn.weight f4 [64]
00000000: 8ffc 9640 a8bf e43e bec7 b63e 0012 ba3e
00000010: 78cb c33e 6686 c03e 79d5 c83e c5e8 d13e
00000020: ab40 d73e 1a5f d03e 8809 8f40 61bf bd3e
00000030: 13e4 cf3e 8b83 dd3e b812 b53e fe92 b03e
00000040: 13e0 c73e 71ca d13e 5e0f d53e 342d c83e
00000050: 35fe c13e bef8 d93e e983 d93e b0a7 c73e
00000060: d8ed d93e 18d7 d73e 4838 b73e 4379 c73e
00000070: 471b bb3e 9964 8e40 f736 bd3e 0887 bf3e
00000080: 88b5 c13e a8a5 d83e a2af e13e 0017 c03e
00000090: a805 cc3e e89a d33e 7ac7 b93e cebd be3e
000000a0: 8881 d13e 4323 c13e d4d7 bd3e 8d5a d13e
000000b0: b105 8d40 f4d3 b33e 0e90 be3e 0932 7f40
000000c0: 73ef d03e 95be cb3e e217 cd3e 6cd8 d33e
000000d0: 3e77 b33e a5c0 c43e 8ae5 df3e 7e7c bf3e
000000e0: c1c6 d43e 7308 c43e 4e87 bd3e a15c eb3e
000000f0: 0c8c ac3e 5a30 c03e d5ef b93e 5f06 dd3e
4.71833 0.44677472 0.35699266 0.36341858 0.38241172 0.37602538 0.39225367 0.40997902
0.42041525 0.40697557 4.4699135 0.37060073 0.40603694 0.43264422 0.35365844 0.34487146
0.39038143 0.40974763 0.41613287 0.39096987 0.37889257 0.42572588 0.42483452 0.38995123
0.42564273 0.4215629 0.35785127 0.38959703 0.36544248 4.44978 0.36955997 0.37407708
0.3783381 0.42313886 0.4407931 0.37517548 0.39848065 0.41329122 0.36285 0.37254184
0.40919137 0.37722215 0.37078726 0.40889397 4.4069448 0.35122645 0.3721928 3.987429
0.40807685 0.3979384 0.40057284 0.41376054 0.35051912 0.38428226 0.43729812 0.37399668
0.41557887 0.38287696 0.37017292 0.45969108 0.33700597 0.3753689 0.3631579 0.43168923

encoder.3.bn.bias f4 [64]
00000000: 3bb7 9fbf 9564 24bf b82e 2cbf f631 18bf
00000010: 4657 23bf 5ec7 2fbf edc6 32bf 5ff7 1ebf
00000020: 4dd8 28bf 9f05 14bf a481 3cbf 46d5 30bf
00000030: fdc1 17bf 52b0 1ebf 9611 1dbf 07cb 2fbf
00000040: 93e0 2dbf b9dd 23bf be4c 1ebf 7fb3 25bf
00000050: 624a 28bf 028a 1dbf 1ff0 22bf 92c6 2bbf
00000060: c7da 27bf 8472 1ebf da27 11bf 4cd9 2dbf
00000070: 73d6 2ebf bfc1 11bf f6e7 1dbf 06cc 25bf
00000080: 405e 19bf 8d54 23bf a20c 21bf 7a69 24bf
00000090: 8178 28bf 029d 16bf 675d 26bf 133b 2ebf
000000a0: 115b 16bf f951 25bf 1e34 1cbf 6de1 1bbf
000000b0: 201c 80bf 10f8 2ebf f097 28bf a951 29bf
000000c0: 4750 21bf 614d 32bf fbeb 23bf d643 2abf
000000d0: 8a0d 31bf 4c0b 2abf e303 30bf 7982 2dbf
000000e0: 8b4d 30bf b99f 2bbf 6d73 2cbf 17bc 16bf
000000f0: e26b 31bf 6332 1ebf cbda 22bf ef05 17bf
-1.2477793 -0.64215976 -0.6725879 -0.59451234 -0.63805044 -0.68663585 -0.69834787 -0.6209621
-0.6595505 -0.5782108 -0.73635316 -0.6907543 -0.5928038 -0.61987793 -0.6135496 -0.6866917
-0.679208 -0.64010197 -0.6183585 -0.64727014 -0.657385 -0.6153871 -0.63647646 -0.6709987
-0.655682 -0.61893487 -0.56701434 -0.67909694 -0.68295974 -0.5693626 -0.6168207 -0.6476444
-0.5990944 -0.6380089 -0.629099 -0.64223444 -0.65808874 -0.58833325 -0.6498627 -0.6805889
-0.58732706 -0.64578205 -0.61017025 -0.6089085 -1.0008583 -0.68347263 -0.6585684 -0.6614023
-0.6301312 -0.6964932 -0.6403195 -0.6650976 -0.69161284 -0.6642349 -0.6875593 -0.6777721
-0.6886832 -0.6704059 -0.67363626 -0.5888075 -0.6930524 -0.61795634 -0.636151 -0.5899343
