result/ProtoNet_CUB_Conv4_5w1s__(0.8,1.0)_/best_model.pth (torch, 462801 bytes, 24 tensors)

0.conv.weight f4 [64, 3, 3, 3]
00000000: 8e54 01be eb6c 103b 7e43 9ebd bc24 abbd
00000010: bfa7 76be 360f 22be 3ce2 2b3d 7702 4f3d
00000020: 0e0d 0cbd f812 823e 0597 823e 01aa 3c3d
00000030: 2ab7 cb3e 273e c03e 1c69 ae3e c818 703e
00000040: da47 9c3e 2b5c d53e 78ec b4bd e041 7bbe
00000050: 67dc 853d 2783 acbe 7711 cebd a50f 37be
00000060: 3490 98be be5d c3be b1a7 a9be 1cde f03e
00000070: ed82 25bd 6af5 15be 2206 ca3e 61cf 023e
00000080: 988d 3f3e a3ec ec3d 00a9 243e eaa8 16be
00000090: de6b fbbd 7797 abbe 68b7 34be 4a0a dfbd
000000a0: b779 98be e35b 0cbe 9693 4ebe 9996 8cbe
000000b0: 1a24 e3be 169b 583e 6c38 9c3e df45 e73c
000000c0: bb87 c23e abda ac3e bdc4 37be da1c 413e
000000d0: b563 b1bd 0f32 30be 60e5 213e f544 9a3e
000000e0: 8442 2c3e d2ff 2c3e 3912 883e 75cc b13e
000000f0: 414a 063e 1867 933e 2fcd 7e3b e8f7 c4bb
00000100: 6d6d 623e 278c bb3e b781 e3bc 97d6 5d3d
00000110: 6485 47bc 8dc4 9abe b2a9 00be 5c18 09be
00000120: 5cee 9dbe 8513 9abe 05c6 00be ac32 d0be
00000130: 7643 46be 0851 5fbc aa90 ddbe a28e 11be
00000140: 107e 983d eee5 903e cf83 a63e d78e 723d
00000150: 9a81 a53e 1bef 003e 4798 e3bb 12cc cbbc
00000160: c017 0a3e 520e 29bc 1536 f0be 0123 c0be
00000170: b060 88be 79de 9ebe c5e7 85be 0f01 c7be
00000180: 6d4c 33be ea1e c7be 674f 3abd 7bde a63e
00000190: 0855 863e c95c b93e 6caf 743c 2a67 7b3e
000001a0: 596b 283d 4c73 a43d 2175 6d3d cfa1 8c3e
000001b0: ac47 27be 7957 99be 7f06 46be 80d8 293e
000001c0: ac47 bc3d 4ff6 733d b448 9abe cc4a 8fbe
000001d0: 171c 3dbe 84e3 b8be 508b 08bd 39ef 87be
000001e0: 9691 05be 5da5 6cbe 9f54 943c e9f5 cdbd
000001f0: e733 0abe 15fc 61be c397 c33e 5ee4 193e
00000200: 125a d13e e09b e03e 713c 7e3e 06ad af3e
00000210: 9421 95ba d631 ab3e 5cd6 6c3e 128d a1bc
00000220: 42c3 02be 1c20 4ebe 9b90 a63e 5708 81be
00000230: 3464 eebd 8915 bb3e 4100 a9bd 35c6 f1be
00000240: 0072 3e3e 876a 263d ba7b 07be d3bb 483e
00000250: d6d9 51bd 3194 2dbe 066b 053f ab87 e4bd
00000260: 4122 19bd 5a02 113e c901 dc3d 1007 53bd
00000270: 66d3 593e b700 a63c 5d18 35be a426 d23e
00000280: a0d1 91be dc8e d5be 2abe 9b3d 077a 583d
00000290: 7cd9 0f3e 0552 6b3e 9059 bd3e 8f04 1e3e
000002a0: f2f3 75bd f261 fe3e 5564 da3d 2a66 d2bd
000002b0: ca60 94be 3189 15bd fa92 ebbe a3b3 90be
000002c0: 233f b4be 1824 90be 8322 26be e868 e8be
000002d0: 850a 513e 5ce5 05be bc48 423e 38c5 1c3d
000002e0: 7133 a03e 6688 ecbd 9982 dfbd ae1e b63e
000002f0: 45b9 8abd 8eb1 a73e 3bd0 b83e ff62 cb3d
00000300: 2884 2e3e e761 18be 2e05 53be 7d6c 9f3d
00000310: 47b2 d3be 52c8 52be cf2f f13d a7da 3e3e
00000320: 102e 3e3e 0817 30bd e0a8 ce3b 9e0c 53bd
00000330: 22db 4abe bb36 7dbe 989f 84bc d11f 01bf
00000340: b1c0 07bf 257a b7be bfe4 cabb c831 ed3d
00000350: c1a8 733e d219 ac3e d389 8c3e eeb5 db3e
00000360: 057e 8a3e be8a 24bd f7a6 4bbc 292e a73e
00000370: 52c7 8a3d 2ee9 dfbd e6bf b43d 444c bcbd
00000380: f46a 1dbe 6a91 783e 793f eabd 9a8b 24be
00000390: d233 093e 154a 47be e12d acbe b5b1 643e
000003a0: bb52 553c 6738 efbe 886b 963e 7342 db3d
000003b0: 34e0 28be 0487 153f 1dae 7ebc f6cc b0be
000003c0: 68b0 e73e 67db a2bd a553 9ebe 5fad b73e
000003d0: 7479 e63d b6b4 b0be 16c7 1cbe 1c2e f2bc
000003e0: 7ab6 493e 6c9a a1be bdce 033d 4884 843e
000003f0: 8780 8d3e 13e1 46be 290f 1bbf 3c15 88be
-0.12629911 0.0022037576 -0.07727717 -0.08356616 -0.24087428 -0.15826115 0.0419638 0.05053946
-0.034192137 0.25405097 0.25505844 0.046060566 0.3978818 0.37547418 0.34064567 0.23446953
0.30523568 0.4167188 -0.08834165 -0.24536848 0.06536179 -0.3369381 -0.10061925 -0.17877062
-0.29797518 -0.38157457 -0.3313575 0.47044456 -0.040408064 -0.146444 0.39457804 0.12774421
0.18706357 0.11568572 0.16080093 -0.14712873 -0.122764334 -0.33513996 -0.17648089 -0.10890634
-0.2978036 -0.13706927 -0.20173487 -0.27458647 -0.4436348 0.2115291 0.30511796 0.02823156
0.3799418 0.3376058 -0.17946143 0.18858662 -0.08661596 -0.17206596 0.15810156 0.30130735
0.16822249 0.16894463 0.26576403 0.347263 0.13114263 0.28789592 0.0038879623 -0.006010998
0.22112055 0.36630365 -0.027771814 0.054159727 -0.012177799 -0.3022808 -0.12564734 -0.13388199
-0.30845916 -0.30093017 -0.12575538 -0.4066366 -0.19361672 -0.013630159 -0.43274432 -0.14214566
0.074459195 0.28300422 0.32522437 0.059218254 0.3232544 0.12591211 -0.006945643 -0.024877582
0.13485622 -0.010318356 -0.4691626 -0.37526706 -0.26636267 -0.31029108 -0.2615339 -0.38867995
-0.17509623 -0.38890773 -0.04548588 0.32591614 0.2623675 0.36203602 0.014934402 0.24551073
0.041118 0.08029804 0.05797303 0.274672 -0.16335934 -0.2994955 -0.19338416 0.16586494
0.09193358 0.05956107 -0.30133593 -0.27986753 -0.18467747 -0.3611108 -0.033335984 -0.265497
-0.13043818 -0.23109956 0.018106757 -0.10056669 -0.13496362 -0.22068818 0.38201723 0.15028521
0.4088903 0.43868923 0.24827744 0.34311694 -0.0011377805 0.3343646 0.23128647 -0.019720588
-0.12769797 -0.20129436 0.325322 -0.25201675 -0.11640206 0.36539868 -0.082520016 -0.47221532
0.18598175 0.040628936 -0.13230792 0.19602899 -0.051233135 -0.16951062 0.5211643 -0.11158689
-0.037386183 0.14161053 0.10742528 -0.051520407 0.21272048 0.020264013 -0.17685075 0.41045105
-0.28480244 -0.41710556 0.0760463 0.05285075 0.14047807 0.22980507 0.36982393 0.15431426
-0.060047098 0.496841 0.10663668 -0.102733925 -0.28980094 -0.03650779 -0.46010572 -0.28262052
-0.3520442 -0.28152537 -0.16224103 -0.45392537 0.20414169 -0.13075775 0.18973058 0.03827402
0.31289247 -0.115494534 -0.109135814 0.35570282 -0.067736186 0.3275265 0.36096367 0.099309914
0.17042601 -0.14881097 -0.20607445 0.07784364 -0.41346952 -0.20584229 0.11776697 0.18638097
0.18572259 -0.042990714 0.0063067526 -0.051525705 -0.19810155 -0.2472791 -0.016189381 -0.50439173
-0.530284 -0.35835376 -0.0061918194 0.11581761 0.23794843 0.3361345 0.27448902 0.4291224
0.2704927 -0.040171377 -0.012429944 0.32652405 0.067762986 -0.10933147 0.08825664 -0.09194234
-0.1537283 0.24274221 -0.11437888 -0.16068879 0.13398674 -0.19461854 -0.33628753 0.22333415
0.013020213 -0.4672272 0.29378915 0.107060336 -0.16491777 0.5840914 -0.0155444415 -0.34531373
0.45251775 -0.07952004 -0.3092319 0.3587446 0.11253634 -0.34512872 -0.1531032 -0.029563002
0.19698516 -0.31563127 0.032179583 0.25882173 0.2763712 -0.19421797 -0.6057001 -0.265787

0.conv.bias f4 [64]
00000000: 11a3 a8bd d325 353e 0d15 ddb9 2c74 26be
00000010: 774f 24be e9fc 1fbe c486 d6bd 778a 4d3e
00000020: 1d53 ecbd 31e8 f3bd 9792 20bd dc5e edbd
00000030: 6404 023d 677f 713e bb9c a33c ddd1 73be
00000040: 6b55 9e3d 2644 69be 386f 3b3e 477a d43d
00000050: 89c5 fa3d e389 a13d ec72 293e e934 05bd
00000060: 81b5 a5be 72ff 7bbe b580 82bc abfa f73d
00000070: d7b3 0e3c 8f78 603d 1ffd 863d dfcb f93d
00000080: 3b7c 4ebe f4a3 72bd 2f09 b7be 57bb 763d
00000090: 99fd ef3d abec f93c 8ade e4bc 33fa c53d
000000a0: 367a d3bc 83e6 60bc 1e69 e0bc 1a36 2bbd
000000b0: f301 4bbd dfe1 203e 3af7 b03d 4ab8 c03d
000000c0: 5a16 12be 1a0b 4b3d 8c3d 80be 49a5 7b3c
000000d0: 78d0 953d 73c2 20be 0ea7 cf3d 4645 64be
000000e0: d4ef 20be a192 003e 1607 95bc 50c8 773e
000000f0: bedf 12be ec4d 253e 5ced 9abd ccd0 ed3c
-0.082342274 0.1769021 -0.0004216809 -0.16255254 -0.16045938 -0.15623821 -0.10474923 0.20072351
-0.1153929 -0.11909521 -0.0392023 -0.115903586 0.03174247 0.23583756 0.019972196 -0.23810525
0.07731136 -0.22779903 0.18304145 0.10374885 0.12244708 0.07887628 0.16547745 -0.032521162
-0.3236504 -0.24609163 -0.015930513 0.12108358 0.008709869 0.054802474 0.06591248 0.121970885
-0.20164578 -0.05923839 -0.35749194 0.060237255 0.11718292 0.03050836 -0.027938146 0.09666862
-0.02581511 -0.013726833 -0.027393874 -0.041799642 -0.049562406 0.15711163 0.08640905 0.0941015
-0.14266339 0.049571134 -0.25046957 0.015359231 0.07315153 -0.15699176 0.10139285 -0.2229205
-0.15716487 0.12555934 -0.018191855 0.24197507 -0.14343163 0.16143006 -0.07564804 0.029030226

0.bn.weight f4 [64]
00000000: 634a 3e3f cd23 233f a1b6 c83e 60ca 9a3f
00000010: 6dfe 643f 10b0 4d3f 522f 4a3f 29cd a83f
00000020: c3c3 0e3f 1abb 533f 8845 133f a23c 2f3f
00000030: dbf1 5d3f f04f 273f 34ec 063f 5afe 503f
00000040: 667c 413f 3179 9e3f aa99 cd3e 4d0d 153f
00000050: 1a9e b43f c452 9d3f 866d 0e3f 3a3a 163f
00000060: 538c 253f fef7 6a3f d859 813f 5bfe 423f
00000070: afb9 f23e 661b 9e3f cfc6 403f d32d 583f
00000080: fd54 a03f 861e ad3e 0932 d33f 64e8 163f
00000090: f700 d33d da95 933f 9b0d 0a3f 0490 b93f
000000a0: 355b 503f 6021 793f 9e77 313f 0ec1 003f
000000b0: 670e 0d3f 666a 1f3f 0a99 123f cbac 3e3f
000000c0: 8de1 893f d45c 803f 78e8 903f 56b2 8c3f
000000d0: 838f 543f 424b 103f b167 b03f 953b 953f
000000e0: 399a 273f daac 2e3f 89df 813f 30f0 843f
000000f0: b501 143f dc2d d33f d23a 1b3f 1f6c 4b3f
0.74332255 0.637265 0.39201835 1.209301 0.8945072 0.80346775 0.78978455 1.318761
0.5576746 0.8270737 0.5752797 0.68451893 0.8669717 0.6535635 0.5270417 0.8163811
0.7558044 1.2380735 0.401563 0.5822342 1.4110749 1.2290883 0.5563587 0.58682597
0.6466724 0.91784656 1.0105543 0.76169366 0.4740729 1.2352111 0.7530336 0.8444492
1.2525936 0.3381235 1.6499645 0.5894835 0.103029184 1.1530106 0.5392701 1.4497075
0.8138917 0.9731655 0.69323146 0.5029458 0.551001 0.62271726 0.5726477 0.7448241
1.0771958 1.0028329 1.1320944 1.0991924 0.8303148 0.56364834 1.3781644 1.1658808
0.654697 0.682325 1.0146343 1.03858 0.57815105 1.649837 0.6063663 0.79461855

0.bn.bias f4 [64]
00000000: 1872 2b3f 4570 3cbf 99e0 aabd 4a3c 8b3e
00000010: ad0b 9b3e 3c41 d93e 13c1 083e 988f 8dbe
00000020: 400b 853e 13d5 9abd 23e7 313e bbc8 643d
00000030: 376c c6be 1c57 8dbf d028 5ebf fddc fc3e
00000040: 2f27 fdbe 5baa da3e f813 b1be 1c50 35bf
00000050: a50d d8bd 96cb 923e 0f16 23bf 0799 e13e
00000060: 2875 863f d370 c8be 22a1 543f 3fbd 0fbf
00000070: c749 3d3f 9981 d53e acf1 cebe 5c9b 223e
00000080: 68db 093f 25c7 00bf ce2b b03e 5f0d c2be
00000090: 7218 65bd bc18 823e e2d7 bfbd d0f6 643f
000000a0: 6481 8c3d 21bb 54bf 8668 4e3e 16bb 37bf
000000b0: 2170 0fbf c1e4 c9be a41c e2be 9b4e 1fbe
000000c0: d14d 5e3c 6845 1cbe 5896 133e e6f8 f2be
000000d0: 1513 1cbe fe64 37bf 171c 1c3f c28c c53e
000000e0: 3301 9cbe e321 2abf ab70 83be 204f a8be
000000f0: 241b 6abb 4397 193f f863 0bbf e2c8 c5be
0.6697097 -0.7360881 -0.0834362 0.27194434 0.30282345 0.42432582 0.13354902 -0.27648616
0.25985146 -0.07560172 0.17373328 0.055855494 -0.38754436 -1.1042209 -0.86781025 0.4938735
-0.49443957 0.42708096 -0.34585547 -0.7082536 -0.105494775 0.2867095 -0.63705534 0.44062063
1.0504503 -0.39148578 0.8305837 -0.5614814 0.739407 0.41700438 -0.40418756 0.15879577
0.5385041 -0.5030387 0.3440842 -0.37900826 -0.055931516 0.25409496 -0.09367348 0.89439106
0.06860617 -0.83098036 0.2015706 -0.71769845 -0.5603047 -0.39432338 -0.44162476 -0.1555733
0.013568358 -0.15260851 0.1441282 -0.4745552 -0.15241654 -0.71638477 0.6098036 0.38583952
-0.30469665 -0.6645796 -0.25671896 -0.32872868 -0.0035721743 0.5999643 -0.54449415 -0.38629824

0.bn.running_mean f4 [64]
00000000: 7c64 863c fa25 5dbc 61c8 c6be 55e3 acbe
00000010: 3d26 cd3d 6220 91bd 2671 d6be c293 403e
00000020: cc14 13be d96c 2dbe b28b 78be c1e8 c6be
00000030: 692a 55be cb42 28be c07b 773e 6426 ccbe
00000040: fd61 523e 9b5a 66be 9cd2 4fbe 1439 063d
00000050: e33c ed3d 9240 ed3d 90e8 af3d 842f 51bd
00000060: 7036 2fbe 13dc 94be fb38 ec3d 7035 63be
00000070: 9acb 543e 1750 a4be 0acd 54bd e062 d3bd
00000080: bfe8 a0bd 767a 403e a231 34bf 308b 1abf
00000090: 3937 6d3c 45b5 003f afb4 2dbf 57bd 013e
000000a0: 594f 60be 339a 713b 5864 1fbe 1490 dcbe
000000b0: 2c38 10be 74a0 c23e 4439 19bf eb9b e4be
000000c0: 66f6 19be 9d15 b9bd 7aaa d5be aa00 a53a
000000d0: 5234 363c 9c3a 8f3e 3316 253e d1f3 4cbf
000000e0: 1495 963e c74e 3bbc d83f cdbd 6021 083e
000000f0: d941 1fbe 2732 713e d33e e0be 8091 99bd
0.016405337 -0.013497824 -0.38824752 -0.3376719 0.10017059 -0.07086255 -0.418832 0.18806365
-0.14363402 -0.16936053 -0.2427204 -0.38849452 -0.2081696 -0.1643173 0.241683 -0.3987304
0.20545192 -0.224955 -0.20295185 0.032769278 0.11583879 0.115845814 0.0858928 -0.051070705
-0.1711061 -0.29074153 0.11534306 -0.22188354 0.20780793 -0.32092354 -0.051953353 -0.10321593
-0.07856893 0.18796715 -0.70388234 -0.60368633 0.014478498 0.50276595 -0.67853826 0.12669884
-0.21905269 0.0036865592 -0.15565622 -0.43078673 -0.14083928 0.3801304 -0.59853005 -0.44650206
-0.150354 -0.090373255 -0.41731626 0.0012588699 0.011120873 0.27974403 0.1612175 -0.80059534
0.29410613 -0.011432356 -0.10021943 0.13293982 -0.15552463 0.23554288 -0.4379793 -0.07498455

0.bn.running_var f4 [64]
00000000: e5e8 7e3f 0510 323f 9d97 f93f e69c 503f
00000010: 19ec 1440 bd01 5b3f dfd5 d93e b6be c73d
00000020: f028 943f 9df4 9a3e eace 2f3f 95bc c43e
00000030: a639 4b3f ad3f 143f 1057 153f ca27 2d3f
00000040: 01a4 b73f af90 0e3f e71c 1541 3fed b33e
00000050: 7a95 6d3f 37d2 743f 6979 6b3f 1854 863f
00000060: 9bed e73e a308 553f 62c5 7d3f 6bc1 953f
00000070: 7787 9d3f d548 123f 4a2a 9c3f f9b3 ee3e
00000080: f20e 803f 99e1 2c41 2c23 023f 5a85 a340
00000090: c75c b03f 7759 4a3f 8b19 f540 530c 863f
000000a0: d0ca 093f c91c 7c3f ac85 483f ccc9 cb40
000000b0: b05d 7040 4e8f 6041 bf3c bf40 6f6f 5f40
000000c0: ded3 a53d 8f29 ce3e 59b6 363e 6617 4f3e
000000d0: c0da 6b3e dfa5 1140 d5dd 8a3f 5f05 c53f
000000e0: 520f 1740 16d3 2540 539a 2c3e 18a7 4e3e
000000f0: 4ef8 573f 93db 9b3f e93a fa3f 8668 563e
0.9957412 0.69555694 1.9499394 0.8148941 2.3269103 0.8554953 0.42545983 0.09753172
1.1574993 0.3026475 0.686751 0.38425127 0.7938484 0.5790966 0.5833597 0.6763884
1.4346925 0.5568952 9.319556 0.35141942 0.9280621 0.9563326 0.9198213 1.0494413
0.45298466 0.83216304 0.9912931 1.1699651 1.2306966 0.5714238 1.2200406 0.46621683
1.0004561 10.805078 0.5083492 5.1100283 1.3778313 0.7904276 7.659368 1.0472511
0.5382509 0.9848142 0.7832897 6.3683834 3.7557182 14.0349865 5.9761653 3.4911764
0.08097051 0.40266082 0.17842998 0.2022377 0.23032665 2.275749 1.0848948 1.5392264
2.36031 2.5910087 0.16855745 0.20180929 0.8436326 1.2176384 1.9549228 0.2093831

1.conv.weight f4 [64, 64, 3, 3]
00000000: d181 e33e 4b8d 833e 4de2 493d 823e 8f3e
00000010: 43d7 063e d922 dfbc 3247 abbc 505d 38be
00000020: 5111 9abe fdcd babe 4519 15be 6c97 b23d
00000030: db77 0abe 1dab 1a3c c194 443e b7ca 1ebd
00000040: 5c2a 73bd f538 973d 8063 c43e 2d55 cd3d
00000050: de33 b4bd 24e1 883e 0edf 4a3d 557a 01be
00000060: 9d52 a3bd 67ec 8abe 7964 9dbe 251b 67be
00000070: f57c 6a3d 99ca 5f3e 185f 87bd 0879 033d
00000080: 6a83 453e d7a3 bdbd 0146 aa3c 6984 523e
00000090: ae36 39be eaa1 103d 651d 763e 877f 643d
000000a0: 0616 453e 7dac 943e 7017 1c3c 7258 2c3e
000000b0: 9193 9e3e 0522 3dbf 60a2 1dbe 4f95 a13d
000000c0: 2088 03bf 1987 88be 408e 16bd e5b5 29bf
000000d0: ceb9 a2be ea11 adbe b71a da3d 191d 1ebc
000000e0: ae2e 54bb ed05 083d 5dbc 1a3d 4379 8bbc
000000f0: 4369 54bd c5e9 0cbd b9be 0c3d 89cb 3f3f
00000100: 3c20 fb3e ff09 803d 0abb 103f b14f df3e
00000110: 0c85 8a3e a3ae ad3d 6ca1 1abe a8ac a7bc
00000120: 919b 65bf 93c1 c8be c879 66bd 68da 3ebf
00000130: 8d4c ecbe a664 0fbe 933d 49bf 21c5 e3be
00000140: e306 63be 590f 6e3e 0939 7abe 2e84 20bf
00000150: b2c3 02be 9346 eebe 21cb 05bf 544a 0ebf
00000160: 117a cebe bfe7 d8be 2bc6 11be 1728 a4be
00000170: f6f0 d4be da14 64be 4ab5 babe 9120 94be
00000180: 9156 05bf ad8e 8fbe 7422 7abe c8df db3e
00000190: ac41 243e 0a31 82be eb11 943e 0428 0bbe
000001a0: 2199 78be 31c1 d83b c9b1 5ebe b42d 87be
000001b0: 7153 333e a2bf af3d 794f 353b fa56 6e3e
000001c0: 6d06 1e3e 4295 cd3d 8622 b93d d330 ad3c
000001d0: 3655 e4bc ce4c 793d 8f1c 8fbe 0269 f5be
000001e0: 3141 9fbd 4b1e 41be 4ee8 63be 47f6 b2be
000001f0: f20a 9ebe 4ae9 a2be 7f2f c33d b63d 4c3e
00000200: 80ba 2d3e 5524 f83d 897c 473e 9e1e 463e
00000210: be08 1e3e d77e 8d3d fa72 053d c161 193d
00000220: 6c3e 013e 6c55 10bd 1e84 963e 777e a73e
00000230: 569c 8b3d 8572 c53c fb04 6a3d 9869 b23d
00000240: 5c3b 283e 340c e73d 2057 af3d c967 703e
00000250: 98a2 803e 4a85 913e 9dc9 033e ce79 cb3d
00000260: b40a a53d ab9a ce3d c80f 83bb c151 c43c
00000270: 4ac1 27be a136 36be 596a c1bd 85c7 6fbd
00000280: ad0b b03d ab6c b43c 90bb f93d 6760 c43d
00000290: ab3f d63c 1e5b 7e3d ca89 f43c 3df8 383d
000002a0: 66c3 9fbd 6c3b e8bd a447 2fbd 737f cfbd
000002b0: 5a90 e73d 4b57 2a3d a34b a2bd 06de 92bd
000002c0: 7c0d cebc 41e9 d1bd 93f4 23be 5c10 e3bd
000002d0: 1746 b23e 762f 323e 8760 afbd c7fc 5d3e
000002e0: e716 ad3d 58e8 1abe b7b1 1bbe 3dfc 72be
000002f0: a392 1ebe 67c0 7dbf 5bb7 07bf 798e c4be
00000300: 2693 3fbf c8b9 16bf ba77 c8be 8269 3abf
00000310: ef07 2ebf 6c0d 1abf d1fc 3fbf 83ff 05bf
00000320: e22c 76be 1126 acbe f0a0 afbe 2139 df3a
00000330: fe1a e7be bb57 b9be 325d dbbd e951 a23e
00000340: 36ce 323e 4740 cfbd edd3 363e 7cbd b03d
00000350: 0dbe 7abd f81f 03be 554d 68be dfb6 d1be
00000360: f29f 493e fb66 44bd b8e3 97be d21d 30be
00000370: 53a1 81bc 5551 283d 94fd cabe 0a83 01be
00000380: 63a6 debd 8f3a 953e 9dfd 993d d5c1 cebd
00000390: c9c0 1dbd 84b1 88be 5174 8cbe b353 abbe
000003a0: 14a0 2fbf aa4c 10bf 54da af3d cd7c 89bd
000003b0: ba01 a1be 941d 9a3d f523 28bd 31c4 a3bc
000003c0: 601b e8bd b355 0fbe 3cf3 0abe d06b 7f3d
000003d0: 0748 b6bd d9bf 0dbe 4041 353d 9485 01bb
000003e0: 9b3c 50bd 3aed 84be 74a2 78be 9405 17be
000003f0: 440c 8abe f922 ffbc 1bf1 063d fe0e 06be
0.4443498 0.25693735 0.049288083 0.27977377 0.13168053 -0.027238296 -0.020907972 -0.18004346
-0.30091336 -0.36485282 -0.14560421 0.08720288 -0.13522284 0.009440211 0.1919737 -0.038767543
-0.05936657 0.073839106 0.38357162 0.100260116 -0.087989554 0.2673427 0.049529128 -0.12644322
-0.079747416 -0.27133486 -0.30740717 -0.22568949 0.057248075 0.21854629 -0.066099346 0.032097846
0.19288412 -0.092597656 0.020785334 0.20558323 -0.18087265 0.035310663 0.2403465 0.055785682
0.19246683 0.29037848 0.009527072 0.16830614 0.3097196 -0.73880035 -0.15393972 0.078898065
-0.51379585 -0.2666557 -0.036756754 -0.66293174 -0.31782383 -0.3380273 0.10649627 -0.009650492
-0.0032376456 0.033208776 0.037777293 -0.017025596 -0.051858198 -0.034402627 0.034361575 0.74919945
0.4904803 0.062519066 0.565354 0.43615487 0.27054632 0.08480575 -0.1510064 -0.020468071
-0.896905 -0.39210185 -0.056268483 -0.7455201 -0.46152154 -0.14003238 -0.7860958 -0.44486335
-0.22170596 0.23248042 -0.2443582 -0.6270169 -0.12769964 -0.4653822 -0.52263075 -0.55582166
-0.40327504 -0.42364308 -0.14235751 -0.32061836 -0.4159009 -0.22273579 -0.36466438 -0.28931096
-0.52085215 -0.2803854 -0.24427205 0.4294417 0.16040677 -0.2542804 0.2891992 -0.13589483
-0.24277164 0.006614827 -0.21747507 -0.26402056 0.17512299 0.08581473 0.0027665778 0.23275366
0.15432139 0.10038234 0.09039788 0.021141445 -0.027872663 0.060864262 -0.27951476 -0.47931677
-0.07776106 -0.18859212 -0.22256586 -0.3495352 -0.30867726 -0.3181861 0.095305435 0.19945416
0.16965675 0.12116305 0.194811 0.19347617 0.15433022 0.069089584 0.032580353 0.03744674
0.12621468 -0.035237715 0.29397672 0.32713673 0.06816928 0.024102459 0.057133656 0.08711547
0.16428894 0.112816244 0.0856154 0.23477091 0.2512405 0.28422004 0.12869878 0.09935342
0.08058682 0.10088094 -0.003999684 0.023964765 -0.16382328 -0.17794277 -0.09444112 -0.058539886
0.08595977 0.022024473 0.12193978 0.095887 0.026153406 0.062098615 0.02985086 0.045158613
-0.07800941 -0.11339459 -0.04279293 -0.10131731 0.1130683 0.041587155 -0.07924583 -0.07171254
-0.025152914 -0.10249568 -0.16011266 -0.11087105 0.348191 0.17400917 -0.08563333 0.21678458
0.08451634 -0.15127695 -0.15204512 -0.23729034 -0.15485625 -0.9912171 -0.53014153 -0.38389948
-0.74833906 -0.5887723 -0.39153844 -0.7281724 -0.67980856 -0.6017673 -0.7499514 -0.52343005
-0.24040559 -0.33622792 -0.34302473 0.0017030576 -0.4513778 -0.36199746 -0.10711135 0.31703117
0.17461476 -0.10119682 0.17854281 0.08629891 -0.061216403 -0.12805164 -0.2268575 -0.40959832
0.1968992 -0.047949772 -0.29665923 -0.17198876 -0.015823996 0.04109319 -0.3964659 -0.12647644
-0.108715795 0.2914624 0.07519076 -0.10095564 -0.038513932 -0.26697934 -0.27432492 -0.33462295
-0.68603635 -0.5636698 0.08586565 -0.06713257 -0.3144663 0.07525173 -0.041049916 -0.019991012
-0.11333346 -0.13997535 -0.13569349 0.062358677 -0.08900457 -0.13842715 0.04425168 -0.0019763457
-0.050839048 -0.2596224 -0.24280721 -0.14748222 -0.26962483 -0.031144606 0.03294478 -0.13091657

1.conv.bias f4 [64]
00000000: aa57 35bd 76c0 603d 4922 3e3d 82d2 8f3c
00000010: e730 c9bc fd7c 34bc 1ebf 89bb 59ae c03d
00000020: f86b 19bd f9a5 2b3d fb4c d03c 9315 21bd
00000030: db20 ccbb 9aa9 093d e49c a9bc eb44 523d
00000040: c51a 583d 0bac a3bb 1b3e 273d a9b2 a6bc
00000050: 0dc3 103d b59d 883d 1920 383c b012 863d
00000060: a18c 3abc b685 bdbc 50a7 cbbb fdb4 673a
00000070: 963b 22bc ad31 003d 5a34 4e3d 11bc 683c
00000080: da44 89be a509 6abc 4abd 07bd d2a0 a8bc
00000090: b527 cfbc 33ba 08bc e770 51bc 83a0 1cbd
000000a0: 170e 7d3d 46e6 5bbc 134e d8bc 8008 973d
000000b0: 12da 573d ff3f cf3c 9523 203b beb0 ec3a
000000c0: 07a6 73bc 4c1d c3bb 11ad bcbc 95fa 46bd
000000d0: 200d a0bc 6fb2 813d f2f9 f13b 42c6 623b
000000e0: 71c5 c0ba 81ad 643d 663b e5bc a7a0 693d
000000f0: fd24 39bc cabf 063d bb3b b4bb e2a9 313d
-0.044273056 0.054871045 0.046419416 0.017556433 -0.024559451 -0.011016128 -0.004203691 0.09408254
-0.037456483 0.04190633 0.025427332 -0.039327215 -0.0062295026 0.03360901 -0.020704694 0.051335257
0.052759904 -0.0049948744 0.040830713 -0.020348864 0.035342265 0.06670705 0.011238121 0.06546533
-0.011386068 -0.023135047 -0.0062150136 0.000883892 -0.009901902 0.031297375 0.050342895 0.014204995
-0.26810342 -0.014284526 -0.033139504 -0.020584498 -0.025287488 -0.008345175 -0.012783266 -0.038239013
0.061781015 -0.013421601 -0.026404416 0.07374668 0.052698202 0.02529907 0.002443527 0.0018058044
-0.014871127 -0.00595442 -0.023031743 -0.048578817 -0.019537508 0.06332862 0.007384532 0.0034603034
-0.001470728 0.05582953 -0.027982425 0.057037976 -0.011300323 0.032897748 -0.0055002845 0.043374904

1.bn.weight f4 [64]
00000000: b8e5 723f 038b 8b3f 6b73 2d3f 34a0 4b3f
00000010: cdc1 6c3f 3b11 693f 04e1 2a3f a0b3 b63f
00000020: ab2f 5a3f dba4 763f 1268 803f 21c0 383f
00000030: 778e 893f 276e 913f bfaf 883f 127f 653f
00000040: 6788 7d3f cedc 813f 1712 383f c21f 553f
00000050: be25 593f f93e 3d3f 0c3f 663f 012a 393f
00000060: f233 963f e1e9 2b3f 9429 833f 3980 533f
00000070: f45e 4a3f 0942 473f 16e1 533f 1443 543f
00000080: 6c93 d13f eb6e 6d3f 64da 793f be5a 153f
00000090: 9da8 973f 4da6 823f 3a0b 6a3f b4ec 4b3f
000000a0: b199 983f a838 593f 5d26 583f 92cd 573f
000000b0: 6b52 5d3f 9c54 613f acc8 703f 09dd 853f
000000c0: 9291 333f d6b3 4f3f 2788 2e3f 1514 063f
000000d0: d01b 1c3f b4cf b13f d6bd 663f cf91 243f
000000e0: ac21 6c3f f471 8a3f 5c1f 573f b968 b23f
000000f0: abad 653f 30c1 723f d260 4b3f 69a3 3e3f
0.94881773 1.0901798 0.6775424 0.79541326 0.92483217 0.91041917 0.66749597 1.4273567
0.85228986 0.963453 1.003176 0.72168165 1.0746602 1.1361741 1.0678633 0.8964702
0.9903626 1.0145509 0.719026 0.83251584 0.84823215 0.73924214 0.8993995 0.7232972
1.1734602 0.67153746 1.0247064 0.8261753 0.79051137 0.77835137 0.8276533 0.82914853
1.6373115 0.9274737 0.9759886 0.58341587 1.1848332 1.0207001 0.9142338 0.79658055
1.1921903 0.84852076 0.8443354 0.8429805 0.86453885 0.8801973 0.940562 1.045808
0.70144 0.8113378 0.681765 0.5237439 0.6097994 1.3891511 0.90133417 0.64284986
0.9223888 1.0816026 0.84032226 1.3938209 0.8971812 0.9482603 0.7944461 0.74468094

1.bn.bias f4 [64]
00000000: 777a 71be 2b10 0dbf 1915 10bf 9057 00bf
00000010: fb3d 0bbf 99e2 14be e735 e9be 951b 58bf
00000020: 070d ddbe 854f 04bf 6e7e 13bf 9900 1cbf
00000030: c706 d2be 437a b7be 1201 033f 20b0 39bf
00000040: 0139 36bf f68d c2be 247c 01bf 725e 38bf
00000050: 4c3b fbbe bf83 17bf 5067 15bf 75d4 a1bd
00000060: f18c c7bc d28d 14bf b3a5 893c 4534 0bbf
00000070: ab2e 30bf d7a7 febe f520 babe 8245 28bf
00000080: 4375 95bf a6da 10bf c99a 09bf 8c95 60be
00000090: 9003 04bf 0857 37bf 7d83 0abf 2c5e bebe
000000a0: 1d1f 13bf b5a4 52bd 592a e3be 87bd 0cbf
000000b0: 3980 04bf 7539 f6be 17fd c8be 2f2b 48bf
000000c0: c49b 65bf 3bc1 4fbf e026 a3be ad3b 8dbe
000000d0: bae3 85bf cf01 73bd 4667 48bf ff03 42bf
000000e0: 7528 cabe 9a99 b3be eaac 0bbf 7988 14bf
000000f0: 6cb6 e3be c0c2 04bf 235c 0bbf bac3 82be
-0.23581873 -0.55102795 -0.5628219 -0.5013361 -0.5439145 -0.14539565 -0.45548937 -0.84417087
-0.43174002 -0.5168384 -0.5761479 -0.6093841 -0.41020796 -0.35835466 0.5117351 -0.7253437
-0.7118073 -0.37998933 -0.5058005 -0.7201911 -0.49068677 -0.59185404 -0.5836077 -0.07901851
-0.024359198 -0.580289 0.016802644 -0.5437663 -0.6882121 -0.49737427 -0.3635327 -0.6573106
-1.167641 -0.5658363 -0.5375181 -0.21932048 -0.51567936 -0.71617174 -0.54106885 -0.37181222
-0.5746935 -0.051426608 -0.44368246 -0.54976696 -0.5175815 -0.4809071 -0.39255592 -0.7819089
-0.89690804 -0.8115422 -0.31865597 -0.27584592 -1.0460122 -0.059327897 -0.7828258 -0.7578735
-0.3948399 -0.35078126 -0.5456072 -0.5802074 -0.44475114 -0.51859665 -0.54437464 -0.25539953

1.bn.running_mean f4 [64]
00000000: 869a 0ac1 a4ed 0ec1 901f 59c0 2ce1 7ac1
00000010: f7b7 bdc0 efae 5dc0 1e51 1340 a8d8 9dc0
00000020: e3ec 31c1 e87f 84c1 43a8 19c0 ec95 abc0
00000030: 83ff 13c0 9dd3 c2c0 6883 f8c0 4c4f 87c0
00000040: 7a66 37c1 9e7f 57c1 1284 80c1 74a0 5dbf
00000050: 97db 8cc0 b7b5 f4c0 c041 39c0 6e24 23c1
00000060: eeeb 8dc0 8c43 d940 2edc ccc1 461a 1ec1
00000070: 2e03 9ac0 5b31 2ec0 f06e 7ac1 2f2c 00c1
00000080: b17d 4dc1 9d25 12c2 ce1c 02c1 3432 4740
00000090: 05ba 34c1 5033 d8c0 585e 33c1 ffd9 15c2
000000a0: adbb 1fc0 0047 e3c0 48ae 26c1 bec0 d0c0
000000b0: a0d1 6ec1 2ae0 44c1 2add b6c0 40bc e3c0
000000c0: e0de 3340 e1a3 9cc0 125b 34c1 2df0 9c40
000000d0: 5dce 0641 e3ce 25c1 6561 93c0 df7c 5840
000000e0: 1787 efc0 a1d6 3ac0 a891 e4c0 10bb 7fc1
000000f0: 2061 07c1 6265 87c0 2ad2 8bc1 26db 86c1
-8.662725 -8.933018 -3.3925514 -15.679974 -5.9287066 -3.463802 2.301826 -4.9326973
-11.120334 -16.562454 -2.4008949 -5.362051 -2.3124702 -6.0883317 -7.766041 -4.22843
-11.462519 -13.468657 -16.064487 -0.8657296 -4.4018054 -7.647182 -2.894638 -10.196394
-4.43505 6.7894955 -25.60751 -9.881414 -4.812888 -2.7217624 -15.652084 -8.010787
-12.843186 -36.53673 -8.132032 3.1124392 -11.295415 -6.7562637 -11.210533 -37.462887
-2.4958298 -7.102417 -10.417549 -6.523528 -14.926178 -12.304728 -5.7144976 -7.1167297
2.8104782 -4.8950047 -11.272234 4.9043183 8.425382 -10.363009 -4.605639 3.3826215
-7.4852405 -2.91935 -7.1427803 -15.98317 -8.461212 -4.231126 -17.47762 -16.857006

1.bn.running_var f4 [64]
00000000: 9be6 d642 3f9c fa41 c41f 4542 c5c3 4d43
00000010: 0ccb 5f42 b07b 2543 e556 c842 0890 fd41
00000020: 4af9 e142 4c0f ff42 5983 7c42 1e94 f042
00000030: 0c2b c941 a33f d242 a067 6442 3513 4642
00000040: 6544 af42 114d e442 db19 2743 fda2 9242
00000050: 9a0b ae42 d62d 8c42 e97b 4942 22e7 af42
00000060: 9f98 2a42 c762 a742 5c95 9943 bc68 8842
00000070: f2db c642 3963 4f42 4731 da42 40c8 c042
00000080: 8e30 2642 1cd4 9243 bd2c 8542 1b83 2c42
00000090: e0d1 cb42 0036 ad42 7829 ba42 45c0 c643
000000a0: 2d4d a741 36a5 1f43 3e7f 5542 6052 2242
000000b0: 4bc8 2c43 3c42 e042 dc22 8a42 e5b3 3742
000000c0: a561 c142 db1e 3942 84da 1143 e8a4 8842
000000d0: 6a74 af42 519b ab42 8ccf 4c42 4198 6d42
000000e0: d54b 2043 40bf e641 0655 b042 07f3 3b43
000000f0: 331c 1243 8b5c 1c42 e1f9 d242 560d 5b43
107.4504 31.326292 49.28102 205.76472 55.948288 165.48315 100.169716 31.695328
112.98689 127.52988 63.12827 120.28929 25.146019 105.12429 57.101196 49.518757
87.63358 114.15052 167.101 73.31834 87.02266 70.08952 50.371006 87.95143
42.649044 83.692924 307.16687 68.20456 99.42958 51.846897 109.096245 96.39111
41.547417 293.6571 66.58738 43.128033 101.90991 86.60547 93.08099 397.5021
20.912683 159.64536 53.37426 40.580444 172.7824 112.129364 69.068085 45.92568
96.69071 46.280132 145.85358 68.32208 87.72737 85.80335 51.202682 59.398685
160.29622 28.843384 88.16606 187.94933 146.11015 39.090374 105.488045 219.0521

2.conv.weight f4 [64, 64, 3, 3]
00000000: 0a22 c7bd b6cc 633d 0b7e 003e 03d5 9a3d
00000010: 850b 223e 98b1 8c3d b532 a03e 6eb2 ab3e
00000020: c338 853e ae4d 2bbd 211b 4d3e 20b9 123e
00000030: e2e9 90bd 5f14 f03d 5c6c 62bd 3807 87be
00000040: d9d3 2fbe 0845 9fbe b8ed af3e d4ba c93e
00000050: 71c9 b73e 01c3 bc3e 5390 9c3e 6850 9d3e
00000060: 8300 cb3d dfb5 0f3e 3356 923e e80f ffbd
00000070: 1555 10be b4c7 34be 05c8 5dbd 2e19 4fbc
00000080: 916c f3bb b1c9 9ebe edb0 c3be 6e33 cebe
00000090: cad3 363e 25ce 593d dd44 cf3d 1647 833d
000000a0: fdc6 063c 1d18 7f3d 925d aebc d73c d13c
000000b0: fdbd 6ebd 7fde 80bd 07c0 b23b 1371 b43d
000000c0: b8f4 403d 92f9 fe3b 03c0 cb3d 6c12 b13d
000000d0: e8bb 873d 53f9 6d3d ae8b 7e3d 2b6f 4f3e
000000e0: e73f 2ebb cb77 fd3b cd52 493e bedc a13d
000000f0: c0f3 2ebd e332 923d 03f2 013d 12d1 42bd
00000100: 9f92 143e 81d4 b6bd 36de 2fbc cf18 f1bd
00000110: 6196 8bbc 14e6 8d3b 0010 6a3c 8af0 0dbd
00000120: 9995 29be 5d18 653b 3dfb 0e3d ba3b 263d
00000130: 946c 903a 0231 8b3d d41b 9d3e 65dd 683e
00000140: fb07 343e 9079 c0bd 119a a63d 5482 b6bc
00000150: 4d68 7fbe d538 e5bd 81a7 80be f840 4bbe
00000160: 21b0 d1bd 6cfd d6bc d9f2 92bd 3d48 a2bd
00000170: 80a0 5cbc 98ea fcbd 2e64 fcbd 56bd adbd
00000180: bc83 e93d f550 c43c 821d c43c 3bd8 6c3d
00000190: 396a fc3d 7156 0c3e a9e4 c23c 80e8 293e
000001a0: a8fb dc3d 5955 593d c6c9 ab3d 8965 ec3d
000001b0: ad57 e9bd cdfa 913d 8cdf 203d 53eb 793c
000001c0: 56bc e93d ae46 0fbd 5d68 22be a662 b93c
000001d0: f4e1 81bc 91c5 12be 19c3 30bb 87ec 443c
000001e0: 3851 adbd b5b6 72bd e854 56bd bb5d cfbd
000001f0: e67c 183d c3b8 7f3c c624 dbbc b8ab 84bc
00000200: 1267 4f3b 4e4c 893a 6fbb c93d f17b e83d
00000210: fc31 873d 2d1c 103e 29f2 443e b10c 36be
00000220: e851 ddbb 52f0 30be 656d 04be 1c90 4ebe
00000230: cbb0 62be af65 6ebe 6cf9 31be 117b 3ebe
00000240: 5cd2 eb3d 8488 023d 25c9 a53c 7c71 503e
00000250: 7ebc ac3d ce29 303e cab3 9e3c 0cfa 103a
00000260: 39ee 01be 1479 a63d 9696 673e 9f99 093e
00000270: 4c86 68bc 295c 523e af5d 413e 0ff8 94bd
00000280: ceb3 f13d 343e ad3d 077c 133e 4615 dc3d
00000290: a6bc c13d 27dd b83e 2763 783e bafb 893e
000002a0: 8457 0dbe a1eb c53c 95c5 c9bd 44b0 53bd
000002b0: 6175 693c 1fc1 053e c622 6f3c 7ac2 5b3d
000002c0: bf0e a33d 0f59 0f3e b868 51bd 92a6 813d
000002d0: ca53 e1bd b5a8 e53c 2637 93bd 5fd6 97bb
000002e0: 6b80 4abb 39a6 6cbe 8491 6dbd 4284 8bbd
000002f0: c91a 27be 998a d8be ebc7 d6be cab1 12bf
00000300: fcba 01bf 5b73 adbe de59 04bf 5190 3dbf
00000310: 7b77 ebbe f249 4dbf 72c4 ee3c 965f 4d3e
00000320: 72a4 2a3e b560 e83c 90d3 853d af92 e33c
00000330: ab4a 72bd a1d3 233d 3e8c ba3d 989f 2d3d
00000340: 02c0 14be 6ea6 f7bc 2f0d 95bb a507 903c
00000350: 9595 a9bd a40c 18be 2472 2bbe e4ed 82be
00000360: 26d0 ab3d 07a7 213e 69cc bbbc f581 0fbd
00000370: 5ac8 b03d be37 9dbc 3df0 05bc 54e2 da3d
00000380: 8dcb 6abc 4849 6bbe 37bc dcbd 237d 81be
00000390: 7ea9 11be ff10 1abe a004 83be 5170 f4bd
000003a0: 6ac7 f1bd a3ba 99bd d0ed 6abe fbca dabd
000003b0: 60a1 9fbd b5f8 50be 4594 8dbd 3176 0dbe
000003c0: e6c1 edbe 9577 40be d797 8abe 5591 66bd
000003d0: 8309 47bd 18f8 1cbe ac7f ebbd b3bc cf3d
000003e0: 7163 b7bd 6e3a cebd 539f 18be 841a ecbd
000003f0: 00d8 2b3d b7a7 813a 81f7 41bc b85b 8fb8
-0.09723289 0.05561515 0.12548082 0.0756016 0.15824707 0.06869811 0.31288686 0.3353457
0.26019868 -0.041822128 0.2002988 0.14328432 -0.070758596 0.117226355 -0.05527912 -0.26372695
-0.17170657 -0.31107354 0.34361053 0.3940035 0.35895875 0.36867526 0.3057886 0.30725408
0.09912207 0.14034222 0.2858139 -0.12454206 -0.14094956 -0.17654306 -0.05414583 -0.012640281
-0.0074287136 -0.31013253 -0.3822092 -0.40273613 0.17854229 0.05317511 0.101205565 0.06410043
0.008226153 0.062278856 -0.021284852 0.025541706 -0.058286656 -0.06292438 0.0054550203 0.0881063
0.047108382 0.007781216 0.09948733 0.08646092 0.06627637 0.058099102 0.062144928 0.20257251
-0.0026588382 0.0077352277 0.19660492 0.07903431 -0.042712927 0.07138612 0.03172494 -0.047562666
0.14509057 -0.08927251 -0.010734132 -0.1177231 -0.01703948 0.004330406 0.014286041 -0.034653224
-0.16560973 0.0034957149 0.03490757 0.040584303 0.0011018687 0.06796457 0.30685294 0.22740705
0.1758117 -0.09398186 0.081348546 -0.022278942 -0.24942131 -0.111924805 -0.25127795 -0.19849002
-0.10238672 -0.026243888 -0.07175226 -0.079239346 -0.013466001 -0.12349433 -0.12323795 -0.084833786
0.114020795 0.023964385 0.023939852 0.0578234 0.12324948 0.1370485 0.023790674 0.16592598
0.10790187 0.05305991 0.083880946 0.11542804 -0.11393676 0.071279146 0.03927569 0.01525386
0.11412875 -0.034979515 -0.15860124 0.022630047 -0.015854813 -0.14333178 -0.0026971756 0.012019283
-0.08462757 -0.059256274 -0.052327067 -0.101252995 0.037228487 0.0156080155 -0.026750933 -0.016195163
0.0031647128 0.0010475011 0.09850203 0.11351765 0.06601331 0.14073248 0.19233002 -0.17778279
-0.0067541488 -0.17279175 -0.12932356 -0.20172161 -0.22137754 -0.23280977 -0.17380303 -0.18601634
0.11514732 0.031868473 0.020237515 0.20355791 0.084343895 0.17203447 0.01937284 0.0005530424
-0.12688531 0.081285626 0.22616038 0.13437508 -0.014192175 0.20542969 0.18883394 -0.07273876
0.11801873 0.0845913 0.14402781 0.10746245 0.0945981 0.36106226 0.24256574 0.26949865
-0.13802916 0.024160208 -0.09852139 -0.051681772 0.014249177 0.13061951 0.014595693 0.053652264
0.07961797 0.13998817 -0.05112526 0.06330599 -0.110023096 0.028034547 -0.07188253 -0.0046337093
-0.0030899297 -0.23110284 -0.058000103 -0.068123356 -0.16318811 -0.42293242 -0.419494 -0.57302535
-0.5067594 -0.33877072 -0.51699626 -0.74048334 -0.45989594 -0.80190957 0.029146407 0.20055994
0.16664293 0.028366426 0.06534493 0.027779905 -0.05915324 0.039996747 0.0910878 0.04238853
-0.1452637 -0.030230727 -0.0045486907 0.01758177 -0.08280484 -0.14848572 -0.1674276 -0.2557212
0.083893105 0.15786372 -0.022924619 -0.035036046 0.08631964 -0.019191619 -0.008174953 0.106877
-0.014330757 -0.22977173 -0.10778087 -0.25290784 -0.14224812 -0.15045546 -0.25589466 -0.11935485
-0.11805613 -0.07506301 -0.22942281 -0.10683247 -0.07794452 -0.20407374 -0.06913046 -0.13814618
-0.46436995 -0.18795617 -0.2706897 -0.056290943 -0.048593055 -0.15329015 -0.11498961 0.101434134
-0.08954514 -0.10069738 -0.14904527 -0.11528495 0.04195404 0.0009891902 -0.011838795 -6.835855e-05

2.conv.bias f4 [64]
00000000: 6565 debc 3781 903c 6da8 8f3d 5efd a93c
00000010: 6673 db3c 6db4 b5bc 3869 44bc 3a74 373c
00000020: 3297 b9bc 9331 e63d 38ec 353d 4f4b d8bb
00000030: c259 ad3d 51ad 3b3d 2129 0ebd 1e8e e9bb
00000040: 6fea 013c e09a ab3d bb2c 803d 13d1 073c
00000050: 85d4 7ebd f00d 4b3c be03 59bb ec42 bd3d
00000060: aa84 753c a471 ce3d 873d 023d 21be 043d
00000070: c79f 273d d21c 853d 1af8 5e3d 726e 123c
00000080: 3f65 e8bc 282f 4e3d d4c4 453c 1489 4f3d
00000090: 9d23 133d 177d 443d 9297 333c 7a60 a03a
000000a0: b69a c2bb 76fe 513d b352 c13d 1c44 4e3c
000000b0: a35e 2e3d 8da2 403d 8785 9a3d db3a f73d
000000c0: f105 593d 33c1 583d 6773 4a3d 8af2 e53c
000000d0: 6240 a13d 5d82 d5bc aba5 f93d 1522 4a3d
000000e0: 2823 013e 7fa6 003c 4df0 eebc 1be1 923d
000000f0: f355 463b a4e4 3b3d 814c 2e3d 2f8d 0e3d
-0.027147958 0.01763974 0.070145465 0.020750698 0.026788425 -0.02218076 -0.011987977 0.011197144
-0.022655103 0.11239924 0.04441473 -0.0066007744 0.084643856 0.045819584 -0.034707192 -0.0071275374
0.0079294285 0.083791494 0.06258532 0.008289593 -0.062214393 0.01239346 -0.0033113803 0.0924128
0.014985243 0.10080269 0.03179696 0.032407884 0.04092386 0.06499638 0.054435827 0.008937465
-0.02836859 0.05033794 0.012070853 0.050667837 0.035922635 0.047970857 0.01096143 0.0012235784
-0.005938853 0.051268063 0.09439602 0.012589481 0.04257072 0.04703002 0.075449996 0.12071773
0.05298418 0.052918624 0.049426463 0.028069753 0.07873608 -0.026063139 0.12189802 0.04934891
0.12611067 0.007852196 -0.029167319 0.07171842 0.0030263632 0.045872346 0.04255343 0.034802612

2.bn.weight f4 [64]
00000000: 8156 7f3f 2286 433e 957d 953f bc13 5c3f
00000010: e3d0 543f cb5a 653f 09d3 3e3f ffb0 803f
00000020: c1f5 353f 3709 393f d35a 833f 11a3 873f
00000030: e772 903f d4d2 603f d70b 713f 4ca6 3f3f
00000040: 26a2 513f 2905 353f dd65 213f ab09 6e3f
00000050: 7c1e 743f 65d1 1b3f acc7 953f 68f0 853f
00000060: b1a4 6e3f ab09 5d3f 3d94 643f 8f02 6f3f
00000070: 9c49 573f bd06 813f ac4b ca3e e893 883f
00000080: caef 8f3f 4078 073f 0946 473f ce3a 783f
00000090: c867 093f 560d 503f eead 703f 7915 453f
000000a0: 496b 943f 930b 003f 7b4a 5b3f ce65 743f
000000b0: 04de 6a3f c37d 7d3f b963 583f 8743 4a3f
000000c0: 2b1e 433f 40f0 393f 62bc 703f 9d6f 443f
000000d0: 59f1 5e3f b49c 853f 24d0 573f 896d 883f
000000e0: 0616 753f eaa7 a73f 7f40 683f 33e4 613f
000000f0: 9e48 2c3f 104b 163f aaab 4d3f 818b 6c3f
0.9974137 0.19094136 1.167895 0.8596761 0.83131236 0.89591664 0.74540764 1.0054015
0.71078116 0.72279686 1.0262092 1.0596639 1.1285065 0.878217 0.9415869 0.74863124
0.81888044 0.70711 0.63046056 0.929835 0.95359015 0.60866386 1.170156 1.0463991
0.9322005 0.8634288 0.89288694 0.9336328 0.84096694 1.0080181 0.39510858 1.0670137
1.1245053 0.5291786 0.7784124 0.9696473 0.5367398 0.8127035 0.94015396 0.7698589
1.1595241 0.5001766 0.85660523 0.9546784 0.9174502 0.9902002 0.84527165 0.7900929
0.7621791 0.7263222 0.9403745 0.7673281 0.8708702 1.0438447 0.8430197 1.0658427
0.9573673 1.3098118 0.90723413 0.8823883 0.67298305 0.58708286 0.80340064 0.92400366

2.bn.bias f4 [64]
00000000: 8281 86bf 1d10 3b3f 32c4 bfbe 7c07 b0be
00000010: b8db ffbe 6c75 43bf 207e 6dbe b210 45bf
00000020: 5d34 abbe d08f 98be 584b 76bf d630 5dbf
00000030: 1efe 1dbf 249e 1bbf f1a8 25bf 7041 e3be
00000040: 7695 c6be 9339 05bf cf07 d1be 2314 9cbe
00000050: e27c 4cbf 4317 cebb 8631 82bf c998 eabe
00000060: 13ae 02bf 825d 3bbf cb6b 4ebf e6f6 50bf
00000070: a9fe 03bf 3cd3 4ebf bcc4 86bd 569b 46bf
00000080: b4f9 9bbf c36e 06bf 8454 06bf c9b9 f0be
00000090: 4d2d 95be 51db a4be 5281 57bf 5c53 b5be
000000a0: 2150 65bf 0fc0 40be 6d59 33bf 6ad0 0abf
000000b0: 8284 febe 654b 30bf 184c b6be 64ae f8be
000000c0: dd4a 18bf c01a e9be db73 3bbf 5a08 e2be
000000d0: 50d2 00bf 85fa 4cbf 2448 ecbe 588f 75bf
000000e0: 48df e4be 0b0b 2bbf 3d8b 3dbf 0e02 04bf
000000f0: 1597 e7be 1ce1 cebe 0d45 8dbe b834 14bf
-1.0508273 0.7307146 -0.37454373 -0.3438071 -0.4997232 -0.76351047 -0.23192644 -0.769786
-0.33438388 -0.2979722 -0.96208715 -0.8640264 -0.6171588 -0.6078818 -0.6471091 -0.44385862
-0.38785905 -0.52040976 -0.4082627 -0.30484113 -0.79878056 -0.006289394 -1.0171363 -0.4581969
-0.51046866 -0.73189557 -0.8063323 -0.8162674 -0.51560456 -0.8079107 -0.06580493 -0.77580774
-1.2185578 -0.5251276 -0.5247271 -0.47016743 -0.29136124 -0.32198575 -0.841817 -0.3541516
-0.8957539 -0.18823265 -0.7005833 -0.54224265 -0.4971047 -0.6886504 -0.3560493 -0.4857055
-0.5948923 -0.4552822 -0.73223656 -0.44146997 -0.5032091 -0.8006976 -0.4614879 -0.9592185
-0.447016 -0.66813725 -0.74040586 -0.51565635 -0.45232454 -0.4040612 -0.27591744 -0.5789294

2.bn.running_mean f4 [64]
00000000: 7038 c9bf f805 5f3f 8392 13c1 4e0f c3c0
00000010: 2769 23c0 890c 48c1 33c7 9dc0 9ff6 58bf
00000020: e26f 9fc0 bf8f a5c0 72bb 21c0 a152 03bf
00000030: fa43 81c0 4d92 ecc0 6c78 c2c0 094a a53f
00000040: c9f0 eac0 4f61 17c1 42ae d5c0 b956 ed3d
00000050: e4c9 a53d c9c2 cdc0 008a c8c0 ea0b ebbf
00000060: 9184 6dc0 24d3 3dc0 9537 35bf fed2 cdbf
00000070: 3577 a8c0 b0b7 c3c0 e43b 9cc0 5f46 8ebf
00000080: 62ab 4bbf e2cf 9740 9681 1540 1b63 87c0
00000090: da0e 69c0 6597 acbc 6a39 86c0 56f8 5dc0
000000a0: 1af0 7ebf 965b 21c0 1ac1 12c0 204c 26c1
000000b0: c5e5 74c0 9631 5f40 a39f d8c0 29fc 91c0
000000c0: aac3 b9bf 0d7f bac0 9fff 72c0 733d 30c0
000000d0: 9f10 04c0 f9dc b9bf e025 bbbf dd06 2040
000000e0: 58c7 10c0 94ec adc0 6692 f3c0 c247 cdc0
000000f0: 343d cfc0 7d2f eebf 551f e0c0 2d38 83c0
-1.5720348 0.8711848 -9.223269 -6.0956182 -2.553293 -12.50306 -4.9305663 -0.84751314
-4.9824076 -5.173797 -2.5270658 -0.51297957 -4.039548 -7.392859 -6.0772 1.2913219
-7.3418927 -9.461257 -6.6775217 0.11588807 0.08095148 -6.4300275 -6.2668457 -1.8363011
-3.7112162 -2.966012 -0.70787936 -1.6080015 -5.2645516 -6.116173 -4.882311 -1.1115226
-0.79558384 4.7441263 2.3360343 -4.230848 -3.6415315 -0.021068284 -4.1945086 -3.4682822
-0.99585116 -2.521215 -2.293036 -10.393585 -3.826524 3.4874015 -6.769487 -4.5620313
-1.4512837 -5.828009 -3.7968519 -2.7537506 -2.0635145 -1.452056 -1.4620934 2.500419
-2.262167 -5.435129 -7.611621 -6.4150095 -6.476221 -1.8608242 -7.0038247 -4.1006074

2.bn.running_var f4 [64]
00000000: 07a0 3d41 d15f 8141 4fb3 0942 2593 e041
00000010: 60e8 ab41 e97a 0842 87a2 bc41 6e49 8441
00000020: fa63 da41 a544 9d41 812b 6341 03be a141
00000030: bf98 9041 2ac6 f041 f665 e741 7621 a941
00000040: 6edc ce41 7633 b541 2f39 b141 5bf8 a041
00000050: 2a64 9f41 3ce8 9e41 a0c1 d841 954a 8e41
00000060: 9d64 c241 722a 6441 cc14 4841 a752 6141
00000070: de0f 9241 0d19 b441 b87b a441 3b23 a341
00000080: 7d39 8a41 a5c7 ef41 0dca bd41 7baf d641
00000090: a1f3 b541 1214 0a42 86bb 8741 5773 b941
000000a0: 9a9e 4f41 851e 8c41 7ecd 2141 9332 1342
000000b0: 8611 9641 e65a a041 560b 3342 be8c 8741
000000c0: b7a2 7d41 5035 9e41 4be7 ba41 feb8 bd41
000000d0: 4acf 6341 bb60 9741 f349 a341 e271 e141
000000e0: e90d b441 6e5e c641 1a2a 0d42 899a cc41
000000f0: f81d 9f41 2fd9 b541 8b3b d541 fdcc a841
11.851569 16.171785 34.425106 28.071848 21.488464 34.12003 23.57936 16.535854
27.298817 19.658518 14.198121 20.21778 18.074583 30.09676 28.924786 21.141338
25.857632 22.650127 22.152922 20.121267 19.923908 19.863396 27.094543 17.786417
24.299128 14.260363 12.505077 14.082679 18.257748 22.512232 20.56041 20.392202
17.27807 29.972483 23.723658 26.835684 22.74396 34.5196 16.966564 23.181318
12.976221 17.514902 10.112669 36.79939 18.758556 20.044384 44.76107 16.943722
15.852225 19.776031 23.362936 23.715328 14.238108 18.922232 20.411108 28.180607
22.506792 24.796108 35.291115 25.575457 19.889633 22.731047 26.654074 21.100092

3.conv.weight f4 [64, 64, 3, 3]
00000000: 1b48 c1bd 15c6 6fbc 5c79 36bd d268 3d3b
00000010: 876d e03c d354 a83b c8a4 5dbe 9e57 55bd
00000020: f454 b6bd ff04 813d bd68 eb3c 3ca6 76bb
00000030: e8ba 013c b871 89bd 09f4 ca3c f89d 11bc
00000040: 48ee 933c c050 413c 6880 403c 965e 763c
00000050: 3f83 67bb 74dd 6cbb 702a c33c 4bd7 e5bc
00000060: f9cd 0e3c c119 f23c 2e4b a1bb b78c 103d
00000070: 077c 4e3d 433e 8f3c e519 313c 1c54 0ebd
00000080: 519b a93c 34f8 0fbd 6a10 6c3c ac10 6d3c
00000090: 443d 803d dc43 273c f8e6 c3bb 37b0 9ebc
000000a0: f191 e8bc ffa9 3c3c f516 ebbd 6a37 38bd
000000b0: 2438 113d 8c41 a5bd 9f41 f7bc f8a4 dabb
000000c0: 2aaf 8ebc ff56 fcbc 2cc1 28bc 1d8c 93be
000000d0: f4aa c1bd 4438 b7bd 7333 b6bd 3241 f1bc
000000e0: a00d 14bc 0b8c 2bbb a4b0 593d 88d9 253c
000000f0: dedb 163d 7b0c 223d 66f0 113d 277f 233d
00000100: ea72 94bd e8a2 97bd c8f3 0abd a37c 01bd
00000110: 1828 52bd 46e0 1cbe 0229 5abc 36eb a1bc
00000120: e250 81bd 8e8a 3ebd 22dd 1a3c 4140 13bd
00000130: 87d5 14bd c851 4d3a 97d8 2fbe 8cfa 76ba
00000140: 9390 eab9 f3c9 033c 143f a6bc 486c 5b3d
00000150: b094 a3bc 8e3b 8abc 6ca2 9c3a 12d2 1bbc
00000160: 452d 183d 7367 82bc 849c 2abd c080 f53c
00000170: caf3 3c39 4ce5 b43c a323 f8bc e4eb cbbb
00000180: 2524 7bbe 4d19 a2bc 8d79 82bd d575 86bd
00000190: d813 cf3c bb81 b6bc 1738 44bb 2997 cebc
000001a0: b36f cebc 103b 39be ee45 8bbd 8834 b3bd
000001b0: 67d9 043d d806 a7bc 8d2a f03b a08c a33c
000001c0: fdf2 653c 0ca8 c6bc fa29 acbd 6094 283c
000001d0: ed51 81bd dab3 aa3d 6868 383d e5a1 16bd
000001e0: 1dbc cebb 9b9f f6bc 18f4 393d 0051 8ebd
000001f0: 9610 263d ebca ccba ff07 2d3c a2ef a83c
00000200: 329c 1dbb fe06 fd3c 77bb a53a 0923 66bd
00000210: d621 31be 1fea a9bd 1b09 eabd c596 303c
00000220: 6a72 b2bd f4fc eebc 3f4e a8bc 6266 94bc
00000230: fcb7 eb3c d5e9 09be 7968 b7bd c0a8 9abd
00000240: 774b 893c 9f75 713d 98b8 9d3c bfc1 b3bc
00000250: 7141 d93c 600b 843d d435 09be 17e4 663b
00000260: 9572 aa3c 3f40 b1bc baf6 0c3c 9652 473d
00000270: 1b63 9f3c e00c 933c 32d5 d9bc fc3a 3cbe
00000280: de60 edbc e963 2cbd f923 63bd 718a 533d
00000290: 96fd df3c 0274 34bd 4962 233c e715 dabc
000002a0: a300 01be d11f e4bc 99ae f7bd db11 dfbc
000002b0: a78d 173d b69e 1abd 0ded 74bd c52a 203d
000002c0: 5107 7a3b 5bfd 07be aace 04bd 0fbc adbc
000002d0: 4ecd 7cbc 4851 9abb 60e5 f5bb 3ca5 2bbd
000002e0: ca95 65bd e736 5bbc 299d 9dbe 76fc f3bd
000002f0: fd82 edbd debe 943d 130e 853c 6d05 b5ba
00000300: 95d6 0c3c 54ae ef3c f6fd 7839 bee2 2abd
00000310: 360e 963d ec84 2a3d f18d e9bc 2333 00bd
00000320: a696 06bd 2e08 5c3d ebd1 56bd 5974 14bd
00000330: 683a 82be 3af5 cfbd 94f4 c1bd 38de 923d
00000340: a7d3 3bbd 40de 13bd 3629 b93d 046c 72bd
00000350: 9862 18bd 7295 5d3d 38cd 0ebd d05d 053c
00000360: 5918 143d fb28 403d 9b0b 3f3d 0820 793d
00000370: be78 b1bb 98e2 37bc eea1 5abd 806f 34bd
00000380: 5db3 ad3c 4215 80bd d49d a7bd 9dd1 41bd
00000390: 4b0a a53d e53d 69bd e20b 92bc fbfb 75be
000003a0: 242f 6dbd fbba 7cbd 70b3 9cbc bc5d 7dbd
000003b0: 02ca 94bc 5ff4 b0ba 5323 d4bc 7601 983c
000003c0: 443f a1be b1a7 17be b53c d3bd 4d79 05bd
000003d0: d0c7 ebbc 4392 1cbc 4196 0c3d ffd0 19bd
000003e0: b6b1 5abb 517e 8abe 73f5 c1ba 6532 84bd
000003f0: c392 ac3b 685d 433c addc bdbc 379a 99bd
-0.09437581 -0.014634629 -0.04454933 0.002890159 0.027395977 0.005137065 -0.2164489 -0.05208551
-0.08902922 0.06299781 0.028736467 -0.0037635705 0.007918097 -0.06711143 0.024774568 -0.00888776
0.018057957 0.011799037 0.011749364 0.0150371995 -0.0035326032 -0.0036142739 0.023823947 -0.028056761
0.0087161 0.029553296 -0.004922292 0.035290446 0.05041125 0.017485743 0.010809396 -0.03474818
0.020703943 -0.035148814 0.01440821 0.014469307 0.062616855 0.01020905 -0.0059784614 -0.019371135
-0.028389903 0.01151514 -0.11478988 -0.044974722 0.03545393 -0.08069143 -0.030182658 -0.006672498
-0.01741751 -0.030803202 -0.010299962 -0.28817835 -0.09456435 -0.08946279 -0.08896532 -0.029450033
-0.009036452 -0.0026176001 0.053146973 0.010122664 0.036830775 0.039562684 0.035629652 0.039916184
-0.072484806 -0.07404119 -0.033923894 -0.031613003 -0.051307768 -0.15319929 -0.013315441 -0.019765478
-0.06314255 -0.046518855 0.009452136 -0.03594995 -0.036336448 0.0007832316 -0.17172466 -0.00094214897
-0.00044739674 0.008043754 -0.02029375 0.053570062 -0.01996836 -0.016874101 0.0011950261 -0.009510534
0.037152547 -0.015918469 -0.04165317 0.02996862 0.00018019896 0.022081994 -0.03029043 -0.0062231887
-0.24525507 -0.019787455 -0.0637084 -0.065654434 0.025278017 -0.022278657 -0.0029940659 -0.025218563
-0.025199747 -0.18088937 -0.068004474 -0.08750254 0.032433894 -0.020389006 0.007329291 0.019964516
0.014034984 -0.024250053 -0.08406444 0.010289282 -0.06314454 0.08335085 0.045021445 -0.03677549
-0.006309046 -0.030105403 0.0453988 -0.06949043 0.04054316 -0.0015624439 0.010560988 0.020622078
-0.0024049398 0.030887123 0.001264437 -0.056185756 -0.17298064 -0.08296608 -0.11427518 0.010778134
-0.08713229 -0.029173352 -0.020545123 -0.018115226 0.028774254 -0.13468106 -0.089554735 -0.07551718
0.016759617 0.058950063 0.01925306 -0.021942971 0.026520463 0.06447482 -0.1339944 0.0035231167
0.02080659 -0.02163708 0.008603746 0.048662744 0.019456437 0.017950475 -0.026590917 -0.18381876
-0.028976854 -0.04208747 -0.055454228 0.0516457 0.027342599 -0.044055946 0.0099721635 -0.026621772
-0.12597899 -0.027847202 -0.12093849 -0.027230194 0.037000325 -0.037749015 -0.05979638 0.03910329
0.0038151334 -0.13280241 -0.032423653 -0.021207837 -0.015429808 -0.0047093965 -0.0075041503 -0.041905627
-0.056051053 -0.013379789 -0.30783966 -0.119133875 -0.1159725 0.072629675 0.016242063 -0.0013810821
0.008596082 0.02925793 0.00023745731 -0.041720144 0.07326929 0.04163067 -0.028510066 -0.031298768
-0.032858513 0.05371874 -0.052446287 -0.03624377 -0.25435185 -0.10154195 -0.09470478 0.07171291
-0.045856144 -0.036100626 0.090410635 -0.059185043 -0.0372034 0.0540976 -0.03486368 0.008140042
0.036156032 0.046914082 0.046641927 0.060821563 -0.005416005 -0.011223458 -0.053377084 -0.044051647
0.021203691 -0.062540546 -0.081844 -0.047319043 0.08058604 -0.056943793 -0.017827932 -0.24021904
-0.057906285 -0.061701756 -0.019128531 -0.06185697 -0.018162731 -0.0013500563 -0.02589575 0.018555384
-0.3149358 -0.14810063 -0.10314313 -0.032586385 -0.028781801 -0.009556356 0.03432298 -0.03755283
-0.0033370084 -0.27049497 -0.0014797881 -0.064549245 0.005266519 0.011924125 -0.023176515 -0.07500117

3.conv.bias f4 [64]
00000000: 6167 1a3e 5f5f 233e 7e72 df3d 46fe 193d
00000010: a6ff d8bb 7132 d23d 2353 0f3e 0aaf d23d
00000020: 3a9d ed3d d039 b03d 6f9a 063e 0d98 033e
00000030: 6142 e33d 5526 403e 9fe2 083f 402f 353e
00000040: f83e 563f b551 e83d b74e de3d d0e1 3c3e
00000050: 5b8b 703f d376 0a3e 2ce3 da3d 3f3b df3d
00000060: fbff 2e3e ba8a 0c3f 7574 363e 7bd8 dc3d
00000070: 6d76 083e fccb 86bd 7ace b53d c0da 163e
00000080: bfa1 4c3e d25d ea3d 09a3 cd3d aff8 623e
00000090: b3ed de3d b8be 083e 527e ef3d dff9 373e
000000a0: b4e1 943e 657c 33be 2cf6 133e b6ec 113e
000000b0: 079d 2f3e 78eb 1e3e 2989 c13d 7a64 183e
000000c0: 262c 013e 0d17 6f3d c1e2 c93d 33eb ce3d
000000d0: 8920 0d3e 4790 0d3e a5a1 db3d 463f be3d
000000e0: 0478 cf3d 7217 8dbe 9c1e 853d 530e 163e
000000f0: c70b 5e3e 26cc 2f3e 5466 303e fa8f 263e
0.15078498 0.1595435 0.109105095 0.03759601 -0.0066222725 0.10263527 0.13996558 0.10287292
0.11602254 0.08604777 0.13144849 0.12850972 0.11096645 0.18764623 0.53470796 0.17693806
0.8368983 0.113437094 0.108548574 0.18445516 0.9396264 0.1352189 0.10687861 0.10899972
0.17089836 0.5489918 0.17817862 0.10783478 0.13326426 -0.06581876 0.08877273 0.14731884
0.19983576 0.11443676 0.10040862 0.22165178 0.10885181 0.13354003 0.116940156 0.17966412
0.29078448 -0.17527921 0.14449376 0.14250454 0.17149745 0.15519512 0.09449989 0.14882079
0.12614498 0.058371592 0.09857703 0.101034544 0.13781942 0.13824569 0.107241906 0.09289412
0.10130313 -0.2755695 0.06499979 0.14653902 0.2168418 0.1716772 0.17226535 0.1626586
