result/FOMAML_CUB_Conv4_5w1s_mask-layer-snip-fomaml-small_(0.98,1.0)_resize_[84, 64, 48]/best_model.pth (torch, 496651 bytes, 26 tensors)

encoder.0.conv.weight f4 [64, 3, 3, 3]
000000 fa 50 2b be f3 89 b1 bd f3 e1 05 be 97 da 2f bd
       -0.16730109 -0.0866889 -0.13074474 -0.042933073
000010 bb be f3 bd fe c3 8e bd 35 cf 15 bb eb ed b7 3c
       -0.11901613 -0.06970976 -0.00228591 0.022452315
000020 e6 b0 71 bc 9c a8 a1 3e 92 0b ad 3e 7a b7 10 3e
       -0.0147516485 0.3157395 0.3379789 0.14132491
000030 7c 0a ca 3e 79 1c de 3e 34 44 c0 3e c1 3e c2 3e
       0.39461124 0.43381098 0.37552035 0.37938502
000040 40 25 c2 3e 14 b9 c1 3e 16 aa c3 bd aa 23 88 be
       0.37919044 0.37836516 -0.09553926 -0.2658971
000050 3f 77 c6 3c aa 58 b3 be 34 0b b5 be 99 f7 9a be
       0.024226783 -0.35028583 -0.3536011 -0.30267027
000060 e2 bf b9 be 89 19 d3 be a5 f2 bd be 1d 31 18 3e
       -0.36279207 -0.4123042 -0.37099186 0.14862485
000070 e2 5f 0e be 65 86 99 be 4a 51 a4 3e 19 6d 9b 3e
       -0.13903764 -0.29985347 0.3209327 0.30356672
000080 7d 7d 60 3e 8b 2b a8 3e 90 80 c1 3d c0 13 2f be
       0.2192287 0.3284572 0.094483495 -0.17097378
000090 0b aa 57 be b1 d8 df bd 03 09 d8 3d c1 70 80 be
       -0.2106096 -0.109300025 0.10548594 -0.25086024
0000a0 87 12 48 be 23 1c d2 3d b6 16 4c be c1 58 b1 be
       -0.19538318 0.10259273 -0.19930539 -0.34638026
0000b0 4a de 4b bd 8b 58 f7 be 75 8c 0d bf 53 c1 f9 be
       -0.04977254 -0.4830974 -0.55292445 -0.48780307
0000c0 a7 f0 c8 3e fe 06 c8 3e 91 b2 84 bd 8c f7 c4 3e
       0.39246103 0.39067835 -0.06479371 0.38470113
0000d0 d8 03 a4 3e c7 76 ad 3e 71 fe 5b 3d 6e ac 27 3e
       0.32034183 0.33879682 0.05370945 0.1637437
0000e0 32 7e 2d be f9 08 6e 3e 4c fa c7 3e d8 3a 44 3e
       -0.16942671 0.2324561 0.3905815 0.19163072
0000f0 e5 6c 9d 3e 61 d6 d9 3e 8f 4a 23 bd a5 78 0d 3c
       0.30747142 0.4254637 -0.039866026 0.008634721
000100 9d dc a6 3e d1 f8 5a 3e 58 84 20 3e 09 2d b1 3e
       0.3259019 0.21383978 0.15675485 0.34604672
000110 c9 8a ba bb b7 78 59 bd 24 d6 b4 3d 3f 1e e6 bd
       -0.005692814 -0.05309364 0.088299066 -0.11236238
000120 e8 dd bf be 4c 4f f3 be e1 69 06 bf 9e 94 d0 be
       -0.3747399 -0.47521436 -0.5250531 -0.40738386
000130 8f 9d bf be 8f 2b a7 be 38 12 f5 bd a6 75 64 bd
       -0.37424895 -0.3265042 -0.119663656 -0.05577626
000140 30 21 10 3c 89 c8 d8 3e 3e 9b be 3e 70 7f e0 3c
       0.008796975 0.42340496 0.37227815 0.027404517
000150 4f 82 cc 3e 6e 4b 38 3e 7a 17 d5 be 1c 82 eb 3d
       0.39943168 0.17997524 -0.41619474 0.11499426
000160 72 e8 e5 bc 3c ed 53 bd 61 87 be be ae c2 ba be
       -0.02806494 -0.051739916 -0.3721266 -0.36476654
000170 67 95 56 bd 35 32 dc be bf 89 ca be 40 22 e2 be
       -0.052388575 -0.43007055 -0.39558217 -0.44166756
000180 b4 ff 74 bd 3f 4c 9b be ee 95 ee 3e d6 f6 5d 3c
       -0.05981417 -0.3033161 0.46598762 0.01354762
000190 a4 69 41 3e 82 6a bc 3e 7b 9c 58 be 1e 35 82 3e
       0.18887955 0.3680001 -0.21153443 0.2543115
0001a0 ca e0 2a be 2b ac 05 3d e4 b7 b8 3d 93 24 b7 3e
       -0.16687313 0.032634895 0.09019449 0.3577009
0001b0 c2 1d b2 3e f3 92 e8 3d 60 65 45 bc 43 8e cb 3e
       0.34788328 0.11356153 -0.012048095 0.39756975
0001c0 df 6b d4 3e 14 47 38 3e e3 2c 04 bd 98 cc c6 bd
       0.4148855 0.17995864 -0.03226937 -0.09706992
0001d0 85 93 ee bd 51 f1 be be e4 7f 86 be 9d d5 b9 be
       -0.11649231 -0.37293485 -0.26269448 -0.36295786
0001e0 80 4a c1 be 93 71 cb be f7 eb b7 be cb 77 89 be
       -0.3775215 -0.39735088 -0.35922214 -0.26849207
0001f0 dc 0b b8 be 5a 40 b0 be 19 33 92 3e f4 7f 6d 3e
       -0.35946548 -0.34424096 0.2855461 0.23193341
000200 c7 f9 bc 3e bf fe a1 3e 54 17 73 3e b8 80 86 3e
       0.36909315 0.31639668 0.23739368 0.2627008
000210 a7 fc 3d 3c 57 a6 49 3e dc 9f db 3d 59 5c b0 3d
       0.011595882 0.1969236 0.1072385 0.08611364
000220 ff a3 40 3d c6 cc 75 bd 89 57 e5 3e 33 6c e2 be
       0.0470314 -0.06000974 0.44793347 -0.44223174
000230 a6 89 1a 3e 26 33 eb 3e bf e3 ea be f8 1c 03 be
       0.15091571 0.4593746 -0.4587688 -0.1280402
000240 99 2e bc 3c c4 a3 a3 3c 54 38 f8 bd d7 91 39 3e
       0.022971438 0.01997555 -0.12120119 0.1812204
000250 d8 fe e4 be b0 a6 13 3e 74 74 00 3f f6 7d f5 be
       -0.4472568 0.14419055 0.50177693 -0.47947663
000260 e6 16 54 3e 4d 29 8a be c2 a7 79 3d 03 f3 ef 3d
       0.2071186 -0.26984635 0.060951002 0.11716273
000270 8f 08 c8 bc bb a8 9e be 36 ec bf 3e 9d e0 6d 3e
       -0.024418144 -0.30988106 0.37484902 0.23230214
000280 36 57 cc be 36 47 49 3e 0e bf dc bb 08 4d dc be
       -0.39910287 0.19656071 -0.0067366427 -0.4302752
000290 8b 00 60 3e 4d 6a 64 3e 9a 8d c2 3e df 08 c9 bc
       0.21875207 0.22306176 0.37998658 -0.024540363
0002a0 ed 0f 60 be 18 cb b1 3e b7 18 1e 3e b8 3b 24 3e
       -0.21881075 0.3472526 0.15439115 0.16038406
0002b0 3e cc e8 be 69 be 05 3f 0a 00 bf bd 93 ee 7f be
       -0.45468324 0.5224367 -0.09326179 -0.24993353
0002c0 ba a0 db be 28 f7 90 be 9f 73 1e 3b e4 3a 9b be
       -0.42896062 -0.28313565 0.0024177802 -0.30318367
0002d0 e2 50 21 3e 99 20 d6 be f1 90 9d 3e 07 45 58 3e
       0.1575351 -0.41821745 0.30774644 0.21120082
0002e0 58 58 99 3e cf d7 d0 be 16 f8 ad bd 8c f5 b9 3e
       0.29950213 -0.4078965 -0.08494584 0.3632015
0002f0 05 84 07 bd 00 d0 bd 3e 22 ea 99 3e cb 13 9d 3d
       -0.033084888 0.37072754 0.30061442 0.07669791
000300 a6 54 b6 3e 8a 54 8c be ec 12 be be 95 bb 1c 3e
       0.35611457 -0.27408248 -0.3712381 0.15305932
000310 ff 77 96 be e7 d1 b0 be 8c 64 e7 3d 8a ae 34 3e
       -0.29388425 -0.34535143 0.11298475 0.17644706
000320 7f 82 a4 3e 5e b1 a2 3d 8e 61 a7 3d 5b 9d cf bd
       0.3213081 0.07943986 0.08172904 -0.10137435
000330 9e d9 9e be fa 80 4d be 88 1a d2 bd b2 ef e4 be
       -0.31025404 -0.20068732 -0.10258967 -0.44714123
000340 c8 6d e6 be ad ff c1 be d0 2b cb be 3a fd 47 3e
       -0.4500563 -0.37890378 -0.39681864 0.19530192
000350 28 a9 e7 3e 6e 67 2d 3e 86 c1 df 3e 6b a4 cc 3e
       0.45246243 0.16933987 0.43702334 0.3996919
000360 c3 df 9f 3e ff dc 23 be 98 09 15 be 86 f2 b2 3e
       0.31225404 -0.16002272 -0.14554441 0.34950656
000370 88 e1 e3 3d ce 97 b2 be 37 dc 71 3e 1f 9a c2 3d
       0.11127001 -0.34881443 0.23619162 0.095020525
000380 8d ff 9c be 44 81 ad 3e bd 43 9d be 66 56 9d be
       -0.3066372 0.33887684 -0.30715743 -0.3072998
000390 d3 18 cf 3e 75 b5 b9 bd df 92 cb be cf 7a b7 3e
       0.40448627 -0.09067813 -0.3976049 0.35835883
0003a0 7b 69 99 3e ce 93 b3 be 5e fe af 3e 53 ef 30 bd
       0.29963288 -0.35073704 0.34373754 -0.043196987
0003b0 52 cb 9a be 5d 6d cd 3e 76 ee 08 bd 19 1f c9 be
       -0.30233246 0.401225 -0.03343054 -0.39281538
0003c0 fc f3 99 3e 4c 99 54 bd f0 19 b2 be 0e 5f cb 3e
       0.30068958 -0.051904008 -0.34785414 0.39720958
0003d0 d9 de 33 bc 02 43 d1 be a8 3f 8d be 1a 72 09 be
       -0.010978424 -0.40871435 -0.27587628 -0.13422433
0003e0 02 55 c6 3e 94 26 41 be e7 e0 10 3e 61 18 1b 3e
       0.3873673 -0.18862373 0.14148293 0.15146019
0003f0 92 51 fd 3e b4 90 b6 be 1f 76 f2 be a6 d2 da be
       0.49476296 -0.35657275 -0.47355744 -0.42738837

encoder.0.conv.bias f4 [64]
000000 3e 85 4c 3d 39 57 8f 3e 3a 25 c8 3d 3f e7 d0 be
       0.049931757 0.27996233 0.097727254 -0.40801427
000010 fa 01 41 3e 1e 38 c3 be 88 f2 19 be 59 57 b2 3c
       0.1884841 -0.38128752 -0.15033925 0.021770166
000020 99 8a a6 3d ab 6c 81 bd 72 54 a6 be 5f 98 94 be
       0.08131904 -0.06319555 -0.32486302 -0.290225
000030 69 39 c3 3e b7 ef 3a 3e 10 a3 1c bc e6 4c 2e bd
       0.38129738 0.18255506 -0.0095603615 -0.042553805
000040 dd f8 1d 3e 59 43 e1 bd 39 42 40 3e 3e cd af 3c
       0.15426965 -0.10999174 0.18775262 0.021460172
000050 94 86 b9 3d a9 18 1f 3d 88 5c d1 3e 37 b9 d4 3c
       0.09058872 0.038841877 0.40890908 0.025967224
000060 02 cd 12 bf ac 2c f3 3c 00 95 98 bd 64 8b ae 3d
       -0.5734407 0.029684387 -0.074502945 0.085226804
000070 5c cf 5e 3d 55 cb 10 3e 6c 67 0d be 6e 60 8b 3d
       0.054396972 0.14140065 -0.13808984 0.06805502
000080 77 f1 72 be 10 81 bc be 4a 9f 0f 3e f7 9b 64 bc
       -0.23724924 -0.36817217 0.14025608 -0.013953201
000090 7c 79 09 3e 4d cc 74 3e 4b 4c 97 3d 56 61 b5 be
       0.13425249 0.2390606 0.073875986 -0.35425824
0000a0 bb fe ac 3e 65 18 81 3e ff d9 86 3b ab ca 1e 3d
       0.33788094 0.25213924 0.0041153426 0.038767498
0000b0 fe 74 66 be c9 57 80 3e 26 46 81 bd 71 f8 45 3e
       -0.22505566 0.25066975 -0.06312208 0.19333054
0000c0 6c c5 3a bd 7e 2b 21 3e d5 a7 85 3a be a0 ae 3e
       -0.045598432 0.15739247 0.0010197113 0.34107012
0000d0 8e 93 b1 bd 5f 53 7f bd fb 36 56 3e b9 41 32 be
       -0.08670722 -0.06233537 0.20919411 -0.17407884
0000e0 32 f9 5b be ad 08 7b 3e 73 1f 90 be 36 b0 f2 3e
       -0.21481779 0.24515028 -0.28148994 0.47400063
0000f0 8a 0e 22 be f8 a8 e4 3d 41 f1 5e be 9b a8 72 3e
       -0.15825859 0.11165041 -0.21771719 0.2369713

encoder.0.bn.weight f4 [64]
000000 a9 ff 55 3f 2d 51 a5 3f 16 ec 4d 3f a9 d6 88 3f
       0.8359323 1.2915398 0.80438364 1.0690509
000010 e9 0a 95 3f f0 a3 24 3f 98 a4 50 3f af 71 65 3f
       1.1643955 0.6431265 0.8150115 0.8962659
000020 f4 99 6c 3f 8f 65 17 3f fd 10 55 3f 15 f4 6f 3f
       0.92422414 0.5913934 0.8322905 0.93731815
000030 09 83 13 3f 79 1e 31 3f 34 0e 77 3f cb 1f 73 3f
       0.5762182 0.6918712 0.9650605 0.9497039
000040 6e 13 81 3f 28 b3 53 3f 36 d5 a0 3f 68 91 5c 3f
       1.0084054 0.82695246 1.2565067 0.8615937
000050 81 a7 74 3f 88 7e 7f 3f a8 50 5c 3f 9e 43 49 3f
       0.9556809 0.99802446 0.8606057 0.786188
000060 bd 2d 4e 3f 8a aa 65 3f cc c7 6e 3f b9 a0 8b 3f
       0.8053854 0.89713347 0.93273616 1.0908424
000070 fe 2a 5d 3f ec cf 82 3f 91 97 ac 3f 14 4b 0e 3f
       0.86393726 1.0219703 1.3483754 0.5558331
000080 ff 82 59 3f 00 5e a8 3f e4 f0 80 3f 42 15 50 3f
       0.8496551 1.3153687 1.0073514 0.81282437
000090 3a 81 8b 3f f4 b9 83 3f 8e 82 90 3f f1 bd 5b 3f
       1.0898812 1.0291123 1.1289842 0.858367
0000a0 13 6c 2d 3f dc 66 0b 3f 35 29 7a 3f 19 e1 5e 3f
       0.67743033 0.54453826 0.97719127 0.8706222
0000b0 49 d7 3b 3f f8 12 a2 3f fb 1f 1e 3f 6e ac 24 3f
       0.73375374 1.2662039 0.6176755 0.64325607
0000c0 96 4d 54 3f 9a 80 4f 3f 0e 1c 5c 3f 10 e9 23 3f
       0.82930887 0.81055605 0.8598031 0.640275
0000d0 76 85 36 3f a0 12 92 3f d3 a4 68 3f 88 a6 4c 3f
       0.71297395 1.1411934 0.908765 0.79941607
0000e0 bf 7b 7a 3f 09 e8 a2 3f cb 2d 41 3f df 22 6d 3f
       0.9784507 1.2727062 0.754605 0.92631334
0000f0 79 82 52 3f da a9 51 3f e9 6d 81 3f 48 40 3f 3f
       0.82230335 0.818998 1.0111667 0.7470746

encoder.0.bn.bias f4 [64]
000000 f4 f5 0d 3f 90 7d dc bf 97 cd 50 bc 01 62 e6 bc
       0.5545342 -1.7225819 -0.012744329 -0.028122904
000010 88 e5 66 3e 87 43 1b 3e 39 73 4b be 4c 4b e7 bd
       0.22548497 0.15162478 -0.19868173 -0.112936586
000020 1b ee 96 3d 8e bc 49 bd 75 81 3b be 15 97 8c 3e
       0.07369634 -0.049252085 -0.18311103 0.27459016
000030 ad 9c 99 3f 36 60 44 3e af ad 16 bf 1c 73 70 3e
       1.2000939 0.19177327 -0.5885877 0.2348141
000040 fe d0 9a 3d 94 47 7e 3e 38 0b 32 bf af 79 4e be
       0.07559393 0.24831992 -0.6954837 -0.20163606
000050 60 0a c0 bc d9 93 b3 bd 87 91 49 3f 85 1b 13 bd
       -0.023442447 -0.08768434 0.7873768 -0.035914917
000060 9e 4f 34 be f1 a7 b6 3c 80 fe 0a be 24 60 84 bf
       -0.17608497 0.022296878 -0.13573647 -1.034184
000070 1d ed 26 3e 64 6c 90 3d 50 1f 9a be 34 f5 a8 3e
       0.16301389 0.07051924 -0.30102015 0.32999575
000080 16 91 30 3e 85 ee 86 be fd 8a 47 be 72 46 8d 3e
       0.17242846 -0.2635385 -0.19486614 0.27592808
000090 41 c5 44 bf e1 31 05 3f 39 63 33 bf 15 93 4c 3f
       -0.76863486 0.52029234 -0.70073277 0.7991193
0000a0 84 4a f0 bd 47 0e c7 bc cc d3 20 bd a5 55 0d be
       -0.11732963 -0.0242988 -0.039264485 -0.13802202
0000b0 cd da 2b 3f 9d 3f d3 bf de b9 95 3f 4c b5 67 3c
       0.6713074 -1.6503788 1.1697347 0.014142346
0000c0 f1 2f 2e be 81 a3 e5 bd 80 f4 77 bd 32 10 fe bb
       -0.17010476 -0.112128265 -0.060535908 -0.0077533955
0000d0 65 32 b4 3c 38 48 fb be e9 94 81 bb bd a3 57 3e
       0.021996686 -0.49078536 -0.003954519 0.21058555
0000e0 ff 54 38 3e 48 e6 40 bf 3b 6f 13 3b 49 3c 0e bf
       0.18001173 -0.7535138 0.0022496718 -0.5556074
0000f0 35 91 3d 3f e9 67 85 3e 6a 76 4c bb b7 9f 17 be
       0.74049693 0.2605584 -0.003119851 -0.1480702

encoder.0.bn.running_mean f4 [64]
000000 00 00 00 00 00 00 00 00 00 00 00 00 00 00 00 00
       0.0 0.0 0.0 0.0
000010 00 00 00 00 00 00 00 00 00 00 00 00 00 00 00 00
       0.0 0.0 0.0 0.0
000020 00 00 00 00 00 00 00 00 00 00 00 00 00 00 00 00
       0.0 0.0 0.0 0.0
000030 00 00 00 00 00 00 00 00 00 00 00 00 00 00 00 00
       0.0 0.0 0.0 0.0
000040 00 00 00 00 00 00 00 00 00 00 00 00 00 00 00 00
       0.0 0.0 0.0 0.0
000050 00 00 00 00 00 00 00 00 00 00 00 00 00 00 00 00
       0.0 0.0 0.0 0.0
000060 00 00 00 00 00 00 00 00 00 00 00 00 00 00 00 00
       0.0 0.0 0.0 0.0
000070 00 00 00 00 00 00 00 00 00 00 00 00 00 00 00 00
       0.0 0.0 0.0 0.0
000080 00 00 00 00 00 00 00 00 00 00 00 00 00 00 00 00
       0.0 0.0 0.0 0.0
000090 00 00 00 00 00 00 00 00 00 00 00 00 00 00 00 00
       0.0 0.0 0.0 0.0
0000a0 00 00 00 00 00 00 00 00 00 00 00 00 00 00 00 00
       0.0 0.0 0.0 0.0
0000b0 00 00 00 00 00 00 00 00 00 00 00 00 00 00 00 00
       0.0 0.0 0.0 0.0
0000c0 00 00 00 00 00 00 00 00 00 00 00 00 00 00 00 00
       0.0 0.0 0.0 0.0
0000d0 00 00 00 00 00 00 00 00 00 00 00 00 00 00 00 00
       0.0 0.0 0.0 0.0
0000e0 00 00 00 00 00 00 00 00 00 00 00 00 00 00 00 00
       0.0 0.0 0.0 0.0
0000f0 00 00 00 00 00 00 00 00 00 00 00 00 00 00 00 00
       0.0 0.0 0.0 0.0

encoder.0.bn.running_var f4 [64]
000000 00 00 80 3f 00 00 80 3f 00 00 80 3f 00 00 80 3f
       1.0 1.0 1.0 1.0
000010 00 00 80 3f 00 00 80 3f 00 00 80 3f 00 00 80 3f
       1.0 1.0 1.0 1.0
000020 00 00 80 3f 00 00 80 3f 00 00 80 3f 00 00 80 3f
       1.0 1.0 1.0 1.0
000030 00 00 80 3f 00 00 80 3f 00 00 80 3f 00 00 80 3f
       1.0 1.0 1.0 1.0
000040 00 00 80 3f 00 00 80 3f 00 00 80 3f 00 00 80 3f
       1.0 1.0 1.0 1.0
000050 00 00 80 3f 00 00 80 3f 00 00 80 3f 00 00 80 3f
       1.0 1.0 1.0 1.0
000060 00 00 80 3f 00 00 80 3f 00 00 80 3f 00 00 80 3f
       1.0 1.0 1.0 1.0
000070 00 00 80 3f 00 00 80 3f 00 00 80 3f 00 00 80 3f
       1.0 1.0 1.0 1.0
000080 00 00 80 3f 00 00 80 3f 00 00 80 3f 00 00 80 3f
       1.0 1.0 1.0 1.0
000090 00 00 80 3f 00 00 80 3f 00 00 80 3f 00 00 80 3f
       1.0 1.0 1.0 1.0
0000a0 00 00 80 3f 00 00 80 3f 00 00 80 3f 00 00 80 3f
       1.0 1.0 1.0 1.0
0000b0 00 00 80 3f 00 00 80 3f 00 00 80 3f 00 00 80 3f
       1.0 1.0 1.0 1.0
0000c0 00 00 80 3f 00 00 80 3f 00 00 80 3f 00 00 80 3f
       1.0 1.0 1.0 1.0
0000d0 00 00 80 3f 00 00 80 3f 00 00 80 3f 00 00 80 3f
       1.0 1.0 1.0 1.0
0000e0 00 00 80 3f 00 00 80 3f 00 00 80 3f 00 00 80 3f
       1.0 1.0 1.0 1.0
0000f0 00 00 80 3f 00 00 80 3f 00 00 80 3f 00 00 80 3f
       1.0 1.0 1.0 1.0

encoder.1.conv.weight f4 [64, 64, 3, 3]
000000 17 f9 93 be 0e a6 78 be cf fe 4b be 32 8e d1 be
       -0.28900978 -0.24282095 -0.1992142 -0.409288
000010 0a 7d 9b be be 9a 3d be b9 b1 ca be b3 67 43 be
       -0.30368835 -0.1851606 -0.39588717 -0.19082527
000020 de cb af bd b5 bd 0b 3e f4 26 18 3e b1 82 7f bc
       -0.085838065 0.13646586 0.1485861 -0.015595124
000030 b8 30 3e 3d 37 ba d3 3d e5 70 61 3e 4d 29 dd 3e
       0.04643318 0.10338252 0.22015722 0.43195572
000040 c2 64 05 3e 5c b5 1b 3d 9a ae a4 be 52 08 af be
       0.13026717 0.038014755 -0.3216446 -0.34186035
000050 60 fa 89 be 2d c3 d8 be 32 9c c1 be 12 c0 d2 be
       -0.26948833 -0.42336407 -0.3781448 -0.41162163
000060 c7 b2 dc be 3b b8 dc be 8e 68 05 bf c4 d5 60 bd
       -0.43105146 -0.43109307 -0.5211266 -0.054891363
000070 09 f3 8c bd 2c 23 10 3e 76 bb 05 3d 0d 4e 1d 3d
       -0.06882293 0.14075917 0.03264948 0.038404513
000080 28 d9 87 3e e9 53 a4 3e 73 91 6d 3e 9f 8e b3 bc
       0.26532865 0.32095268 0.23200016 -0.021918593
000090 67 52 11 3e a7 47 15 3e 19 e9 68 3e 27 5e bb 3e
       0.1419159 0.14578114 0.2274517 0.3659527
0000a0 4f c4 87 3e d9 9a b4 3d 75 03 02 3f f1 29 f3 3e
       0.2651696 0.08818597 0.50786525 0.47492936
0000b0 2a 3e 41 bc c8 69 08 be a3 8d 69 be 61 96 44 3e
       -0.011794606 -0.13321602 -0.22807936 0.1919799
0000c0 44 d1 8e be 0c 6c f2 be 67 5b 64 3d 14 e8 8a be
       -0.27894032 -0.47348058 0.05575123 -0.27130187
0000d0 48 6f 18 bf db 6e d4 be b0 5b 83 bd 1f e9 7b 3e
       -0.595448 -0.41490826 -0.064139724 0.24600647
0000e0 64 50 54 3e cd d6 c7 bd 00 cf 72 3d 57 23 c7 3d
       0.20733792 -0.09757767 0.05927944 0.097235374
0000f0 f9 1b 54 3e a9 4d 64 be 29 1a ff bd aa 48 bd 3e
       0.20713796 -0.2229525 -0.124561615 0.369695
000100 f7 e2 16 3e a1 38 a2 3e e2 e6 c8 be a4 11 17 be
       0.14735018 0.3168383 -0.3923865 -0.14752823
000110 64 91 78 3e 21 55 99 bc c0 dd 21 3d 80 8b 6f 3d
       0.24274212 -0.01871735 0.039518118 0.058482647
000120 33 0c 30 3e d7 39 47 bd e9 a9 42 3d 98 23 36 3e
       0.17192154 -0.048639145 0.04752532 0.17787015
000130 88 9d 8b 3d 97 1f 4f 3e 02 8f 87 3e db ab 82 3d
       0.06817156 0.20226894 0.26476294 0.06380435
000140 0c ab 8d bd 2c 28 56 be 66 e0 5e be 0b cd 9a be
       -0.0691739 -0.20913762 -0.21765289 -0.3023456
000150 5d 60 dd be 05 83 74 bd 7a fc a0 3e 85 81 3f bf
       -0.43237582 -0.059695262 0.31442624 -0.74807006
000160 ce 7a a3 be 1f c5 89 bc 60 7f d0 3e 91 9d de 3e
       -0.3192963 -0.016817627 0.4072218 0.4347959
000170 f6 1a 24 3e ef 0f f3 3d 1e d5 63 3e da 9e 9b 3e
       0.1602591 0.118682735 0.22249267 0.30394632
000180 0a e3 57 bd 53 30 ec bd 84 5b 90 3c 4e 97 be 3d
       -0.052706756 -0.115326546 0.017621763 0.09306203
000190 33 1a 77 bd 85 47 2d 3d 57 fb 54 3e e9 01 a4 3d
       -0.06032772 0.042304534 0.20799004 0.08008177
0001a0 b8 44 08 3e 70 6a de 3e 7a 0d 73 3e 92 ed 64 be
       0.13307464 0.4344058 0.2373561 -0.22356251
0001b0 cd 7a b2 3d 16 87 df bd 07 dd 0c bd e4 2a 8a be
       0.08714829 -0.109144375 -0.034390476 -0.26985848
0001c0 47 80 56 3d 66 81 ce 3e 23 9d c3 be 23 e7 7f bd
       0.05236843 0.40333098 -0.38205823 -0.06247629
0001d0 49 d6 ad 3d 14 e2 ae 3d bc 27 4f 3e 5b c2 a4 3e
       0.08488137 0.08539215 0.20230001 0.3217953
0001e0 c8 28 3b b9 28 c3 10 3e 91 3a ee 3c 28 30 d8 3d
       -0.00017848902 0.14136946 0.029080661 0.1055606
0001f0 e4 f6 20 bc 23 34 6c bd 76 36 cb 3d 7f f4 e5 3e
       -0.009824488 -0.05766691 0.09922497 0.44913098
000200 ac 38 09 3f 8c 2d a5 be e4 df c8 3c be 40 6d 3e
       0.536021 -0.32261312 0.024520822 0.23169228
000210 ae c7 fc be 2b 9c a4 be eb bc 3c be a7 22 a5 bd
       -0.49371094 -0.32150397 -0.18431441 -0.0806325
000220 92 b3 3a be 84 3e 66 be 09 22 53 be eb 19 b1 3d
       -0.18232563 -0.22484785 -0.20618452 0.086475216
000230 db e7 34 3e d3 b5 46 3c 17 25 95 3d 95 39 ab be
       0.17666571 0.012128311 0.07282465 -0.3344237
000240 fc 46 08 be 4e 26 8b be 78 ce 72 be ad d3 c6 be
       -0.13308328 -0.27177662 -0.23711574 -0.3883337
000250 bf c4 c4 be 12 3e 9b 3d 77 ab 0b be d2 6d e2 3d
       -0.38431355 0.07580198 -0.13639627 0.11056103
000260 9e 2f a6 3e 0b cf a5 be 37 e8 33 be b1 df a1 be
       0.32458204 -0.32384524 -0.17569052 -0.31615975
000270 1a 27 46 be b3 26 01 be 36 02 9f bd a9 42 a5 bd
       -0.19350854 -0.12612419 -0.077640936 -0.08069355
000280 fc f7 b7 bd 39 69 99 bd 74 38 31 3e ca 99 ee 3d
       -0.08982846 -0.07490773 0.17306691 0.11650427
000290 2b b1 dc 3d 28 25 9d 3b 22 ea 32 bd 50 5d e8 3d
       0.107759796 0.004795689 -0.043680318 0.11345923
0002a0 63 df 41 3e c7 95 28 3e d9 e2 81 3e b3 2a 50 3e
       0.18932872 0.16463386 0.25368384 0.20328788
0002b0 57 a0 f3 bb ff 6b a8 3c fc f7 8f 3b 9e 02 8b bd
       -0.0074348855 0.020559309 0.0043935757 -0.067876086
0002c0 17 bc 1c be 2c b4 91 be 60 9f 02 bf b6 55 d6 be
       -0.15306126 -0.28457773 -0.51024437 -0.41862267
0002d0 6e 40 1d 3e 28 84 7c 3d 10 85 81 3e b6 5f 21 3d
       0.15356609 0.06164947 0.2529683 0.039397918
0002e0 20 a4 f1 3d 60 68 91 3e 7a 3a 86 3d 91 1a 88 3d
       0.117988825 0.28399944 0.06554122 0.06645692
0002f0 07 8c b6 3e 08 8c 9b 3e 95 78 42 bb a2 92 e9 3d
       0.35653707 0.30380273 -0.0029673923 0.11404921
000300 f4 7a 88 3e c2 bc 32 3e 3a 13 b6 3e 6e 7c a3 3e
       0.26656306 0.17454818 0.35561544 0.3193087
000310 f5 66 4a 3e 86 87 9f 3d 51 cd ba 3c 0e 12 ad bd
       0.19765837 0.07789521 0.02280298 -0.08450709
000320 e7 7f cc be 10 34 1a bc a2 c9 0a be d7 26 08 be
       -0.39941332 -0.009411827 -0.1355348 -0.13296066
000330 21 fb de 3d ec d8 6a 3d ff a4 d9 bd 36 c8 27 3d
       0.10887743 0.05733578 -0.10627174 0.04096242
000340 b6 bd 19 3e be 59 93 3e 32 f0 9b be a8 14 15 bc
       0.15013775 0.28779405 -0.30456692 -0.009099163
000350 0f 5e 89 3e cf 9f 71 be 70 b9 9f bc 53 29 2f 3e
       0.26829574 -0.23596118 -0.019497603 0.17105608
000360 5d 4f b3 3d 81 b6 39 3e 4b 9a 9f bd 67 e7 9c bd
       0.08755372 0.18136026 -0.07793101 -0.07661324
000370 20 fe b7 bd af a8 3f 3e 4c f1 c0 be 36 c2 05 bf
       -0.08984017 0.18716691 -0.37684095 -0.5224947
000380 75 f3 ee 38 85 fb 7b 3e 99 3f 28 3d fb 7b e7 3d
       0.00011394072 0.24607666 0.041076276 0.11302944
000390 8e 02 04 be 17 b7 45 3b 8b 91 cb 3e 14 90 57 be
       -0.128916 0.0030168945 0.39759478 -0.21051055
0003a0 ed 53 2a 3d 8b 7b a0 3e 37 c4 da 3e a7 53 14 3f
       0.041583944 0.31344256 0.42727825 0.57940143
0003b0 32 53 da 3e 07 fa 94 3d 06 d7 76 3e ee 34 a7 3e
       0.42641598 0.072742514 0.24105462 0.3265757
0003c0 8c 16 43 bd e3 00 32 bd 3a 88 86 3d 31 98 03 bf
       -0.047628924 -0.043457877 0.06568952 -0.514041
0003d0 5b 39 f3 be e7 09 01 bf 1d 97 09 bf b0 e8 21 bf
       -0.47504696 -0.50405735 -0.53746206 -0.6324568
0003e0 b5 57 17 bf 82 78 f9 be 1e 94 09 bf 1d fd 0e bf
       -0.59118205 -0.48724753 -0.53741634 -0.5585497
0003f0 76 99 08 be e8 7b 30 bd 60 33 76 3d a1 ea 43 bd
       -0.1333979 -0.043086916 0.06010759 -0.04783118

encoder.1.conv.bias f4 [64]
000000 b7 f9 28 bd 21 04 2e 3d 2e 29 9d 3d 80 a6 14 3a
       -0.04125377 0.042484406 0.0767387 0.00056705624
000010 00 79 3c bd 04 9d e9 3c fa a3 74 3d 2e fd ee 3d
       -0.046013832 0.028517254 0.059726693 0.11669384
000020 78 ce 94 bd 15 78 b6 3d 34 5f 66 3d 4d 32 b9 bb
       -0.07265943 0.089096226 0.056243137 -0.0056517483
000030 58 2e 2d bb 72 e0 81 bd a2 ab 20 3c d0 ae 65 bd
       -0.0026425328 -0.06341638 0.009806545 -0.056074917
000040 71 b4 e6 3d 66 66 fd bb 26 28 7e 3d f9 8b 6f 3d
       0.11264885 -0.007733154 0.062050007 0.058483098
000050 12 65 7d 3d fb 6d fc 3d cd 1d 38 bd 3c 8d b2 3d
       0.061863966 0.123256646 -0.044950295 0.087183446
000060 83 25 31 bd 48 fc 2c 3d c3 f4 2c 3d f3 a4 b8 3c
       -0.043248665 0.04223278 0.04222561 0.022539591
000070 29 d1 7a 3c 9f d9 bb 3d a6 19 a3 3d 73 57 5c 3d
       0.015308657 0.09172367 0.079638764 0.053794336
000080 80 52 64 3c 65 2a d2 bd 00 f1 7c 3d 48 d2 3e 3d
       0.013935685 -0.10261992 0.061753273 0.04658726
000090 52 bc 4a bd 04 32 f7 3d 52 62 35 3c 25 5d 37 3d
       -0.049496002 0.120700866 0.011070805 0.044766564
0000a0 43 7d c8 3d 9c 4c 41 bd af 2e a3 3d fd 7c 8d 3d
       0.09789517 -0.0471922 0.079678886 0.06908605
0000b0 a3 e6 97 3c 87 e7 d9 3d a1 72 c2 bb 5f 8b 6c 3c
       0.018542593 0.106398635 -0.005934075 0.0144375255
0000c0 6e b7 d8 bc ec cc dd ba f8 78 66 3c 31 88 b6 3c
       -0.026454654 -0.0016922033 0.014066927 0.022281738
0000d0 25 39 8f 3b 7c 21 1f 3e 3a ff 9c bd 8a 56 94 3d
       0.004370826 0.15540117 -0.07665868 0.072430685
0000e0 20 75 48 3d c6 8a 90 bd 77 f4 dc bb e2 2d e2 3d
       0.048939824 -0.07057719 -0.0067430097 0.11043908
0000f0 96 85 92 bd 04 6a c9 3d 9f 2a 6d bd 93 2b e0 ba
       -0.07154386 0.09834674 -0.057901975 -0.001710283

encoder.1.bn.weight f4 [64]
000000 48 3f 2c 3f 32 22 89 3f d9 e0 6a 3f 78 e9 5f 3f
       0.6728406 1.071356 0.9174934 0.8746562
000010 91 37 43 3f b2 23 85 3f 52 00 6d 3f f4 3b 8d 3f
       0.7625666 1.0401518 0.92578614 1.1033921
000020 d5 32 94 3f ae 8d 47 3f 2d b8 4c 3f 42 e4 3b 3f
       1.1578013 0.7795056 0.7996853 0.7339517
000030 04 ea 7f 3f 43 fa 7d 3f 6b c8 92 3f 29 72 94 3f
       0.99966455 0.99209994 1.1467413 1.1597339
000040 92 60 59 3f 86 f9 41 3f 07 d3 52 3f 4d 68 5c 3f
       0.8491298 0.7577137 0.8235325 0.8609665
000050 3e fb 42 3f d5 31 46 3f 1e af 74 3f 01 c4 79 3f
       0.76164615 0.7741979 0.9557971 0.97564703
000060 53 ca 76 3f f8 5c 8e 3f cd eb 94 3f 11 b8 81 3f
       0.9640247 1.1122122 1.1634461 1.0134298
000070 32 54 8b 3f 8e 2a 2d 3f c4 66 6c 3f 1e 59 1c 3f
       1.0885069 0.6764306 0.9234431 0.6107348
000080 fa 42 69 3f 44 fe 5b 3f 52 dd 9a 3f 30 b9 9e 3f
       0.91117823 0.85934854 1.2098792 1.2400265
000090 04 dc 85 3f c5 01 79 3f 95 12 56 3f 6b 6a 8f 3f
       1.0457768 0.97268325 0.83622104 1.1204351
0000a0 76 5e 6e 3f b0 95 75 3f c5 e0 6c 3f b6 38 8c 3f
       0.93112886 0.9593153 0.9253047 1.0954807
0000b0 1d 97 75 3f e5 9e 2a 3f f7 e4 64 3f 7f ec 80 3f
       0.95933706 0.66648704 0.8941187 1.0072173
0000c0 5e 01 5a 3f 1d c4 6f 3f 62 96 58 3f c4 b7 13 3f
       0.85158336 0.9365862 0.84604466 0.5770228
0000d0 7f 2a 4f 3f 2a f7 5a 3f 5f 9b 5e 3f 70 c2 25 3f
       0.8092422 0.8553339 0.8695583 0.64749813
0000e0 ad a3 52 3f 57 62 4a 3f 68 b8 90 3f 62 65 4d 3f
       0.82281 0.79056305 1.1306276 0.8023282
0000f0 de c8 2a 3f df 1c 82 3f d6 ac 60 3f db c1 87 3f
       0.6671275 1.0165061 0.87763727 1.0606035

encoder.1.bn.bias f4 [64]
000000 20 2b 83 bf d4 4d fa be 21 2f 3d bf a4 8d 00 bf
       -1.0247536 -0.48887503 -0.7390004 -0.50216126
000010 2f 30 a3 be 1a 74 01 bf d0 16 dd be ab 09 76 bf
       -0.318727 -0.5056778 -0.43181467 -0.961085
000020 d7 1e 0a bf 79 c2 c9 be 96 80 02 bf f1 93 88 be
       -0.5395331 -0.39406183 -0.50977457 -0.2667537
000030 f4 5b 2f bf 62 74 f1 be 73 1c 45 bf ee c2 f5 be
       -0.68499684 -0.47159106 -0.76996535 -0.48000282
000040 75 17 1e bf eb 2b 08 be b5 f3 d3 be b6 a4 0b bf
       -0.6175454 -0.13298003 -0.4139687 -0.54548204
000050 d5 ec 10 bf d9 75 d4 be a8 15 25 bf f8 ce df be
       -0.56611377 -0.4149616 -0.6448617 -0.43712592
000060 14 d5 9a be f3 f2 42 bf 56 c0 2a bf 96 bf 15 bf
       -0.3024069 -0.7615196 -0.6669973 -0.5849546
000070 00 08 c8 be c4 1b d4 be 0d 61 2b bf 1f 45 96 3e
       -0.39068604 -0.41427433 -0.6694496 0.2934961
000080 f2 f8 0a bf da d4 29 bf aa bf 44 bf b2 4a 5b bf
       -0.5428611 -0.6634041 -0.76854956 -0.8566085
000090 9b f3 46 bf 8f 28 1a bf 09 dd c3 be 63 4b 28 bf
       -0.7771546 -0.6021814 -0.38254574 -0.6574003
0000a0 72 11 1a bf b2 a8 25 bf e7 c9 1e bf e1 19 0c bf
       -0.6018287 -0.64710534 -0.6202683 -0.5472699
0000b0 5c 3b f4 be f8 ad 16 bf e4 81 29 bf c2 d0 0a bf
       -0.47701538 -0.58859205 -0.6621382 -0.5422479
0000c0 b6 58 0a bf fb 27 3f bf 78 a6 f4 be f4 24 82 be
       -0.5404161 -0.7467038 -0.47783256 -0.25418818
0000d0 ce c4 75 bf 40 3a 79 be 35 46 4b bf 3f c6 0e 3e
       -0.96003425 -0.24338627 -0.79404 0.13942812
0000e0 df 61 14 bf 9e 5b c4 be 1e b8 4c bf 58 ba 3f be
       -0.5796184 -0.38351148 -0.7996844 -0.18723428
0000f0 87 2f 00 bf 69 db 0b bf b6 80 d8 be 49 79 d7 be
       -0.5007252 -0.5463167 -0.422857 -0.4208472

encoder.1.bn.running_mean f4 [64]
000000 00 00 00 00 00 00 00 00 00 00 00 00 00 00 00 00
       0.0 0.0 0.0 0.0
000010 00 00 00 00 00 00 00 00 00 00 00 00 00 00 00 00
       0.0 0.0 0.0 0.0
000020 00 00 00 00 00 00 00 00 00 00 00 00 00 00 00 00
       0.0 0.0 0.0 0.0
000030 00 00 00 00 00 00 00 00 00 00 00 00 00 00 00 00
       0.0 0.0 0.0 0.0
000040 00 00 00 00 00 00 00 00 00 00 00 00 00 00 00 00
       0.0 0.0 0.0 0.0
000050 00 00 00 00 00 00 00 00 00 00 00 00 00 00 00 00
       0.0 0.0 0.0 0.0
000060 00 00 00 00 00 00 00 00 00 00 00 00 00 00 00 00
       0.0 0.0 0.0 0.0
000070 00 00 00 00 00 00 00 00 00 00 00 00 00 00 00 00
       0.0 0.0 0.0 0.0
000080 00 00 00 00 00 00 00 00 00 00 00 00 00 00 00 00
       0.0 0.0 0.0 0.0
000090 00 00 00 00 00 00 00 00 00 00 00 00 00 00 00 00
       0.0 0.0 0.0 0.0
0000a0 00 00 00 00 00 00 00 00 00 00 00 00 00 00 00 00
       0.0 0.0 0.0 0.0
0000b0 00 00 00 00 00 00 00 00 00 00 00 00 00 00 00 00
       0.0 0.0 0.0 0.0
0000c0 00 00 00 00 00 00 00 00 00 00 00 00 00 00 00 00
       0.0 0.0 0.0 0.0
0000d0 00 00 00 00 00 00 00 00 00 00 00 00 00 00 00 00
       0.0 0.0 0.0 0.0
0000e0 00 00 00 00 00 00 00 00 00 00 00 00 00 00 00 00
       0.0 0.0 0.0 0.0
0000f0 00 00 00 00 00 00 00 00 00 00 00 00 00 00 00 00
       0.0 0.0 0.0 0.0

encoder.1.bn.running_var f4 [64]
000000 00 00 80 3f 00 00 80 3f 00 00 80 3f 00 00 80 3f
       1.0 1.0 1.0 1.0
000010 00 00 80 3f 00 00 80 3f 00 00 80 3f 00 00 80 3f
       1.0 1.0 1.0 1.0
000020 00 00 80 3f 00 00 80 3f 00 00 80 3f 00 00 80 3f
       1.0 1.0 1.0 1.0
000030 00 00 80 3f 00 00 80 3f 00 00 80 3f 00 00 80 3f
       1.0 1.0 1.0 1.0
000040 00 00 80 3f 00 00 80 3f 00 00 80 3f 00 00 80 3f
       1.0 1.0 1.0 1.0
000050 00 00 80 3f 00 00 80 3f 00 00 80 3f 00 00 80 3f
       1.0 1.0 1.0 1.0
000060 00 00 80 3f 00 00 80 3f 00 00 80 3f 00 00 80 3f
       1.0 1.0 1.0 1.0
000070 00 00 80 3f 00 00 80 3f 00 00 80 3f 00 00 80 3f
       1.0 1.0 1.0 1.0
000080 00 00 80 3f 00 00 80 3f 00 00 80 3f 00 00 80 3f
       1.0 1.0 1.0 1.0
000090 00 00 80 3f 00 00 80 3f 00 00 80 3f 00 00 80 3f
       1.0 1.0 1.0 1.0
0000a0 00 00 80 3f 00 00 80 3f 00 00 80 3f 00 00 80 3f
       1.0 1.0 1.0 1.0
0000b0 00 00 80 3f 00 00 80 3f 00 00 80 3f 00 00 80 3f
       1.0 1.0 1.0 1.0
0000c0 00 00 80 3f 00 00 80 3f 00 00 80 3f 00 00 80 3f
       1.0 1.0 1.0 1.0
0000d0 00 00 80 3f 00 00 80 3f 00 00 80 3f 00 00 80 3f
       1.0 1.0 1.0 1.0
0000e0 00 00 80 3f 00 00 80 3f 00 00 80 3f 00 00 80 3f
       1.0 1.0 1.0 1.0
0000f0 00 00 80 3f 00 00 80 3f 00 00 80 3f 00 00 80 3f
       1.0 1.0 1.0 1.0

encoder.2.conv.weight f4 [64, 64, 3, 3]
000000 a6 e2 9b be d1 c5 ac 3c ac 9c 02 3e 89 d7 78 be
       -0.30446357 0.02109042 0.12755078 -0.2430097
000010 68 12 2d be 40 50 72 be 6b e6 a5 be b9 6b 55 be
       -0.16901553 -0.23663425 -0.32402357 -0.20841874
000020 0e c7 e7 be 74 ab 9a bc 1c f5 c0 3e 07 a1 90 3e
       -0.45269054 -0.018880583 0.37687004 0.28247854
000030 03 07 8b 3d 16 cb c9 3e dd ba 8e bc 7f ac 9e 3e
       0.06788447 0.39412755 -0.017423088 0.3099098
000040 1e 1b 5c 3e f3 1b 0b be 05 3a 01 bf 6d c1 c4 be
       0.2149472 -0.1358488 -0.50479156 -0.38428822
000050 a0 10 af bd a6 47 a7 be 5b 0a 95 be 76 e4 7d be
       -0.08548093 -0.3267185 -0.29109463 -0.24794182
000060 cd 24 da bd b7 f6 d6 be 57 dd 88 bd 50 eb dc bd
       -0.106515504 -0.41985103 -0.06682842 -0.1078707
000070 31 9c 1e 3b 1f c9 81 3e e2 c8 2c be ff 93 66 be
       0.0024201984 0.25348756 -0.16873506 -0.22517394
000080 88 f9 6f 3d 9c ec 19 bf e4 bd 04 be 06 41 ed be
       0.05858758 -0.6012666 -0.12963063 -0.4633867
000090 5e 13 0a be b8 31 8f bd 51 e6 4c 3e 36 aa 9c bd
       -0.1348395 -0.06991905 0.20009734 -0.07649653
0000a0 59 04 9d bd 65 fe 89 be f4 b4 6a 3d 8d 1e 7a 3e
       -0.07666845 -0.269519 0.057301477 0.24425717
0000b0 4f bf 94 3e 72 8f 5b 3e da eb 81 3e 99 8a 92 3e
       0.29052207 0.21441439 0.25375253 0.28621367
0000c0 3c 63 fb 3e 02 c3 45 3f 18 b3 18 3f 67 12 3f 3e
       0.49099147 0.77250683 0.59648275 0.18659364
0000d0 da 13 1c 3f 9c 6a be 3e b6 dc 95 3e 03 ff 44 3e
       0.6096779 0.37190711 0.29269952 0.19237904
0000e0 5e af df 3e 6f d6 f6 3c b9 7d 6f be 03 ae a2 3c
       0.43688482 0.030131547 -0.23387803 0.019858366
0000f0 b1 c7 da be eb f6 ba 3d 37 74 8a 3e 88 e1 3b be
       -0.42730477 0.09129127 0.2704179 -0.18347752
000100 7c f9 35 3e 73 81 89 bc 39 01 c9 be 15 54 50 bd
       0.17770952 -0.016785359 -0.39258745 -0.050861437
000110 0c ec 67 bd b7 61 cf bd f1 ad dd 3d 56 9d 3c 3e
       -0.056621596 -0.101260595 0.10824192 0.18419394
000120 2d 50 2d 3e ee 36 23 3e ad a1 7b 3e d5 7c 3e 3d
       0.16925116 0.15938923 0.24573393 0.046505768
000130 59 e8 41 be ec 7d a5 bd 63 4b a9 be 1e d8 0c be
       -0.1893629 -0.08080658 -0.33065328 -0.13754317
000140 60 f8 a9 3d 39 22 04 bd 83 7a 4d 3e f8 cb 4f 3e
       0.08299327 -0.0322592 0.20066266 0.20292652
000150 2e 22 e2 bd d5 46 1b be 5b 12 7f be f5 de 76 bd
       -0.110416755 -0.15163739 -0.24909346 -0.060271222
000160 78 dc 7b be 12 ae 83 3c 5b 54 8f 3e 26 66 40 3e
       -0.24595821 0.016074214 0.27994046 0.18788967
000170 8e c9 b3 3d dc f7 b5 be 9a c2 ec be f8 f1 ab be
       0.08778678 -0.35540664 -0.4624222 -0.33583045
000180 7e 8b be bc 62 16 67 be 4f 87 14 bd 20 5b c4 bc
       -0.023259874 -0.22567132 -0.036261853 -0.023969233
000190 ec 20 13 3d 4d 16 df bd 62 6a 04 be 5d 3b 38 3e
       0.03592007 -0.108929254 -0.12931207 0.17991395
0001a0 5c a1 8b 3d 10 95 5b 3e 7e 91 1a 3e 15 57 a5 3e
       0.06817886 0.21443582 0.15094563 0.32293
0001b0 3c c0 2e be 00 aa 2d 3d 93 8c dc 3d 07 36 ec 3d
       -0.17065519 0.042398453 0.10769 0.115337424
0001c0 49 12 fa 3d ab 9c ac be d5 0b b7 3e 0a aa 9d 3e
       0.12210519 -0.33713278 0.35751215 0.30793792
0001d0 90 f1 e0 3c 08 55 24 3e fb 89 bd 3d df a5 2a bd
       0.027458936 0.16048062 0.09254833 -0.041662093
0001e0 d7 5e a1 be 81 be 63 be af 12 d8 be aa 8f 7a bf
       -0.3151767 -0.2224064 -0.42201754 -0.97875464
0001f0 2e 96 15 bf d3 36 5e bf 75 ce 76 be cd 2f a2 be
       -0.5843228 -0.86802405 -0.24102195 -0.31677094
000200 27 ba 4b 3e b2 2c 52 3d 08 48 22 be d2 23 55 be
       0.1989523 0.051312156 -0.1584779 -0.20814446
000210 b6 ae 69 3e 42 09 6d 3e e2 8d 85 3e 52 3e 48 bf
       0.22820553 0.23148063 0.2608481 -0.78220093
000220 84 ab bd bd 86 88 fa be 36 94 08 bf 85 69 f1 3d
       -0.0926123 -0.48932284 -0.5335115 0.117877044
000230 e7 be dc be f1 94 be be 9b 7f 46 be e5 7d c3 be
       -0.43114397 -0.37223008 -0.19384615 -0.38181987
000240 b7 23 25 3e fa c2 06 3d 75 94 07 be 8c 39 5d 3d
       0.16126905 0.032900788 -0.13240226 0.05400996
000250 a2 3b bd 3d a1 c6 0e 3e 3d 43 40 3e 72 03 18 be
       0.0923989 0.13942958 0.1877565 -0.14845064
000260 9c 3f db 3d 92 f5 5f be fe 1f 9d 3e 86 8e 83 be
       0.10705492 -0.21871021 0.3068847 -0.25694674
000270 f8 05 ac 3e 4f ce 18 3f 60 65 12 be bc 80 a6 3d
       0.33598304 0.596898 -0.14296484 0.08130023
000280 db 8f ad 3d 9f af d5 be 09 c0 71 bd a6 ef 99 bd
       0.08474704 -0.4173555 -0.05902103 -0.075164124
000290 2a d7 30 3d 43 c5 97 be 98 f5 68 3c 5c 71 89 bd
       0.043173946 -0.29642686 0.01421871 -0.06711075
0002a0 02 c3 cb bd 77 6d 90 3c 90 78 8b be 31 67 1c bf
       -0.09949304 0.017630322 -0.2724042 -0.6109496
0002b0 69 e1 80 be 85 33 6e be f5 45 2a bf 15 e8 ef be
       -0.25171974 -0.2326184 -0.66512996 -0.46856752
0002c0 28 e9 1f bf 0c e5 e1 bc a6 78 1e bd ef 26 1c 3d
       -0.62465143 -0.027575038 -0.038689278 0.038123067
0002d0 24 6c fa bd f2 f6 a7 bb c7 e4 ba bb 07 32 01 bf
       -0.122276574 -0.0051258737 -0.005703542 -0.5046696
0002e0 b9 e8 b6 3d b3 28 16 3e 15 14 b7 be 67 db e4 bd
       0.08931107 0.14663963 -0.3575751 -0.1117466
0002f0 ad 32 b9 be 6b f8 ca 3d 07 d2 85 3e b5 88 01 3e
       -0.36171475 0.09910663 0.261368 0.12649806
000300 1d 65 80 bd 1e b6 09 3e 64 c3 79 bd b5 41 bc 3c
       -0.06269286 0.13448378 -0.060977355 0.02298055
000310 ad ab 5b 3e 28 db c0 3c 0b 6c 97 3e d5 1e 82 3e
       0.21452208 0.023542002 0.29574618 0.25414148
000320 c1 cd 8c 3e 47 dc 9a 3e f1 eb 09 3e 75 f6 91 3d
       0.27500728 0.30246183 0.13468911 0.07127086
000330 3a 2f 75 3e ef 4c 1a 3e c3 2b 86 3e 88 84 0d be
       0.23943797 0.1506841 0.26205263 -0.13820088
000340 cf d2 e4 bd 55 3a 84 be 35 29 4f 3e f6 ef d4 3e
       -0.11173021 -0.25825754 0.20230563 0.41589326
000350 3e de 9f 3e 86 c8 f6 bd 1f 3a a4 3c 0c 55 0f be
       0.31224245 -0.120499656 0.020047246 -0.13997287
000360 2d da 28 be ee 71 4b 3e c1 77 b7 bd 3b 75 24 bf
       -0.16489477 0.1986768 -0.08958388 -0.6424138
000370 6c c7 cb be 15 d7 51 bf 53 93 02 bf ec b1 f9 be
       -0.39800584 -0.81968814 -0.5100605 -0.48768556
000380 d3 e1 8a bf d5 14 b0 bd 8f 65 c8 3d b8 96 07 3d
       -1.0850166 -0.085977234 0.09784996 0.03310272
000390 f3 cf d5 bc bf 2f 69 3e cf eb 20 be 50 b1 30 3e
       -0.026100134 0.2277212 -0.15714954 0.1725514
0003a0 56 f6 26 3e 33 a4 44 3e 94 2a 9e 3e 4d c6 5e 3e
       0.16304907 0.19203262 0.3089186 0.21755333
0003b0 d2 f6 49 3d 20 77 08 3f 7c 4f 0d 3f 34 8a f2 3e
       0.04930765 0.5330677 0.5519941 0.47371066
0003c0 d8 a4 67 bd 5c 5d e3 bd a6 cb a1 bd f0 8a a2 bd
       -0.05655369 -0.11101791 -0.07900171 -0.079366565
0003d0 b5 58 c2 3e 14 9f 7a 3c be 97 8f bd d2 4d a4 3e
       0.37958303 0.015296716 -0.070113644 0.32090622
0003e0 ae b9 25 be 12 d2 34 3e 67 09 80 3e 83 eb 8c 3e
       -0.16184112 0.1765826 0.25007173 0.2752343
0003f0 6b ad 6f 3e be 01 c7 3e 99 76 80 bd fb 5e 59 3e
       0.23405997 0.38868517 -0.06272621 0.21227638

encoder.2.conv.bias f4 [64]
000000 b1 6a 7a 3d 88 9b 1f bd f5 e6 15 3d 74 0f 49 3e
       0.061136905 -0.038966686 0.03659721 0.19634801
000010 7c 87 7b 3d bd 09 3a bd 52 1c 3d 3c 2a b1 ad be
       0.061408505 -0.045419443 0.011542397 -0.33924228
000020 c1 5f 5b 3e b0 94 5d 3e 7a 94 f3 3d 72 ac 56 bd
       0.21423246 0.21638751 0.11893554 -0.05241055
000030 9c 64 02 3e 3a 78 61 3d 89 3f d8 3d 1e ac 91 3b
       0.12733692 0.055046298 0.10558993 0.004445567
000040 6e 08 51 bd 13 5d dd 3d bd 96 94 bc 57 c3 25 3d
       -0.05103343 0.10808768 -0.018138284 0.040469494
000050 b0 9f 71 bd a3 e2 32 3e d6 d3 af 3d 07 a6 6e be
       -0.05899018 0.17469268 0.085853264 -0.23305522
000060 a3 5e b4 bc 5e 2e a9 3d 5b ff 9d 3d 5d 39 d7 bd
       -0.022017783 0.08260797 0.07714721 -0.10508988
000070 96 65 a6 3d 53 9f f8 3d 41 43 da bd 81 70 0a 3e
       0.08124845 0.12139764 -0.10657359 0.1351948
000080 c3 94 46 be e1 71 d2 3e 5b ec 11 3e be b1 85 3c
       -0.19392686 0.41102508 0.14250319 0.016320106
000090 23 fc ef 3c d9 29 12 3e 41 57 10 3d 37 38 a7 bd
       0.029295033 0.14273776 0.03523946 -0.08165019
0000a0 13 b7 9d bd 72 9d e7 3d 2f 78 d0 3d 5b f4 1a 3e
       -0.07700934 0.11309327 0.10179173 0.15132277
0000b0 55 96 b7 3e 3e 40 81 bd d9 27 52 3e 88 79 eb 3c
       0.35856882 -0.06311081 0.20523013 0.028744474
0000c0 88 50 a7 3d bd 64 64 3d 77 73 17 3d ea 1e 2f 3e
       0.08169657 0.055760134 0.03697535 0.17101637
0000d0 9e 1f 6e 3e 94 89 9d bd 16 5a 42 3c b1 02 05 be
       0.23254248 -0.076922566 0.0118622985 -0.12989308
0000e0 62 b3 75 3d 2f e8 1c bd 9c 48 39 be 87 2e 05 3e
       0.059985526 -0.038307365 -0.18094105 0.1300603
0000f0 6f 81 0f bc 40 c6 99 3d 03 de 8c 3e 96 3c 2e 3e
       -0.008758887 0.07508516 0.27513131 0.17015299

encoder.2.bn.weight f4 [64]
000000 29 e3 50 3f 71 33 56 3f 78 d2 3e 3f c4 e7 76 3f
       0.8159662 0.83672243 0.745399 0.96447396
000010 a4 49 49 3f b2 39 3f 3f 2b 9d 4b 3f 06 aa 57 3f
       0.7862799 0.7469741 0.79536694 0.8424381
000020 18 bb 33 3f d4 1e 1d 3f 6c 14 4b 3f 99 9b 3b 3f
       0.7020736 0.61375165 0.79328036 0.732843
000030 c5 59 35 3f 21 76 59 3f 65 26 5d 3f c5 42 34 3f
       0.708401 0.84945875 0.8638671 0.7041438
000040 92 0a 40 3f 72 7f 2e 3f 5c e9 35 3f 17 59 4a 3f
       0.7501613 0.68163216 0.71059203 0.7904219
000050 87 e1 37 3f 52 77 33 3f ea 68 3c 3f 40 db 4c 3f
       0.718285 0.70103943 0.73597586 0.8002205
000060 76 44 74 3f cf 4c 5c 3f 31 49 4a 3f 3c a7 4f 3f
       0.95416963 0.860547 0.7901793 0.81114554
000070 a8 a6 db 3e 8e 83 28 3f 15 d0 52 3f 38 05 49 3f
       0.42900586 0.65825737 0.8234876 0.7852359
000080 9a 15 57 3f b4 d8 25 3f 82 47 27 3f 7b cd 55 3f
       0.84017336 0.6478379 0.6534349 0.83516663
000090 98 33 51 3f d7 66 1a 3f f7 98 43 3f 50 b3 3a 3f
       0.8171935 0.6031317 0.7640528 0.7292986
0000a0 04 15 4b 3f 60 62 06 3f b9 b4 33 3f 84 d3 44 3f
       0.7932894 0.5249386 0.70197636 0.7688525
0000b0 8c 17 36 3f 28 ec 2e 3f 97 cd 2d 3f 5f b2 44 3f
       0.7112968 0.68329096 0.6789183 0.7683467
0000c0 30 e9 2c 3f 42 63 43 3f 3f 8f 56 3f 2a b1 2e 3f
       0.67543316 0.7632333 0.83812326 0.6823908
0000d0 dc 8a 2c 3f 63 3a 50 3f 71 0b 46 3f 25 86 30 3f
       0.6739938 0.8133909 0.7736121 0.6895469
0000e0 ee 3e 17 3f fb c6 52 3f e4 11 5c 3f 34 8b 3d 3f
       0.590804 0.8233487 0.859648 0.7404053
0000f0 e0 9a 41 3f 1c 1d 31 3f 72 13 2a 3f 8b 7c 2f 3f
       0.75626945 0.6918504 0.6643592 0.6854941

encoder.2.bn.bias f4 [64]
000000 27 98 6f bf b0 9e 55 bf 61 95 69 bf 0b c9 50 bf
       -0.9359154 -0.8344526 -0.9124356 -0.8155677
000010 62 7c 83 bf 36 fe 6e bf d6 52 7b bf f0 aa 92 bf
       -1.0272334 -0.93356645 -0.9817327 -1.1458416
000020 c6 b7 1c bf c0 c2 0f bf 39 59 84 bf 9f 5e 84 bf
       -0.61217916 -0.5615654 -1.0339729 -1.0341376
000030 44 1e 5c bf e1 25 99 bf 0f 49 61 bf 6a 8e 53 bf
       -0.8598368 -1.1964685 -0.88002104 -0.8263918
000040 48 5c 70 bf 5b 4d 14 bf bf e9 6e bf a8 e1 70 bf
       -0.9389081 -0.57930535 -0.9332542 -0.94094324
000050 7d 65 6b bf 58 dd 19 bf ff c1 5c bf 84 f8 8e bf
       -0.91951734 -0.6010337 -0.86233515 -1.1169591
000060 87 aa 9d bf 5e 3b f8 be c6 3a 86 bf fc 1b f3 bf
       -1.2317666 -0.48482794 -1.0486686 -1.8992915
000070 cd f7 12 be 93 14 3d bf bc 21 8f bf 13 e9 58 bf
       -0.14352341 -0.7385952 -1.118217 -0.84730643
000080 bd a7 45 bf 13 c4 b5 be 35 da 12 bf 79 83 55 bf
       -0.77209073 -0.35501155 -0.5736421 -0.83403736
000090 f2 a6 47 bf a8 87 19 bf 39 51 6f bf e1 87 87 bf
       -0.77989113 -0.5997262 -0.9348331 -1.0588342
0000a0 e5 48 39 bf 61 14 01 bf 91 67 10 bf 0e a3 29 bf
       -0.72376853 -0.5042172 -0.5640803 -0.66264427
0000b0 3a 26 1d bf 8d 38 36 bf 37 65 fb be 40 b5 71 bf
       -0.61386454 -0.7118004 -0.49100658 -0.9441719
0000c0 88 71 37 bf 68 9e 85 bf 8f 5f e2 bf 47 37 35 bf
       -0.7165761 -1.0438967 -1.7685412 -0.7078747
0000d0 2e 15 2b bf 69 e6 83 bf 43 3e 71 bf 2f aa 73 bf
       -0.6682919 -1.0304691 -0.9423563 -0.95181555
0000e0 73 62 38 bf c6 d1 8e bf 82 2a 0f bf 67 ac 69 bf
       -0.7202522 -1.1157768 -0.55924237 -0.9127869
0000f0 c4 cc 4b bf 31 95 22 bf d9 70 ea be cf 8d 28 bf
       -0.7960932 -0.635089 -0.4578922 -0.6584138

encoder.2.bn.running_mean f4 [64]
000000 00 00 00 00 00 00 00 00 00 00 00 00 00 00 00 00
       0.0 0.0 0.0 0.0
000010 00 00 00 00 00 00 00 00 00 00 00 00 00 00 00 00
       0.0 0.0 0.0 0.0
000020 00 00 00 00 00 00 00 00 00 00 00 00 00 00 00 00
       0.0 0.0 0.0 0.0
000030 00 00 00 00 00 00 00 00 00 00 00 00 00 00 00 00
       0.0 0.0 0.0 0.0
000040 00 00 00 00 00 00 00 00 00 00 00 00 00 00 00 00
       0.0 0.0 0.0 0.0
000050 00 00 00 00 00 00 00 00 00 00 00 00 00 00 00 00
       0.0 0.0 0.0 0.0
000060 00 00 00 00 00 00 00 00 00 00 00 00 00 00 00 00
       0.0 0.0 0.0 0.0
000070 00 00 00 00 00 00 00 00 00 00 00 00 00 00 00 00
       0.0 0.0 0.0 0.0
000080 00 00 00 00 00 00 00 00 00 00 00 00 00 00 00 00
       0.0 0.0 0.0 0.0
000090 00 00 00 00 00 00 00 00 00 00 00 00 00 00 00 00
       0.0 0.0 0.0 0.0
0000a0 00 00 00 00 00 00 00 00 00 00 00 00 00 00 00 00
       0.0 0.0 0.0 0.0
0000b0 00 00 00 00 00 00 00 00 00 00 00 00 00 00 00 00
       0.0 0.0 0.0 0.0
0000c0 00 00 00 00 00 00 00 00 00 00 00 00 00 00 00 00
       0.0 0.0 0.0 0.0
0000d0 00 00 00 00 00 00 00 00 00 00 00 00 00 00 00 00
       0.0 0.0 0.0 0.0
0000e0 00 00 00 00 00 00 00 00 00 00 00 00 00 00 00 00
       0.0 0.0 0.0 0.0
0000f0 00 00 00 00 00 00 00 00 00 00 00 00 00 00 00 00
       0.0 0.0 0.0 0.0

encoder.2.bn.running_var f4 [64]
000000 00 00 80 3f 00 00 80 3f 00 00 80 3f 00 00 80 3f
       1.0 1.0 1.0 1.0
000010 00 00 80 3f 00 00 80 3f 00 00 80 3f 00 00 80 3f
       1.0 1.0 1.0 1.0
000020 00 00 80 3f 00 00 80 3f 00 00 80 3f 00 00 80 3f
       1.0 1.0 1.0 1.0
000030 00 00 80 3f 00 00 80 3f 00 00 80 3f 00 00 80 3f
       1.0 1.0 1.0 1.0
000040 00 00 80 3f 00 00 80 3f 00 00 80 3f 00 00 80 3f
       1.0 1.0 1.0 1.0
000050 00 00 80 3f 00 00 80 3f 00 00 80 3f 00 00 80 3f
       1.0 1.0 1.0 1.0
000060 00 00 80 3f 00 00 80 3f 00 00 80 3f 00 00 80 3f
       1.0 1.0 1.0 1.0
000070 00 00 80 3f 00 00 80 3f 00 00 80 3f 00 00 80 3f
       1.0 1.0 1.0 1.0
000080 00 00 80 3f 00 00 80 3f 00 00 80 3f 00 00 80 3f
       1.0 1.0 1.0 1.0
000090 00 00 80 3f 00 00 80 3f 00 00 80 3f 00 00 80 3f
       1.0 1.0 1.0 1.0
0000a0 00 00 80 3f 00 00 80 3f 00 00 80 3f 00 00 80 3f
       1.0 1.0 1.0 1.0
0000b0 00 00 80 3f 00 00 80 3f 00 00 80 3f 00 00 80 3f
       1.0 1.0 1.0 1.0
0000c0 00 00 80 3f 00 00 80 3f 00 00 80 3f 00 00 80 3f
       1.0 1.0 1.0 1.0
0000d0 00 00 80 3f 00 00 80 3f 00 00 80 3f 00 00 80 3f
       1.0 1.0 1.0 1.0
0000e0 00 00 80 3f 00 00 80 3f 00 00 80 3f 00 00 80 3f
       1.0 1.0 1.0 1.0
0000f0 00 00 80 3f 00 00 80 3f 00 00 80 3f 00 00 80 3f
       1.0 1.0 1.0 1.0
