result/ProtoNet_CUB_Conv4_5w1s_mask-layer-snip-mbml-small_(0.97,1.0)_resize_[84, 64, 48]/best_model.pth (torch, 463569 bytes, 24 tensors)

0.conv.weight f4 [64, 3, 3, 3]
000000 b8 c5 59 be d8 d0 8c be d1 5d 57 be e3 45 de bd
       -0.2126683 -0.27503085 -0.21031882 -0.108531736
000010 0b 04 72 be 47 59 16 be 99 2c c0 3d a7 d6 a2 3c
       -0.23634355 -0.14682494 0.09383506 0.019877745
000020 09 46 a7 3d 83 29 92 3e 76 a8 b5 3e fe 80 2f 3e
       0.08167655 0.28547296 0.35480088 0.1713905
000030 be 1b 24 3f b9 fd 2c 3f b1 3a 1a 3f 43 d8 13 3f
       0.6410483 0.6757465 0.60245806 0.57751864
000040 d6 0a 26 3f 6a f0 13 3f 4f 8b 1e bd 0f 0b 58 bd
       0.64860284 0.5778872 -0.038707074 -0.05274492
000050 1d 3d 1e 3e 19 51 18 bf 9b e9 0b bf dc eb ef be
       0.15453 -0.59498745 -0.5465333 -0.46859634
000060 bb ba 2a bf d8 b3 33 bf 96 05 2a bf ca 9f 39 3e
       -0.6669118 -0.70196295 -0.66414773 0.18127361
000070 a9 d4 05 bf bf b3 d4 be 5c d3 d9 3e 63 a6 16 3f
       -0.5227762 -0.41543385 0.42544067 0.58847636
000080 0d 7d f3 3e 22 78 80 3e f5 90 04 bf b0 02 8e 3d
       0.47556344 0.25091654 -0.51783687 0.06934106
000090 6e aa 17 be 3b e3 26 bf 48 90 d9 be 1a 62 f6 3e
       -0.14811108 -0.65190476 -0.4249289 0.4812172
0000a0 30 f7 3c 3f d9 72 25 3f 4a 83 8d be 6b f9 33 bf
       0.7381468 0.6462837 -0.27639228 -0.70302457
0000b0 a6 1e 86 bd 2b ff 04 be 09 93 01 bf b8 8c 49 be
       -0.065488145 -0.12987964 -0.5061498 -0.19682586
0000c0 a1 b3 c3 3e e6 2f 1f 3f 73 77 06 3f ab e9 c7 bd
       0.38222983 0.6218246 0.52526015 -0.097613655
0000d0 16 91 26 bf 5f b1 40 3d 8a 1a 05 3f 98 55 b8 3e
       -0.65065134 0.047044154 0.5199362 0.36002803
0000e0 4b 91 c0 3c a3 54 9d 3e 63 b6 2c 3e 2e 3b 87 3c
       0.023506781 0.30728635 0.1686645 0.016507711
0000f0 24 41 bd bd c1 f4 04 bf bd 17 18 bf c7 65 88 3d
       -0.0924094 -0.51935965 -0.5941122 0.066600375
000100 dd a8 77 3e 4b 0a dd 3e b2 41 21 3e c8 29 2d 3e
       0.2418551 0.43171915 0.15747717 0.1691047
000110 ac 6b 85 bd a9 c9 49 be e0 73 b1 be 62 ef d1 be
       -0.065146774 -0.19705833 -0.34658718 -0.41002947
000120 9e a2 2b bf a2 c6 22 bf 72 32 0b bf b4 47 f6 be
       -0.6704501 -0.6358434 -0.5437385 -0.4810158
000130 d4 f9 b9 be dd 53 a5 bb eb 91 9c 3e fc 8d 63 3f
       -0.36323416 -0.0050453977 0.30580077 0.88888526
000140 3f 98 6e 3f 20 f5 2d 3f 57 fe 1c 3f 92 8c 78 3d
       0.9320106 0.67952156 0.6132559 0.060680933
000150 a9 70 29 3f 1a d9 bc 3e 04 cc 05 bd a5 ad 5e 3d
       0.6618753 0.36884385 -0.032665268 0.05436482
000160 57 d3 82 3d d9 e2 88 be 6e 80 28 bf cf a5 24 bf
       0.06387966 -0.2673557 -0.6582097 -0.64315504
000170 70 c4 0a bf 2d 3d 23 bf b4 12 1a bf 95 4d fc be
       -0.5420599 -0.6376522 -0.6018479 -0.4927794
000180 92 36 ee be 8b 09 f0 be a6 a2 bc be c9 3b fb 3d
       -0.4652601 -0.4688228 -0.3684284 0.122672625
000190 79 d8 46 3e 1c ef ed 3e 3f d3 90 3d be f9 80 3e
       0.19418515 0.46471488 0.07071542 0.25190538
0001a0 50 f5 d7 3e e1 d7 e0 3e 6c 74 cd 3e fd 54 ff 3e
       0.42179346 0.43914703 0.40127885 0.49869528
0001b0 b4 aa 15 3e a7 ef 8f 3e 52 98 6b 3e c9 72 e4 3e
       0.146159 0.28112528 0.23007324 0.44618824
0001c0 35 ba 1c 3f a3 cc 09 3f dc cf 9a 3d ed ce d7 3e
       0.6122163 0.53827876 0.07559177 0.4215006
0001d0 2a 4a 98 3e 46 3f 09 bf 9b 2e 0d bf 87 ca f9 be
       0.29744083 -0.5361217 -0.5514924 -0.4878733
0001e0 de 00 18 bf 35 58 23 bf 30 ad 1c bf 3d b4 0c bf
       -0.59376323 -0.6380647 -0.61201763 -0.5496252
0001f0 a7 fd 21 bf 96 41 14 bf 08 23 f8 3e ce 98 ce 3e
       -0.6327767 -0.57912576 0.48464227 0.40350956
000200 93 5f f3 3e 2a 8e a8 3e 83 ad 9f 3e 8f 9a bd 3e
       0.47533855 0.32920963 0.31187066 0.3703198
000210 c9 4a 6c be 44 20 a6 bd 0e 43 d0 bc 98 cf 51 3e
       -0.23075403 -0.08111623 -0.0254226 0.20489347
000220 37 5b 57 3e 0f ae f2 be 72 51 11 3f 4b 68 d7 bd
       0.2103089 -0.4739842 0.567649 -0.10517939
000230 b3 e5 09 bf 05 41 f7 3e 41 be cf be af 1f 0a bf
       -0.5386612 0.48291793 -0.4057484 -0.53954595
000240 cb a4 bb 3e f0 58 e9 3e af 24 b3 be bb a2 0d 3f
       0.36649165 0.45575666 -0.34988925 0.5532643
000250 3b ab 83 3d 9d 7f e6 be 12 61 d1 3e 65 37 c9 be
       0.06429144 -0.45019236 0.4089437 -0.39300075
000260 b4 09 9c be 04 70 f5 3e dd f1 f9 3e be db da be
       -0.30476153 0.47937024 0.4881734 -0.42745775
000270 df 0d 17 3f 67 e1 64 3e 19 a7 0a bf 8c d6 f8 3e
       0.5900554 0.22351609 -0.5416122 0.48601186
000280 19 51 08 bf 8a 25 f2 be 83 55 1b 3f 00 00 15 3f
       -0.53248745 -0.47294265 0.60677356 0.58203125
000290 39 c9 05 3f 36 10 bb 3d d7 aa 03 be b0 ef 97 bd
       0.52260166 0.09133951 -0.12858139 -0.07418764
0002a0 c8 ef 2d bf 89 dd 84 be 42 80 55 be 56 75 34 3f
       -0.67944 -0.25950268 -0.20849708 0.7049154
0002b0 65 40 2c 3f ce a2 17 3f 58 22 e0 bb e3 fb e6 be
       0.6728576 0.59232795 -0.0068400316 -0.4511405
0002c0 5f 7b df be d8 e7 29 bf ec 09 32 bf dd 78 0f bf
       -0.43648812 -0.6636939 -0.6954639 -0.560438
0002d0 3a 2f df 3e b0 9e 67 3e 5e a1 83 3e 4d 11 b7 3e
       0.43590719 0.22619128 0.2570905 0.35755387
0002e0 04 51 3e 3e cf bb 5a be 9e db c6 be 4d 00 57 be
       0.18585593 -0.21360706 -0.3883943 -0.20996208
0002f0 b1 8d ba be 89 f5 65 3e ce 1b 3c 3d a1 1d 9a be
       -0.36436227 0.22456945 0.045924954 -0.3010073
000300 30 8e eb 3d ad ac a8 be f7 9a 16 bf f0 0f 62 be
       0.115017295 -0.3294424 -0.5883021 -0.22076392
000310 a8 63 26 bf 64 48 2a bf 11 89 ed 3e 98 76 1d 3f
       -0.64995813 -0.6651671 0.46393636 0.61509085
000320 48 af 11 3f 38 b5 02 3f 12 fa 18 3f c2 24 d1 3e
       0.5690808 0.5105777 0.59756577 0.40848356
000330 fd e3 5f 3e d0 87 7c 3e d7 ae c2 3d bf 1b 29 bf
       0.21864314 0.24661183 0.09506004 -0.6605796
000340 15 c1 1e bf 22 12 91 be 1b 41 1a bf f4 be 30 be
       -0.6201337 -0.28334147 -0.60255593 -0.17260343
000350 a0 bc 84 3e d0 aa 01 bc fb 82 ce 3e fc e9 04 3f
       0.2592516 -0.00791426 0.40334305 0.5191953
000360 7c c4 b0 3e bf cc 0b bf 51 3b 01 3f 36 cc 01 3f
       0.34524906 -0.5460929 0.50481135 0.50702226
000370 2c 85 c9 bd 6d 36 e5 be 7e 5d 5c 3d 07 00 e8 3e
       -0.09839854 -0.44768086 0.0538001 0.4531252
000380 ad 07 02 bf 7f 4c 63 3e ae c2 20 bf f0 cc bc bd
       -0.5079296 0.2219715 -0.6279706 -0.09218776
000390 07 c2 10 3f 3a da ef be a3 20 0a bf 4f 27 ee 3e
       0.5654606 -0.4684618 -0.5395605 0.46514365
0003a0 82 d6 21 3f 4f b7 f9 be 53 56 52 3e cb 77 02 bf
       0.6321794 -0.48772666 0.20540743 -0.5096404
0003b0 b2 70 c1 3d 95 d1 15 3f 61 04 df be 43 70 de be
       0.09445323 0.5852292 -0.43558028 -0.43445024
0003c0 19 f0 d0 3e 3c 1f 9e 3e 0e ff db be 40 92 20 3f
       0.4080818 0.30883205 -0.4296803 0.6272316
0003d0 38 f2 a6 be 8d b7 fe be 7e a9 08 bf b3 38 63 be
       -0.32606673 -0.49749413 -0.53383625 -0.22189598
0003e0 af 7f af 3e 19 25 e2 be 6e 9e b2 bd 72 ac 58 be
       0.34277102 -0.44168928 -0.08721624 -0.21159533
0003f0 31 1a 20 3f ca 70 17 bf 7b 11 1b bf 35 5b 21 be
       0.62539965 -0.5915648 -0.6057355 -0.15757449

0.conv.bias f4 [64]
000000 0a 23 40 be b8 25 81 3e e2 e2 36 3e c9 31 c0 bd
       -0.18763366 0.2522409 0.17859986 -0.09384496
000010 30 d5 0d be 52 9d 16 39 8d 30 66 3d e7 8e 4c bf
       -0.13850856 0.00014363721 0.056198645 -0.7990555
000020 06 4e ac 3b bb 80 87 be 99 cb b3 bc c6 ab 58 bf
       0.0052583246 -0.264654 -0.021947669 -0.84637105
000030 dc 0b 78 3e 59 af 2e 3f 49 b6 ef 3d 0f 14 b9 be
       0.24223274 0.6823631 0.1170469 -0.36148116
000040 71 1a 2a bf ad b2 74 be b4 db 05 3d 82 89 4f bb
       -0.66446596 -0.23896284 0.03268023 -0.0031667654
000050 4d 29 0d bd 2c 79 78 3e a1 21 16 bd 0a 94 2f be
       -0.034463216 0.24264973 -0.036653165 -0.17146316
000060 7f 26 64 bf 49 22 7c be 1e c1 0a be 78 86 66 3e
       -0.8912124 -0.24622454 -0.13550231 0.22512233
000070 60 ca 7b 3e 18 3b 16 be b1 20 ab bd 0c ad 15 3d
       0.24588919 -0.1467098 -0.08355845 0.036541983
000080 5a fd a7 be 2a 58 07 be 5b b5 16 3e c8 1b 04 3f
       -0.3281048 -0.13217226 0.14717619 0.5160489
000090 99 e1 57 be 3b 33 aa 3d 91 73 1d be 0c 04 22 be
       -0.21082152 0.08310553 -0.15376116 -0.15821856
0000a0 be 26 94 be c6 a2 b8 be 99 99 25 bf b9 0d 25 3e
       -0.28935808 -0.36061686 -0.64687496 0.16118516
0000b0 df 54 3d be 69 5e 70 3e 4a 1d 89 3c e5 2c 9f 3e
       -0.18489407 0.23473515 0.016737599 0.3108894
0000c0 70 e4 0d 3e 46 1f 4e 3e c9 0f ac 3d ba e4 0d 3e
       0.13856673 0.20129117 0.08401448 0.13856784
0000d0 26 51 95 be 83 55 17 be e4 bd 5f bc aa 32 3a bc
       -0.29163474 -0.14778714 -0.013656113 -0.011364618
0000e0 a5 f2 ac 3c 17 0d bb 3e 50 7b 36 bd a6 9c 44 3c
       0.021111796 0.36533424 -0.044551194 0.0120002385
0000f0 94 24 6b be 82 50 5f bd 2c 63 f2 3d 19 91 c0 be
       -0.22963172 -0.054520138 0.11835322 -0.376107

0.bn.weight f4 [64]
000000 8b e5 30 3f 47 b5 40 3f 09 2e 1a 3f c1 48 84 3f
       0.69100255 0.7527661 0.60226494 1.0334703
000010 13 d7 84 3f 0b 42 97 3f 59 2d bc 3f a9 7a 37 3f
       1.0378135 1.181703 1.4701339 0.7167154
000020 ef 4e 72 3f a9 49 28 3f 43 79 37 3f 5b 3f 8c 3f
       0.94651693 0.65737396 0.71669406 1.0956835
000030 78 d2 52 3f be 2b 92 3f a1 a6 84 3f 31 10 46 3f
       0.823524 1.1419599 1.0363351 0.77368456
000040 2e 7d 81 3f 31 a8 70 3f 66 82 be 3f a7 f6 59 3f
       1.0116327 0.9400664 1.4883544 0.85141987
000050 8d df 33 3f d7 44 71 3f fb f0 54 3f 25 2e 2c 3f
       0.70262986 0.94245666 0.83180207 0.6725791
000060 3d aa 38 3f 56 3b 35 3f 2a 6c 2b 3f 01 26 4e 3f
       0.72134763 0.70793664 0.6696192 0.8052674
000070 76 36 58 3f 71 4d 83 3f f9 29 35 3f c1 d4 34 3f
       0.844581 1.0258008 0.7076717 0.70637137
000080 a4 2f 46 3f 38 f5 29 3f 1f 9c 85 3f f1 7d 8b 3f
       0.77416444 0.663898 1.0438269 1.0897809
000090 48 57 4a 3f c9 b7 3c 3f c7 fc 42 3f a6 f2 6f 3f
       0.7903943 0.73717934 0.7616696 0.9372963
0000a0 91 2a 02 3f 58 1b 75 3f 27 fa 8f 3f f5 78 54 3f
       0.508462 0.9574485 1.1248215 0.82997066
0000b0 85 d6 c6 3e 66 36 76 3f 31 53 37 3f 2f 31 52 3f
       0.3883554 0.96176755 0.71611315 0.821063
0000c0 4a d0 26 3f cb 22 34 3f be 2d 72 3f ab e4 55 3f
       0.65161574 0.7036559 0.9460105 0.83552045
0000d0 8f 6e 95 3f ad 15 ae 3f be b4 be 3f d6 f3 a5 3f
       1.1674365 1.3600365 1.4898908 1.2965038
0000e0 19 16 ab 3f 6a 93 95 3f 8e a1 6b 3f 2d fd 85 3f
       1.3366119 1.1685612 0.9204339 1.0467888
0000f0 52 e9 8a 3f 36 dd 4e 3f 28 52 97 3f 4a 71 53 3f
       1.0852454 0.8080629 1.1821947 0.8259474

0.bn.bias f4 [64]
000000 ae 94 da 3e 5d 59 98 bd 29 c1 77 3d 2f c4 23 3c
       0.4269156 -0.0743892 0.060486946 0.009995504
000010 73 3e 0c bd 1b 5a 55 be 08 4d 93 bf 0b 65 4a 3f
       -0.034239244 -0.20835154 -1.1507883 0.7906043
000020 dd 65 c7 bc 82 b3 85 3f 4b f3 0f bd a5 8c 61 be
       -0.024340564 1.0445406 -0.03514413 -0.22026308
000030 57 8a 43 3e 0b 1d dc bf 4d 71 db be bc 4b 4c 3e
       0.19095741 -1.7196363 -0.4285988 0.19950765
000040 a5 06 1e bf 4b 81 ce 3e 51 14 ba bf 2a 56 8a be
       -0.6172889 0.40333018 -1.453745 -0.27018863
000050 db da fc 3d 9f 86 4b bc b7 eb b2 3e ea 27 04 3f
       0.12346431 -0.012422233 0.3494546 0.51623404
000060 28 44 62 3c 9a 4c c3 3f 22 a0 48 3e 43 ce 7e be
       0.013810195 1.5257752 0.19592336 -0.2488337
000070 eb 8e 58 3e 62 d6 86 be 40 ed 4c 3d 28 5f 9c 3e
       0.21148269 -0.26335436 0.050030947 0.30541348
000080 c3 95 dc 3e be ec 99 3e 1a 1c c5 be ed 6c 29 c0
       0.4308301 0.30063432 -0.38498002 -2.6472733
000090 36 0a ab 3e e2 d7 9e 3e 03 e5 63 3d eb 12 a5 3e
       0.33406228 0.3102408 0.055638324 0.32240996
0000a0 f0 c8 79 3e 30 6c 5f 3e 1b 65 ca bd d9 e4 0b bd
       0.24393058 0.21818614 -0.098825656 -0.034153793
0000b0 23 8f 26 40 a6 a7 62 3e 9f c6 8b 3e a2 95 32 3d
       2.6024864 0.22134265 0.27299973 0.043599732
0000c0 05 0b 07 3d 80 b8 28 3e 74 fa 51 be 12 c2 49 be
       0.032969493 0.16476631 -0.20505697 -0.19702938
0000d0 29 41 68 bf 58 4e 77 bf b9 66 8a bf b1 f8 36 bf
       -0.90724427 -0.9660392 -1.0812598 -0.7147322
0000e0 71 0e 8a bf 59 f4 24 bf a4 7f 6d be 99 d8 40 3d
       -1.0785657 -0.64435345 -0.23193222 0.047081564
0000f0 2d 7e 34 3c ab 38 34 3e ad 7d 84 bf 59 29 ac 3d
       0.011016411 0.17599742 -1.0350853 0.08406324

0.bn.running_mean f4 [64]
000000 a6 63 5c 3e 38 45 37 3e 54 8d 03 3e f2 d7 25 bf
       0.21522388 0.17897499 0.12846881 -0.6478263
000010 a8 69 55 bf 97 2b cc 3d 5a dd 73 bd 86 f3 88 be
       -0.83364344 0.099692516 -0.05953727 -0.26748294
000020 d8 a2 95 bd 48 7d 83 bc 1a bc aa bd 78 24 b5 bf
       -0.073064506 -0.01605095 -0.08336659 -1.4151754
000030 1c 30 48 3e 2b d2 e0 3e a3 d8 43 3f 0a 7a c5 be
       0.19549602 0.43910345 0.76502436 -0.3856967
000040 a2 e3 36 bf 17 e3 2a be f2 9c 7f 3d 10 be 3f be
       -0.7144109 -0.1668819 0.062405534 -0.18724847
000050 15 48 cb bb 8f 74 7d 3e 71 4a 08 bf da ff 99 3e
       -0.006203661 0.24751495 -0.5323859 0.30078012
000060 f8 50 6a bf 8f 9c 80 be 13 05 a7 be e1 c3 39 3e
       -0.915298 -0.25119445 -0.3262106 0.18141128
000070 ea a5 94 3e ea aa 7b bf a9 6f a5 be ae 02 bd be
       0.29032832 -0.9830767 -0.32311752 -0.36916107
000080 77 4b 4f bf ef c4 77 bf 75 2b 22 bf 3c 58 46 bd
       -0.80974525 -0.9678487 -0.6334756 -0.04842399
000090 bc ae 63 bf d0 f9 72 3f 82 f9 16 be 32 2f 75 be
       -0.889385 0.94912434 -0.14743617 -0.23943785
0000a0 38 ca 80 be e1 d7 5d be e2 49 97 bf 66 e0 1d bb
       -0.2515428 -0.21664383 -1.1819422 -0.002409005
0000b0 0c 56 cf bc 33 56 7e 3e 46 3d 82 3d 92 28 8b be
       -0.025309585 0.2483757 0.06359343 -0.2717939
0000c0 6a 70 74 be 95 73 13 bf 4c 85 5e 3d 35 f9 37 be
       -0.23871008 -0.5759824 0.05432634 -0.17966159
0000d0 03 66 be be 22 91 bf be 4e ac a7 bc 17 25 6e bf
       -0.37187204 -0.37415415 -0.020467903 -0.93025345
0000e0 25 5b 23 3f 08 67 11 3f 45 95 c5 bd c0 d6 a1 3e
       0.6381095 0.5679784 -0.096476115 0.31609154
0000f0 a8 c7 23 bf a3 c0 b9 bc a5 f1 d2 bd 14 91 94 bf
       -0.63976526 -0.022674864 -0.10299996 -1.1606774

0.bn.running_var f4 [64]
000000 a4 4b 88 40 76 d0 49 3f 4c db fc 3e 6d ab 39 40
       4.2592335 0.7883371 0.4938606 2.901088
000010 fb fc 1b 40 4f ff 5b 40 7a 3c 5b 40 d4 15 a4 3f
       2.4373157 3.4374578 3.4255662 1.2819161
000020 8f 56 fc 3f f5 d1 5a 3f 3b 1b b5 3e f8 94 c8 3f
       1.9713916 0.8547662 0.35372338 1.5670462
000030 e4 f7 66 40 05 25 db 40 e3 50 10 40 23 18 03 40
       3.60888 6.848269 2.254937 2.0483482
000040 58 28 37 3f 22 68 29 40 fa ba 79 40 58 8d 19 3f
       0.71545935 2.6469808 3.9020371 0.599813
000050 7f c8 5d 40 61 cd 85 40 0b 5f 96 3f f0 84 81 40
       3.4653623 4.1813207 1.1747755 4.0474777
000060 ee 71 b2 3e 3a 2f 11 40 f8 4c 62 3f 7b 12 5c 3f
       0.34852546 2.2685075 0.88398695 0.859657
000070 ea a8 69 40 c2 b1 2e 40 34 63 a3 3e 22 4d 82 40
       3.6509347 2.7295995 0.31911623 4.0719156
000080 87 9e 58 40 17 8d 9f 40 0d b4 a4 40 fa 6b af 3f
       3.3846757 4.985973 5.146979 1.3704827
000090 10 bf fa 3f 59 64 49 40 9f 21 85 40 18 10 6b 40
       1.9589558 3.1467497 4.160354 3.6728573
0000a0 2b af 7c 3f c5 a5 57 40 e0 e8 26 40 28 d8 73 40
       0.98704785 3.3694928 2.6079636 3.8100681
0000b0 6f 25 0a 3f 36 bd 75 40 5a e9 79 40 ad a5 7c 40
       0.5396337 3.8396735 3.9048676 3.947612
0000c0 c8 2a fd 40 9b 14 8c 40 58 5d a2 3e 5a 2c 46 3f
       7.9114723 4.3775153 0.3171184 0.77411425
0000d0 07 a2 e9 3e 07 63 fb 40 25 16 2c 40 a8 a8 9a 41
       0.4563143 7.8558383 2.6888516 19.332352
0000e0 80 e0 35 41 13 56 cf 40 99 38 f7 3e 6a 8e 2d 41
       11.36731 6.479257 0.48285368 10.847269
0000f0 85 ab 88 40 a0 ac 81 40 a9 b5 e0 40 63 fe 2e 40
       4.2709374 4.0523224 7.0221753 2.7342765

1.conv.weight f4 [64, 64, 3, 3]
000000 24 09 4e bf b5 a1 7b bf af db 4a bf e3 f7 f7 3e
       -0.804827 -0.9829362 -0.7924146 0.4843131
000010 0b d2 73 3d 03 22 26 bf 87 c2 0d 3f 21 fe 01 3f
       0.059526484 -0.6489565 0.5537495 0.50778395
000020 2b 08 a6 3e 71 df 06 be 66 cf 3e be b6 99 00 3f
       0.32428107 -0.13171174 -0.18633804 0.50234544
000030 b7 8a 6f 3d 66 6a 44 be 4e cc b8 3e ab f7 ed bc
       0.0584819 -0.19181213 0.36093372 -0.029048761
000040 ac e9 2a be ea 48 29 3e 01 be 2e bf ee ab 1a bf
       -0.16690701 0.16531721 -0.6825867 -0.60418594
000050 13 75 c6 be d0 01 9a be 59 25 0a bf d2 12 c8 be
       -0.38761196 -0.30079508 -0.5396324 -0.3907686
000060 f9 b8 4a 3f f2 19 31 3f a6 9d a2 be 7b ef 15 3f
       0.79188496 0.69180214 -0.317609 0.58568543
000070 23 33 3c 3f 94 9b 5b 3f 75 39 25 bf c5 a7 19 bf
       0.7351553 0.8578427 -0.645408 -0.6002162
000080 1f ad 15 3f 67 c3 65 bf f6 3f 69 bf c7 4a 04 bf
       0.58467287 -0.89751285 -0.9111322 -0.516766
000090 ee 36 48 3f 4d 22 3c 3f ba fe 36 3f 06 0c 00 bf
       0.78208816 0.7348984 0.7148243 -0.50018346
0000a0 99 b9 25 bf bc da 45 3f a5 9a 2a bf ee 26 2e bf
       -0.64736325 0.7728689 -0.6664222 -0.6802815
0000b0 62 f0 b2 be 93 24 82 be 22 05 e0 be b7 c9 97 be
       -0.34949023 -0.2541853 -0.43753916 -0.29646084
0000c0 41 fc 07 3e b7 38 79 bd dc 8e 31 bf 48 58 14 3e
       0.13279821 -0.060845103 -0.6935861 0.14486802
0000d0 c7 3b 22 3e 9e 03 c3 be 7c 97 9c bd 5c f1 95 be
       0.15843116 -0.38088697 -0.07646081 -0.29285705
0000e0 af 2b 94 be be e3 98 3c 7a 28 aa be 69 15 08 bf
       -0.28939578 0.018663283 -0.33234006 -0.5315767
0000f0 1c f2 43 be 1d 00 f8 bb 13 9e ba be 03 08 2c bf
       -0.19135326 -0.007568373 -0.36448726 -0.67199725
000100 c5 ae 71 bf f0 29 2c bf 4c d3 1f 3f 7b fe 8e be
       -0.944073 -0.6725149 0.6243179 -0.27928528
000110 34 a9 23 bf e7 2c 53 3f 89 bf 2d 3f d1 ff ca 3e
       -0.6393006 0.8249039 0.67870384 0.39648297
000120 e8 f8 ce 3d 6e 8b b1 3d d6 e7 c4 be 99 70 7d be
       0.10106069 0.08669172 -0.38458127 -0.24749984
000130 18 29 78 3e 6a 36 ea 3e 34 ff 0a be e7 32 fa 3d
       0.24234426 0.4574464 -0.13573915 0.1221674
000140 de be e0 3e a9 5f 83 3e c9 ca 18 bf 07 53 12 bf
       0.4389562 0.2565892 -0.59684426 -0.5715794
000150 72 87 0d 3f 7d 29 16 3f e1 d3 ca be dc 15 13 3f
       0.552848 0.58657056 -0.39614776 0.5745523
000160 75 58 24 3f 4a b7 59 3e 63 df 87 3d 65 74 6e 3e
       0.64197475 0.21261325 0.066344045 0.23286588
000170 e0 68 bb 3e e6 76 8f be 55 fe 12 3e 59 c7 cb 3e
       0.3660345 -0.280204 0.14354832 0.39800528
000180 3b f8 a4 be 66 38 99 be a4 1f b1 bd 11 4a 28 3f
       -0.32220635 -0.2992584 -0.08648613 0.65738016
000190 a9 4b 06 3f ec e3 08 3f b6 50 ba be 81 93 58 3e
       0.524592 0.5347278 -0.36389703 0.21150018
0001a0 43 4e 06 3f b0 5a 1e bf 3c a4 15 bf 01 6e 86 3e
       0.5246317 -0.6185713 -0.58453727 0.262558
0001b0 f0 47 b2 3e b6 37 15 bd 48 e9 98 3e ab 94 7b 3d
       0.3482051 -0.036430083 0.2986548 0.061421078
0001c0 2a 2c b4 be ac 59 6f 3e 2b a1 e2 bd 7c 0e 63 be
       -0.35189945 0.23374051 -0.110658966 -0.22173494
0001d0 31 6a 1e be 19 8e 0c bf a0 a3 83 bf f5 bf b4 be
       -0.15470196 -0.54904324 -1.0284309 -0.35302702
0001e0 96 b4 99 bb 82 21 2b bf 40 b2 28 bf d0 08 5d 3d
       -0.004690717 -0.66848004 -0.6589699 0.053963482
0001f0 db 53 1e be 64 d2 48 3e e1 d1 97 be 86 8d bc be
       -0.15461676 0.19611508 -0.29652312 -0.36826724
000200 af 6f d6 be 4e 27 04 3f 1b 50 bb 3c 4d f9 b4 be
       -0.41882083 0.51622474 0.022865346 -0.3534645
000210 88 0f 96 3e a4 0b da 3d 0e 73 af be 4b c5 11 be
       0.29308724 0.106467515 -0.34267467 -0.14235418
000220 23 3a e3 bd 9c c3 b3 bd c6 06 53 3e dc 72 e4 be
       -0.11095073 -0.08777544 0.20608053 -0.4461888
000230 cf dd 94 3e 10 19 bb 3e 4c 6b f0 bd fd 7c 70 be
       0.29075477 0.3654256 -0.11739215 -0.23485179
000240 10 91 aa be d1 b9 d4 bd 5c 32 ed be 76 fe f3 3e
       -0.333138 -0.10387004 -0.46327484 0.47655076
000250 b5 bb f6 3e 14 14 22 3e 2a fb e5 3e 2d 11 fe 3e
       0.48190084 0.15827972 0.44918185 0.4962248
000260 7c 26 eb 3e da f2 33 3e 60 3a eb bd 90 96 41 be
       0.459278 0.1757311 -0.114857435 -0.18905091
000270 fe d1 f1 3d 99 2d d3 3e c5 72 07 be ff 99 c8 bd
       0.11807631 0.41245726 -0.13227375 -0.097949974
000280 d0 58 af 3e b9 86 b2 3e c3 76 2d 3e b3 e6 aa be
       0.34247446 0.3486841 0.16939835 -0.33379135
000290 5c 73 58 3e 40 b7 66 be d3 25 77 be 47 1c 69 be
       0.21137756 -0.22530842 -0.24135523 -0.22764693
0002a0 c4 a9 80 be 6f 3f e5 bd 32 02 cd be 2e 67 a8 3e
       -0.2512952 -0.111937396 -0.40040737 0.3289122
0002b0 d3 12 8b 3e 25 38 93 3e ad 6d b1 3e 1b e0 cf 3c
       0.271628 0.28753772 0.34653988 0.025375417
0002c0 9f 0a e4 3e ec 94 e6 be c5 38 a8 be 12 66 fc bd
       0.44539353 -0.45035493 -0.32855812 -0.12324156
0002d0 94 55 81 3e 5a fb cb 3b d7 55 c9 be 14 89 81 3e
       0.25260603 0.006225032 -0.39323303 0.25299895
0002e0 de 95 14 be 3d 3d 84 3e 26 a2 2e 3e cf 3b 26 3e
       -0.14510295 0.2582797 0.17054042 0.16233753
0002f0 47 d1 ed 3e c0 78 4f bd 4e 72 0b bf 31 85 1f bf
       0.46448728 -0.050652266 -0.5447129 -0.6231261
000300 60 e5 42 be 52 32 52 3e fa d7 18 bf a7 d9 58 3e
       -0.19032812 0.20527008 -0.59704554 0.21176778
000310 1a 55 76 3e 5c 6b a8 3e 05 a4 45 3f 0e 96 40 3f
       0.24055901 0.3289441 0.772034 0.75228965
000320 f4 93 35 3f b7 31 09 bf 73 e0 92 be ce 99 11 3f
       0.70928884 -0.53591484 -0.28686866 0.5687531
000330 bd 25 07 bf 8a eb fa be 42 52 dd 3a 51 f7 3b bf
       -0.5279196 -0.49007827 0.0016885477 -0.7342425
000340 31 cf 3f bf 7c 77 41 bf fd b1 0d 3f 46 59 08 3d
       -0.74925524 -0.75572944 0.55349714 0.033288263
000350 83 83 2c bf 13 cd 36 3f c3 09 39 3f a1 a4 bb 3e
       -0.6738817 0.7140667 0.7228052 0.3664904
000360 81 6d 80 3e d2 3a 8a 3e 2e b6 12 bf f9 bf 88 be
       0.25083545 0.26998 -0.57309234 -0.26708964
000370 11 ac d8 3e 4d 30 00 be 48 5f a2 bd 46 9c c6 3e
       0.42318776 -0.12518425 -0.0792833 0.38791102
000380 7d db 00 3f 5e 83 db 3d 60 d2 19 bf 21 94 99 bd
       0.5033491 0.10718416 -0.6008663 -0.074989565
000390 e2 07 1a 3f f2 00 65 3e 7f c9 0a be f6 18 1b 3f
       0.6016828 0.22363642 -0.13553427 0.6058496
0003a0 ec f1 a0 3e 6b c1 00 be 5d 94 98 3e 9b d7 a7 3e
       0.31434572 -0.12573783 0.29800692 0.3278168
0003b0 43 cf c2 3e 47 71 36 be bd ec d9 3d a0 a0 70 be
       0.38048753 -0.1781665 0.10640857 -0.23498774
0003c0 42 34 26 bf 1b 4f 1a 3e 47 06 73 3e cb 6f bb bc
       -0.6492349 0.15069239 0.23732863 -0.022880455
0003d0 ba 08 14 3e 65 69 e0 3e ad c5 01 3f 0f 7f ec 3e
       0.14456454 0.4383041 0.50692254 0.46190688
0003e0 6d 5b b2 3e 48 13 99 3d 7e 4c ae 3e 33 ac 60 bc
       0.34835377 0.07474381 0.34042734 -0.0137129305
0003f0 98 f7 17 bd 38 36 94 bd 25 b0 3c be f5 a2 91 3d
       -0.03710136 -0.07236904 -0.18426569 0.0711116

1.conv.bias f4 [64]
000000 81 f9 3b bb 1b 78 93 3c db 40 a1 3d b8 c3 fb bc
       -0.0028682651 0.018001607 0.07873698 -0.030732974
000010 b1 2f 15 3d 74 19 34 3d 90 a5 11 3d 63 21 bc 3c
       0.036422435 0.043969586 0.035558283 0.022965139
000020 c4 38 5a bd ce ef f6 bc dd a5 cb 3d d6 93 8c bf
       -0.053276792 -0.030143645 0.09943745 -1.0982616
000030 c0 e0 3e bd e9 4b 89 3d 2b 18 52 3d c7 b3 eb bd
       -0.046601057 0.06703932 0.05129258 -0.11508899
000040 b9 cd 77 3d 3c be e2 bc 77 42 68 3c c4 4f 33 3d
       0.060498927 -0.027678601 0.014176003 0.043777242
000050 32 fd 88 bc 60 73 9e 3d 78 34 ec 3d 38 14 cb 3c
       -0.016722295 0.0773685 0.11533445 0.024789914
000060 86 3a b0 bd d9 72 82 bd 50 f1 7b bd ce a3 f9 3c
       -0.086049125 -0.06369562 -0.06150943 0.030473616
000070 3a 18 72 3d 59 7e da 3d 97 99 29 3e da 55 13 3d
       0.059105136 0.1066863 0.16562496 0.035970546
000080 70 98 61 3c 2c 5f a3 bd a2 35 9d 3b d4 a2 6a 3d
       0.013769254 -0.07977137 0.0047976533 0.05728419
000090 0e 7a 06 3d 2b d7 55 bc 26 eb 06 3e 4f 34 73 3d
       0.032831244 -0.013051788 0.1317564 0.059376057
0000a0 49 55 ba 3a a4 da 05 3c 6a 03 0e bd 0d 19 88 3c
       0.0014216091 0.008169804 -0.034671225 0.016613508
0000b0 65 cf 0e 3e fb 17 61 3d 69 c6 41 3b 17 38 3e bd
       0.13946302 0.05495451 0.0029567725 -0.04644021
0000c0 c8 cd 66 3d 84 f6 76 bd 82 8d 64 3e 7c d4 d3 3c
       0.056348592 -0.06029369 0.22319606 0.025858156
0000d0 ef 7d 50 3e 7c 70 e1 3d 66 f0 dc 3b ec 09 34 bc
       0.2036054 0.11007783 0.006742525 -0.010988694
0000e0 cb f0 ee 3a 26 43 8b bc af 12 64 be e1 ef d1 3d
       0.0018229721 -0.016999792 -0.22272752 0.102508314
0000f0 31 92 51 bd 34 70 e4 3c 1b 94 16 bf d8 5e c5 bc
       -0.05116481 0.027885534 -0.5881974 -0.024093077

1.bn.weight f4 [64]
000000 a3 83 34 3f 3e e1 c4 3e 46 29 58 3f 89 16 84 3f
       0.7051336 0.38453096 0.8443798 1.0319377
000010 df 6a 50 3f 1d 4d 84 3f 43 c5 84 3f f5 ee 77 3f
       0.8141307 1.0336033 1.03727 0.96848994
000020 57 0d 99 3f 07 06 9f 3f 59 10 71 3f 83 a8 ba 3f
       1.1957196 1.2423714 0.9416557 1.4582676
000030 3d 73 04 3f e9 ea 76 3f 3f 76 90 3f e5 2d 58 3f
       0.5173834 0.96452194 1.1286086 0.8444503
000040 8f 80 79 3f b0 1e 7d 3f 4b d4 1c 3f 1b 92 a7 3f
       0.9746179 0.9887495 0.61261433 1.3091463
000050 20 da 77 3f fd 09 77 3f aa 21 7c 3f 5f 82 8f 3f
       0.9681721 0.96499616 0.9848887 1.1211661
000060 62 7b 88 3f b7 ec 28 3f 80 eb 81 3f 75 d0 8e 3f
       1.0662653 0.659862 1.0149994 1.1157366
000070 f7 97 08 3f 0f ac 78 3f 47 98 85 3f 89 8f 59 3f
       0.5335688 0.9713754 1.0437096 0.8498464
000080 39 92 af 3f 1b f8 76 3f f9 8d 56 3f 35 7b 93 3f
       1.3716499 0.9647233 0.83810383 1.1521975
000090 5c cf 2e 3f 97 79 4d 3f 07 ea 5a 3f f0 f8 66 3f
       0.68285155 0.80263656 0.8551335 0.902236
0000a0 2d ba 57 3f 66 b7 75 3f 7a c5 3e 3f b2 04 52 3f
       0.84268457 0.9598297 0.74520075 0.82038414
0000b0 71 ca 88 3f ff 05 91 3f 61 72 4a 3f 96 c6 0b 3f
       1.068678 1.1329955 0.7908078 0.54599893
0000c0 cf f1 91 3f 3e 68 64 3f 14 c1 7f 3f ce 9f 7e 3f
       1.1401919 0.8922156 0.9990399 0.9946259
0000d0 d9 6d 74 3f 47 00 58 3f fe d1 8a 3f 6d 3b 76 3f
       0.95480114 0.84375423 1.0845335 0.96184427
0000e0 d4 da 81 3f 7f 09 4d 3f a3 10 81 3f 32 d9 e1 3f
       1.0144906 0.80092615 1.0083202 1.7644408
0000f0 23 f8 83 3f 6f bb 8f 3f 1b 27 a3 3f 5d ec 8a 3f
       1.03101 1.1229075 1.2746309 1.0853382

1.bn.bias f4 [64]
000000 c5 b0 9e be 7f 65 0a 3f e5 5f 25 be 91 c1 c9 be
       -0.3099424 0.5406112 -0.16149862 -0.39405492
000010 c9 f7 7d be c4 c9 12 bf 21 71 2b be 39 8b f8 be
       -0.24801554 -0.5733912 -0.16742374 -0.48543718
000020 73 37 5f bf d3 02 10 bf 1e 7e 37 bf 9a 8a c8 bf
       -0.87193984 -0.5625431 -0.71676815 -1.5667298
000030 0e f6 3a be 0b b3 00 bf 44 8a 07 bf 4d 58 65 be
       -0.18257925 -0.502732 -0.5294535 -0.22396965
000040 12 a8 31 bf 97 e0 8d be b2 1a 00 3d e3 c6 3d bf
       -0.6939708 -0.2771041 0.03127546 -0.741316
000050 c9 45 3e bf 69 3c c8 be 11 37 4f bf e4 8c 5d bf
       -0.74325234 -0.3910859 -0.809434 -0.8654311
000060 e5 fd 34 bf e1 4e bf be de dc 29 bf 84 f7 13 bf
       -0.7069991 -0.37364867 -0.6635264 -0.57799554
000070 23 58 0e 3d 40 15 39 bf 91 68 1d bf 8d 63 9b be
       0.034752022 -0.7229805 -0.6148768 -0.3034939
000080 71 95 3f bf 32 ce 03 bf fa c8 bc be 4d 21 55 bf
       -0.74837404 -0.51486504 -0.36872083 -0.8325394
000090 a9 5e 6d be e7 30 8b be cc d7 90 be 9f 77 61 bf
       -0.23180641 -0.27185747 -0.2828964 -0.8807315
0000a0 46 6d 1a bf 3c 10 f7 be ad eb ee be fd f3 83 be
       -0.6032299 -0.48254573 -0.4666418 -0.25772086
0000b0 e7 4e 35 bf cf c3 25 bf 93 89 05 bf c1 b1 13 be
       -0.7082352 -0.64751905 -0.52163047 -0.14423276
0000c0 c9 25 18 bf 64 30 a4 bf 37 56 51 bf 23 d8 db be
       -0.59432656 -1.2827268 -0.8177218 -0.42938337
0000d0 32 61 16 bf b2 15 89 be 8e e9 47 bf 56 dd 7b bf
       -0.5874206 -0.26774365 -0.7809075 -0.98384607
0000e0 3b 52 a2 bf ec e7 1e bf 5a 5e 64 bf 3c 92 6e bf
       -1.2681345 -0.62072635 -0.8920647 -0.93191886
0000f0 88 e9 97 bf 80 40 16 bf 80 d4 82 bf 67 12 1e bf
       -1.1868143 -0.5869217 -1.02211 -0.6174683

1.bn.running_mean f4 [64]
000000 1e 9a 3a 41 4d a9 5a c1 e4 38 e4 c1 fd 7f 09 c2
       11.662626 -13.666333 -28.527779 -34.37499
000010 04 59 03 c2 c4 82 8f c1 74 a7 2a c2 9c 3e cf c0
       -32.83693 -17.93885 -42.66353 -6.4763927
000020 aa 10 9b c1 a9 aa 1f c2 8b fe c8 c0 ce 3a 16 c2
       -19.383137 -39.91666 -6.281072 -37.557426
000030 fd bf b5 41 e4 a1 4a c1 c7 9b cd c1 1c 0b c4 c1
       22.718744 -12.664524 -25.701063 -24.505424
000040 a4 19 b3 c0 e5 e9 1f c1 2e a4 a1 c0 2b 3d dd c1
       -5.59688 -9.994603 -5.0512915 -27.654867
000050 7a 53 86 40 dc 32 6c c2 a6 4c 3a 40 ed f3 af 40
       4.19769 -59.049667 2.9109282 5.498526
000060 2f f1 15 c0 5d d5 63 40 a5 22 da c0 58 dd e3 c1
       -2.3428457 3.5598977 -6.816729 -28.483078
000070 82 18 83 c1 fd 46 ab c0 86 79 02 c2 6b 20 1b c2
       -16.386967 -5.3524156 -32.618675 -38.78166
000080 d8 8f 61 c2 3f 97 76 c1 ca f9 f8 c0 cc d9 3d c1
       -56.390472 -15.411925 -7.780492 -11.865673
000090 8e 7e 2f 40 64 fe 1e c1 a7 db e2 c1 2e 9f 8c c1
       2.7420993 -9.937107 -28.357252 -17.577724
0000a0 19 91 88 41 d0 ca 89 c1 6c bf da 40 da 76 0a c1
       17.070848 -17.22403 6.835867 -8.6540165
0000b0 fd 4a f6 c1 24 54 89 c1 07 00 48 40 79 85 f6 40
       -30.786615 -17.166084 3.1250017 7.703793
0000c0 35 0a 05 c2 b0 a5 ea 41 1d 8b 0e c2 8b e7 92 c1
       -33.259968 29.330902 -35.635853 -18.363058
0000d0 c0 31 bc c1 45 e0 ad c1 f4 8e 7e c1 bb 31 6e c1
       -23.524292 -21.734507 -15.909901 -14.887141
0000e0 85 2e d6 c0 06 fb 22 41 fc 37 bc c1 7f 3a 2e c2
       -6.6931787 10.186285 -23.527336 -43.557125
0000f0 9a 32 4b 3f fd fc a7 c1 bc 96 a3 c1 9d 1e 59 c1
       0.79374087 -20.99853 -20.4486 -13.569974

1.bn.running_var f4 [64]
000000 b2 d0 bb 42 ea 4f 1c 44 9c 0e 72 44 56 b0 a2 43
       93.90761 625.24866 968.2283 325.37762
000010 76 ae 6b 43 85 8a a9 43 92 e4 45 44 7c 83 13 43
       235.68149 339.08218 791.5714 147.51361
000020 5b d5 18 43 44 82 e9 43 6a f5 45 43 3a 41 1d 44
       152.83342 467.0177 197.95865 629.01917
000030 65 d1 07 43 af 3b ac 43 8b 5f de 43 37 0e 95 43
       135.81795 344.46628 444.74643 298.11105
000040 e6 0e 04 43 fd 7b 8c 43 5a 2d d0 42 4b 5b b3 43
       132.0582 280.96866 104.08858 358.71323
000050 49 7e a3 43 8f 31 94 44 a7 41 64 43 4f 0c 79 43
       326.9866 1185.5487 228.25645 249.04808
000060 dd 22 43 43 bd 68 5b 43 45 64 0a 43 02 ce 18 44
       195.13618 219.40913 138.39168 611.2189
000070 74 a5 f2 43 fe e5 ef 42 1d 7f 0b 44 17 5e c9 43
       485.2926 119.9492 557.98615 402.73508
000080 0c f7 81 44 de 7a 95 43 30 05 53 43 24 f2 4f 43
       1039.7202 298.9599 211.02026 207.94586
000090 f8 8c c3 42 bd 90 86 43 ca 19 c4 43 27 cb 61 43
       97.77533 269.13077 392.20148 225.79356
0000a0 c2 fc 05 43 0d 14 86 43 ea 7a 8d 43 b2 95 25 43
       133.98734 268.15665 282.96027 165.58475
0000b0 78 13 b4 43 c9 5f b8 43 30 58 24 43 8f 21 57 43
       360.1521 368.74832 164.34448 215.13109
0000c0 f0 82 69 43 cc ad 35 43 ae c3 51 43 b7 43 8e 43
       233.51147 181.6789 209.76437 284.52902
0000d0 d2 37 5f 43 f4 14 a1 43 ef 9c a6 43 42 94 37 43
       223.21805 322.1637 333.22604 183.57913
0000e0 28 f3 01 43 13 ea ea 42 8d 9a cc 43 2a 2c 66 44
       129.94983 117.45718 409.20743 920.69006
0000f0 94 44 26 43 3f 06 17 44 fe a0 56 43 74 68 ba 43
       166.26788 604.0976 214.62888 372.81604

2.conv.weight f4 [64, 64, 3, 3]
000000 cb c7 07 3e 15 0b ff 3e 53 df 82 3e 74 7c 97 be
       0.13259809 0.49813142 0.25561008 -0.29587138
000010 df 09 80 bf fe a9 72 be c9 da 8e 3e 06 50 27 3e
       -1.0003012 -0.2369766 0.27901295 0.1633912
000020 43 7a 83 3e 58 ee eb 3e 10 70 15 3f 8e b1 eb 3e
       0.25679216 0.4608028 0.5837412 0.460339
000030 30 27 9b 3e c0 88 cf 3e f9 45 87 be 4f 04 9d be
       0.30303335 0.4053402 -0.26420572 -0.3066735
000040 80 9c 96 be 0c d3 76 be 5f a2 bf bd fc 2b f8 be
       -0.29416275 -0.24103945 -0.09357142 -0.48471057
000050 54 05 a7 be eb 0e fb be e0 e7 80 bf 6c db 59 be
       -0.32621253 -0.4903482 -1.0070763 -0.21275109
000060 ef 35 33 3f 1a 66 1a 3f 3d c8 d5 3e dd b4 8f bf
       0.7000417 0.60312045 0.41754332 -1.122707
000070 eb 94 87 bf b8 9c a3 bd d7 1d 9a bf 96 3c 3e bf
       -1.0592321 -0.07988876 -1.2040356 -0.74311197
000080 ca 06 b6 3e e7 01 4a bf 5f 43 bd 3e b0 20 80 3e
       0.35552055 -0.7890915 0.36965463 0.2502494
000090 34 15 e4 3e e0 ce 0d 3f 40 95 c5 3e 51 51 56 3e
       0.44547427 0.5539379 0.3859043 0.20929457
0000a0 8f 8d f8 3d 91 b9 ba be 5d bb 5c be b8 9a ab be
       0.12136375 -0.364697 -0.21555848 -0.3351648
0000b0 3a 8e 31 bf 39 e2 90 3e f1 51 7b be e7 4b c9 be
       -0.69357646 0.28297594 -0.24542977 -0.3931572
0000c0 2a d6 7c 3e 54 b9 0d bf 4a ab b4 be ae 06 86 bd
       0.24691072 -0.55360913 -0.35286933 -0.06544243
0000d0 eb ad 36 be b5 2b 17 3f f2 88 08 3f fa a0 de 3e
       -0.17839782 0.59051067 0.5333396 0.4348219
0000e0 1b d4 8b 3e 9e 5d 00 3f e8 31 99 bd 56 e1 04 3e
       0.2731026 0.5014285 -0.07480222 0.12976584
0000f0 05 dc 29 3f 29 79 40 3f d8 7e ee 3e bd 82 30 bf
       0.6635135 0.75184876 0.4658115 -0.6894949
000100 bf b2 38 bf e6 12 4b be 03 00 0d bf 5f 6f cf be
       -0.72147745 -0.19831428 -0.5507814 -0.40514657
000110 fa 52 1f 3e 86 59 df 3d 30 88 b0 3e 31 9b f9 3e
       0.15558997 0.10905747 0.34478903 0.48751214
000120 f5 9b bd 3c 4b 5c 5a be 4c ba c8 3e 7f 80 65 bf
       0.023145655 -0.2132427 0.39204633 -0.89649194
000130 d1 67 2e bf d3 0d 49 bf ba ad 40 bf 47 65 58 be
       -0.6812716 -0.7853672 -0.75265086 -0.21132384
000140 75 83 f2 bb 8a 49 85 bf 71 6a 7f bf fc f9 0c bf
       -0.007400925 -1.0413067 -0.9977179 -0.55068946
000150 19 2f ad bd 70 57 35 bf 49 51 4e 3e 3b c0 c5 3e
       -0.08456249 -0.70836544 0.20148195 0.38623223
000160 e0 07 9e 3e 61 b2 11 3f 62 20 eb 3e fb 9e ca 3c
       0.30865383 0.5691281 0.45923144 0.02473401
000170 0b 79 ac bd a2 a0 05 bf 54 8f 80 bf 61 24 63 bd
       -0.084215246 -0.5219823 -1.004374 -0.055454616
000180 75 69 a3 bd e2 a2 0b be 13 4a 66 bd 6b 24 f9 3d
       -0.07979099 -0.13636354 -0.056222986 0.12165149
000190 49 de 9d 3e e3 35 a9 be 17 a8 4d be ce e5 1e bf
       0.30833653 -0.33048925 -0.20083652 -0.62069404
0001a0 e1 dc c6 be 28 85 b0 3e 3e 78 ac 3e 59 77 58 be
       -0.38840392 0.3447659 0.33685488 -0.21139278
0001b0 97 6c ca 3e a5 38 ad 3e 5e af d3 3e 18 d8 9c 3b
       0.39535972 0.3383228 0.41344732 0.0047865026
0001c0 1b e4 f8 3c 18 61 e1 bd 79 4a 92 be 99 cb 5c be
       0.030382207 -0.11004847 -0.28572443 -0.21562041
0001d0 90 c1 c9 be cf c4 b8 3d c6 c1 03 bf e2 24 e0 be
       -0.3940549 0.09021913 -0.5146755 -0.4377814
0001e0 15 70 35 bd 3d e3 e1 be e3 7c 88 3d 19 69 9e 3d
       -0.044296343 -0.44118682 0.06664445 0.077348895
0001f0 19 19 62 3e b1 68 bd 3e e8 f4 9a 3e 4a c4 9b bd
       0.22079886 0.36993936 0.30264974 -0.076057985
000200 21 01 e8 3e 28 a7 ec 3e 9a 0c e9 3e 67 06 fb 3e
       0.4531336 0.4622128 0.45517427 0.49028322
000210 cb ef 56 3e 29 29 5f 3e b7 d7 02 3f 53 b7 ae bf
       0.20989911 0.21793045 0.51110405 -1.3649696
000220 0b 9c cb be 29 ab f6 be b2 f6 5f bf 8d c3 94 be
       -0.3976749 -0.4817746 -0.874858 -0.29055443
000230 55 99 e7 be c2 0b 6b be e2 22 1d 3f 7f 3c d3 3e
       -0.4523417 -0.22953704 0.6138135 0.41257092
000240 28 5c 15 bf 55 42 8f be 0e d9 1b be 17 3e f4 be
       -0.58343744 -0.27980295 -0.15219519 -0.4770362
000250 df d0 07 bf 0c 58 cc be 92 c4 b5 b9 de 08 b5 be
       -0.53053087 -0.39910924 -0.00034669467 -0.35358328
000260 c0 24 d6 bd 00 dc 0e bf 1a aa 4d be 67 a8 3c 3d
       -0.10456228 -0.55804443 -0.2008442 0.04605904
000270 d8 2a f0 be 46 b8 9f be 87 36 82 3e 6c 3f 67 bd
       -0.46907687 -0.31195277 0.25432226 -0.05645697
000280 9f a1 4e 3d 51 d9 72 be fa 83 14 3f bf a4 0d 3f
       0.050447103 -0.23715712 0.5801388 0.5532951
000290 66 bf 0c 3f 47 aa f4 3e 93 2b 77 3d 1f 3c 18 bf
       0.5497955 0.4778616 0.06034429 -0.5946674
0002a0 f0 fa 25 3e 8e e0 d6 be 84 ca 26 bf 23 86 2c bf
       0.16209006 -0.41968197 -0.65152764 -0.67392176
0002b0 cc d6 d1 be 66 95 14 bf d9 87 c7 be f6 8c 69 be
       -0.4098419 -0.58040464 -0.3897083 -0.22807679
0002c0 bf 00 af be 94 3f d3 bd 05 3a 1f 3f 55 69 7d 3e
       -0.34180257 -0.10314861 0.62197906 0.24747212
0002d0 7f 1a 59 bf 33 ad ad be 26 0c 25 bf ee 30 0a bf
       -0.84806055 -0.33921203 -0.6447166 -0.5398091
0002e0 d1 4f ac 3e 26 a9 f5 bd a8 29 7e bf bf 7c fc 3d
       0.33654645 -0.11995153 -0.9928231 0.12328481
0002f0 95 68 f9 be 22 4c 08 bf 79 e4 fc be 51 33 33 bf
       -0.48712602 -0.5324117 -0.4939306 -0.7000018
000300 c4 79 d6 be a5 30 0f bf 70 3e ff be 27 7f e4 3e
       -0.41889775 -0.559336 -0.49852324 0.4462826
000310 6e f2 16 3f d7 5c 08 3f 83 02 09 3f cd 70 56 3e
       0.5896367 0.5326666 0.5351946 0.20941468
000320 6f b0 90 be 19 d4 72 be f8 a9 2b bf 4c 83 e8 3e
       -0.28259608 -0.23713721 -0.67056227 0.45412672
000330 d2 f2 c8 3e e3 0d 9a 3d d4 6d 1e 3e 5e 02 96 3e
       0.39247757 0.0752218 0.15471584 0.2929868
000340 f9 28 ac 3e 13 48 00 3f 88 af f8 bd 17 14 00 be
       0.3362501 0.50109977 -0.12142855 -0.12507664
000350 8e c1 90 3e 9b 09 84 3e 16 d6 a1 3e 7b e9 92 3e
       0.2827267 0.25788578 0.31608647 0.28693756
000360 be 6f 9c be 67 a2 a4 be 1f 3c 94 3d 87 1c dc be
       -0.30554003 -0.32155153 0.0723803 -0.42990515
000370 e1 3d c4 be 91 dd b8 bd d5 94 31 3e c5 9e b2 3e
       -0.3832846 -0.090266354 0.17341931 0.34886757
000380 7c 16 2f be 3c 4c df 3e 52 1f f9 3c 0f 54 23 be
       -0.17098421 0.4361285 0.030410443 -0.15950035
000390 ad 86 1e be 31 44 25 be 03 2e 04 bf d8 6c df be
       -0.15481062 -0.16139294 -0.5163271 -0.4363773
0003a0 36 a9 a1 be 8e f5 b9 be 45 aa 32 3f 9f 85 20 3f
       -0.3157441 -0.36320156 0.6979106 0.6270389
0003b0 4e 5b a8 3e 2e e5 74 be 34 45 dc 3e 55 36 a1 3e
       0.3288216 -0.2391555 0.43021548 0.31486765
0003c0 bf ec 37 be 01 6f 6c be a0 04 37 be a4 7a 29 3f
       -0.17961405 -0.2308922 -0.17872858 0.6620276
0003d0 af 37 74 be 76 c2 73 be d6 a5 1a bf 9c d3 03 be
       -0.23849367 -0.2380465 -0.60409296 -0.12873691
0003e0 fe ad 0e 3f 78 21 73 3e c3 e1 ed 3e e9 58 e7 3d
       0.5573424 0.23743236 0.46461305 0.11296255
0003f0 54 7c e8 3e 6c 83 db 3e f2 76 19 3e 68 9e c7 3e
       0.45407355 0.42873704 0.1498678 0.38988042

2.conv.bias f4 [64]
000000 ac 1c 9c 3e 56 a5 60 bd f6 ff ff 3e de a1 6c 3d
       0.30490625 -0.054845177 0.4999997 0.057771556
000010 7a 4a 9a be 64 b6 5b 3d aa 33 22 3e 21 99 36 3e
       -0.30134946 0.053640738 0.15840021 0.17831852
000020 ab ea ac 3e d6 f5 2d 3e 38 6f b8 3e 60 cd e8 3e
       0.33772787 0.1698831 0.36022353 0.4546919
000030 d3 29 33 be e3 a1 06 be 98 75 e2 bc cb 6d 83 3e
       -0.17496423 -0.13147692 -0.027643964 0.25669703
000040 fb 86 07 3e 4b e7 4d 3c 5a cb e3 3e fa 0f e6 bd
       0.13235085 0.012567352 0.44491082 -0.11233516
000050 6f 65 bd 3e 84 e0 95 3d 68 fb b9 bf 77 2f 12 3d
       0.3699145 0.073182136 -1.4529848 0.035689797
000060 96 06 b9 bc f3 20 f8 3e 46 33 b0 bb fa 6f e4 bd
       -0.022586148 0.48462638 -0.005377206 -0.1115417
000070 30 7e 67 3e 0f 7f 8e 3d f3 60 39 3e 2a 8f 14 bd
       0.2260673 0.06957828 0.1810339 -0.036269344
000080 53 9a b9 bc 94 1f 11 3f ee 8e df 3c 09 61 c5 3e
       -0.022656595 0.5668881 0.027289834 0.38550594
000090 23 3f 46 3e 56 a0 37 bd c1 bd c7 be 16 6e 15 3f
       0.19360022 -0.044830643 -0.39011958 0.583711
0000a0 9c 09 58 3e 65 5e 03 3e 42 a0 dd bd 44 99 4d bd
       0.21097416 0.12828977 -0.108215824 -0.050194994
0000b0 04 ab 8f bd e5 38 e2 3d 7a 7b d2 3d 59 7d 80 bd
       -0.070150405 0.11046008 0.102774575 -0.06273908
0000c0 cf c6 e6 3e 9e fc 29 be ea bb 3e 3e 1c b2 81 3c
       0.45073554 -0.16600272 0.18626371 0.015832
0000d0 c4 18 ba 3d 89 53 15 bd 41 8d 7e 3e 20 8c ba 3e
       0.09086755 -0.03645662 0.24858572 0.36435032
0000e0 74 f4 6c 3e 25 02 1f be ab f7 a8 bd fe 1e 68 be
       0.23140126 -0.15528162 -0.08250364 -0.22668073
0000f0 53 7a fe b9 3c 15 c1 3d b3 3b 22 3f e5 18 2e 3e
       -0.00048537794 0.09427878 0.63372344 0.17001684

2.bn.weight f4 [64]
000000 41 d4 6d 3f d4 60 47 3f 5e 64 46 3f c9 6b 33 3f
       0.92902 0.77882123 0.774969 0.7008634
000010 be 49 73 3f 0d 1c 55 3f bb 70 29 3f 85 fa 52 3f
       0.95034397 0.8324593 0.6618764 0.8241351
000020 0a d0 3d 3f 51 25 5d 3f 54 92 38 3f 79 3d 50 3f
       0.7414557 0.86385065 0.7209828 0.813438
000030 47 02 9c 3f 82 13 82 3f 3b dc 42 3f 08 42 8a 3f
       1.2188195 1.0162203 0.76117295 1.0801401
000040 4d e8 69 3f b7 7b 40 3f 3d 88 53 3f a7 6f 5f 3f
       0.9137009 0.75188774 0.8262976 0.8727974
000050 ec 7f 0a 3f f3 40 eb 3e 13 0d a8 3f 29 8b 60 3e
       0.54101443 0.4594799 1.312899 0.21928085
000060 c6 0b 59 3f ac b9 5e 3f 4f 94 87 3f 76 20 6d 3f
       0.8478359 0.8700206 1.0592135 0.92627656
000070 e3 bd 42 3f 64 72 34 3f 94 83 7b 3f 08 36 42 3f
       0.76070994 0.70487046 0.9824765 0.75863695
000080 89 26 5d 3f f2 ae 64 3f 6a bd 8d 3f ec fd 3b 3f
       0.86386925 0.89329445 1.107343 0.7343433
000090 95 8f 40 3f b6 e4 91 3f 37 a8 9b 3f 23 b3 3a 3f
       0.7521909 1.1397922 1.216071 0.7292959
0000a0 0f c8 5d 3f 90 d4 01 3f 48 a8 88 3f 72 e0 31 3f
       0.8663339 0.5071497 1.0676355 0.694831
0000b0 08 cd 7e 3e ec 64 3d 3f 8c 18 74 3f 01 03 58 3f
       0.248829 0.7398212 0.95349956 0.84379584
0000c0 e1 17 52 3f 83 3e 6b 3f e6 96 82 3f ff aa 83 3e
       0.82067686 0.9189226 1.02023 0.25716397
0000d0 ee e5 8b 3e e8 59 67 3f da 21 4c 3f bc 66 73 3f
       0.2732386 0.9037156 0.79739153 0.95078635
0000e0 cc f3 49 3f db c2 81 3f f9 67 3d 3f df 87 72 3f
       0.7888763 1.013759 0.73986775 0.9473857
0000f0 32 9d 89 3f 39 e1 3a 3f 95 0a 70 3f c9 fa 71 3f
       1.0751097 0.7299991 0.93766147 0.9452329

2.bn.bias f4 [64]
000000 d5 bf 79 bf ba 82 a7 be 94 39 69 bf 41 f5 bb be
       -0.9755834 -0.32716924 -0.9110348 -0.3671055
000010 fb c0 75 bf 1b 2b 06 bf 41 cf b9 be 8c 15 fa be
       -0.9599759 -0.52409524 -0.36290935 -0.48844564
000020 ad cd 09 bf 4c a2 01 bf 9e b9 36 bf 80 41 45 bf
       -0.5382946 -0.5063827 -0.7137698 -0.7705307
000030 86 b4 3d bf fd 3b 3d bf 46 d6 c8 be d5 8b 85 bf
       -0.7410358 -0.7391966 -0.39225978 -1.0433298
000040 39 4d 92 bf 5a 36 0b bf 48 9d 01 bf 2c 24 46 bf
       -1.1429816 -0.5437981 -0.5063062 -0.77398944
000050 b7 f8 17 bf 4b a2 ea bd a2 d8 02 c0 6a 82 c3 3f
       -0.59363884 -0.11456736 -2.0444722 1.5274174
000060 e8 7d 2c bf f0 32 96 bf 79 71 89 bf 0d 20 90 bf
       -0.6737962 -1.1734295 -1.0737754 -1.1259781
000070 d2 ca 3a bf 4e 21 30 bf 66 03 74 bf 2c 6c 55 bf
       -0.7296573 -0.6880082 -0.95317686 -0.8336818
000080 19 d2 6d bf 09 3e 6e bf f7 2b 3d bf a7 3d 39 bf
       -0.9289871 -0.9306341 -0.7389521 -0.723597
000090 a0 df 2e bf 10 51 6b bf b6 6d 88 bf 3f 13 4d bf
       -0.68309975 -0.91920567 -1.0658481 -0.8010749
0000a0 bd b5 50 bf 4c 56 bb be 61 26 32 bf 90 37 5d be
       -0.8152731 -0.36589277 -0.6958981 -0.21603227
0000b0 5c 88 96 3f f8 c6 08 bf f9 8d 03 bf c4 a6 6e bf
       1.1760364 -0.534286 -0.5138851 -0.93223214
0000c0 54 f4 6c bf a5 35 75 bf 20 d7 8b bf c1 a6 40 3f
       -0.92560315 -0.9578498 -1.0925026 0.75254446
0000d0 a4 0b 46 3f 8a 09 4c bf b5 ff 30 bf ce 31 8c bf
       0.7736151 -0.79702055 -0.6914018 -1.0952699
0000e0 fb b9 35 bf a5 29 3d bf de 61 37 bf 7e 5d 5b bf
       -0.7098691 -0.7389167 -0.7163371 -0.8568953
0000f0 4f 2f 3c bf 08 c0 4e bf a0 0a 97 bf 68 6c ea be
       -0.7350969 -0.80761766 -1.1800117 -0.45785832

2.bn.running_mean f4 [64]
000000 ff f3 b1 c0 cc aa 3b c1 08 57 31 c1 4c 5d 0e c1
       -5.5610347 -11.729198 -11.083748 -8.897778
000010 b0 c8 b6 c0 4c 90 9b c0 77 3b ce c0 73 47 24 41
       -5.711998 -4.8613644 -6.444759 10.267444
000020 34 9f a6 c0 df fa 21 c1 ea 23 4c c1 62 82 17 c1
       -5.206934 -10.123748 -12.758768 -9.469332
000030 f8 5c 55 c1 ae 06 1f c1 05 06 af c0 87 9f 41 c1
       -13.335197 -9.939131 -5.469485 -12.101447
000040 0f cf 84 bf 91 fc d2 c0 59 3e e3 c0 6c 20 dc c0
       -1.0375689 -6.593331 -7.101361 -6.8789577
000050 89 6b 29 c1 65 5a ef c0 96 9c 44 c1 1e 20 b7 3d
       -10.588754 -7.4797845 -12.288229 0.08941673
000060 36 40 22 40 65 8e 80 c0 4e ae 0f c1 40 21 ac c0
       2.5351691 -4.017382 -8.980055 -5.379059
000070 9c b0 b2 c0 f9 0c 89 c0 44 20 08 c1 50 db 75 3f
       -5.584059 -4.2828336 -8.507877 0.9603777
000080 27 b2 2f c1 69 83 1f c1 b8 c0 1b c1 0a a0 c9 c0
       -10.980994 -9.969583 -9.73455 -6.300786
000090 41 c9 1b c1 af 13 05 c1 ec c3 7c c1 2f 5a 17 c1
       -9.736634 -8.317306 -15.7978325 -9.4595175
0000a0 cd b1 8e c0 fa f0 ee c0 75 d7 3b c1 01 6f 1b c1
       -4.459204 -7.466916 -11.740102 -9.714601
0000b0 88 6f 39 3f 66 2c e5 c0 3d c1 2a c1 d2 21 9f c0
       0.7243581 -7.1616697 -10.672177 -4.9728785
0000c0 04 82 2f c1 79 1a d4 c0 16 ee 44 c1 e2 5f 8d c0
       -10.969242 -6.6282315 -12.308126 -4.4179544
0000d0 8e 33 ee c0 3e 31 1c c1 71 71 c9 c0 4b e2 e1 c0
       -7.4437933 -9.762022 -6.295098 -7.0588737
0000e0 d0 ca 81 c0 83 6b 42 c1 3a ac 05 c1 be 6b d0 c0
       -4.0560074 -12.151248 -8.3545475 -6.513152
0000f0 42 f9 bb c0 a2 b7 e2 bf a4 c9 cc c0 96 25 42 c0
       -5.874177 -1.771229 -6.3996143 -3.033544

2.bn.running_var f4 [64]
000000 ad 7a 3f 42 90 a8 a3 42 02 25 2d 42 ef c0 9f 42
       47.8698 81.82922 43.28614 79.87682
000010 c3 0d 82 42 b9 9b 95 42 f3 52 50 42 33 7b ef 42
       65.02688 74.804146 52.081005 119.74062
000020 c3 f2 1c 42 93 ef 71 42 41 b2 82 42 5c 2d 28 42
       39.237072 60.48396 65.34815 42.044296
000030 6d a6 fb 42 79 c1 9f 42 5e ef 82 42 cf 0d 90 42
       125.82505 79.87788 65.467514 72.02697
000040 5d 73 32 42 56 b6 53 42 2b 57 6b 42 8c aa 61 42
       44.61266 52.928062 58.835125 56.41655
000050 54 d3 3c 42 8f 61 53 42 d3 d0 98 42 64 5c 1f 42
       47.206375 52.845272 76.40786 39.840225
000060 1b fb 43 42 8d 54 09 42 08 98 4a 42 7d 1f 0e 42
       48.99522 34.33257 50.648468 35.53075
000070 ab d0 20 42 c3 73 12 42 90 70 2b 42 91 43 f3 41
       40.203777 36.61305 42.859924 30.407991
000080 0d 31 7e 42 e5 9b 4e 42 98 ce 6e 42 99 1d 0f 42
       63.5479 51.65224 59.70175 35.778904
000090 7c ee 6c 42 02 11 a0 42 96 0d b2 42 4c 64 33 42
       59.232895 80.03322 89.026535 44.847946
0000a0 85 18 21 42 be 28 4b 42 c9 63 96 42 3e 84 80 42
       40.273945 50.789787 75.19489 64.258286
0000b0 8e 3b 30 42 ac be 6f 42 41 f5 c7 42 ba 80 43 42
       44.05816 59.936203 99.97901 48.87571
0000c0 55 49 5a 42 7c 57 29 42 72 ee 2a 42 68 61 12 42
       54.571613 42.335434 42.732857 36.595123
0000d0 c8 41 74 42 4b 2d 50 42 c1 2b 62 42 d6 3e 44 42
       61.06424 52.04423 56.54273 49.061363
0000e0 2b 82 38 42 98 0d 73 42 7c d6 3e 42 fc 86 2f 42
       46.127117 60.763275 47.709457 43.88182
0000f0 3d 3c 9a 42 1d f2 56 42 54 12 0e 42 27 55 b3 42
       77.11765 53.73644 35.5179 89.66631
